{
  "nodes": [
    {
      "op": "null", 
      "name": "data", 
      "inputs": []
    }, 
    {
      "op": "null", 
      "name": "resnetv22_batchnorm0_gamma", 
      "attrs": {
        "__dtype__": "0", 
        "__init__": "ones", 
        "__lr_mult__": "1.0", 
        "__shape__": "(3,)", 
        "__storage_type__": "0", 
        "__wd_mult__": "1.0"
      }, 
      "inputs": []
    }, 
    {
      "op": "null", 
      "name": "resnetv22_batchnorm0_beta", 
      "attrs": {
        "__dtype__": "0", 
        "__init__": "zeros", 
        "__lr_mult__": "1.0", 
        "__shape__": "(3,)", 
        "__storage_type__": "0", 
        "__wd_mult__": "1.0"
      }, 
      "inputs": []
    }, 
    {
      "op": "null", 
      "name": "resnetv22_batchnorm0_running_mean", 
      "attrs": {
        "__dtype__": "0", 
        "__init__": "zeros", 
        "__lr_mult__": "1.0", 
        "__shape__": "(3,)", 
        "__storage_type__": "0", 
        "__wd_mult__": "1.0"
      }, 
      "inputs": []
    }, 
    {
      "op": "null", 
      "name": "resnetv22_batchnorm0_running_var", 
      "attrs": {
        "__dtype__": "0", 
        "__init__": "ones", 
        "__lr_mult__": "1.0", 
        "__shape__": "(3,)", 
        "__storage_type__": "0", 
        "__wd_mult__": "1.0"
      }, 
      "inputs": []
    }, 
    {
      "op": "BatchNorm", 
      "name": "resnetv22_batchnorm0_fwd", 
      "attrs": {
        "axis": "1", 
        "eps": "1e-05", 
        "fix_gamma": "True", 
        "momentum": "0.9", 
        "use_global_stats": "False"
      }, 
      "inputs": [[0, 0, 0], [1, 0, 0], [2, 0, 0], [3, 0, 1], [4, 0, 1]]
    }, 
    {
      "op": "amp_cast", 
      "name": "resnetv22_conv0_amp_cast0", 
      "attrs": {"dtype": "float16"}, 
      "inputs": [[5, 0, 0]]
    }, 
    {
      "op": "null", 
      "name": "resnetv22_conv0_weight", 
      "attrs": {
        "__dtype__": "0", 
        "__lr_mult__": "1.0", 
        "__shape__": "(64, 3, 7, 7)", 
        "__storage_type__": "0", 
        "__wd_mult__": "1.0"
      }, 
      "inputs": []
    }, 
    {
      "op": "amp_cast", 
      "name": "resnetv22_conv0_amp_cast1", 
      "attrs": {"dtype": "float16"}, 
      "inputs": [[7, 0, 0]]
    }, 
    {
      "op": "Convolution", 
      "name": "resnetv22_conv0_fwd", 
      "attrs": {
        "dilate": "(1, 1)", 
        "kernel": "(7, 7)", 
        "layout": "NCHW", 
        "no_bias": "True", 
        "num_filter": "64", 
        "num_group": "1", 
        "pad": "(3, 3)", 
        "stride": "(2, 2)"
      }, 
      "inputs": [[6, 0, 0], [8, 0, 0]]
    }, 
    {
      "op": "null", 
      "name": "resnetv22_batchnorm1_gamma", 
      "attrs": {
        "__dtype__": "0", 
        "__init__": "ones", 
        "__lr_mult__": "1.0", 
        "__shape__": "(64,)", 
        "__storage_type__": "0", 
        "__wd_mult__": "1.0"
      }, 
      "inputs": []
    }, 
    {
      "op": "null", 
      "name": "resnetv22_batchnorm1_beta", 
      "attrs": {
        "__dtype__": "0", 
        "__init__": "zeros", 
        "__lr_mult__": "1.0", 
        "__shape__": "(64,)", 
        "__storage_type__": "0", 
        "__wd_mult__": "1.0"
      }, 
      "inputs": []
    }, 
    {
      "op": "null", 
      "name": "resnetv22_batchnorm1_running_mean", 
      "attrs": {
        "__dtype__": "0", 
        "__init__": "zeros", 
        "__lr_mult__": "1.0", 
        "__shape__": "(64,)", 
        "__storage_type__": "0", 
        "__wd_mult__": "1.0"
      }, 
      "inputs": []
    }, 
    {
      "op": "null", 
      "name": "resnetv22_batchnorm1_running_var", 
      "attrs": {
        "__dtype__": "0", 
        "__init__": "ones", 
        "__lr_mult__": "1.0", 
        "__shape__": "(64,)", 
        "__storage_type__": "0", 
        "__wd_mult__": "1.0"
      }, 
      "inputs": []
    }, 
    {
      "op": "BatchNorm", 
      "name": "resnetv22_batchnorm1_fwd", 
      "attrs": {
        "axis": "1", 
        "eps": "1e-05", 
        "fix_gamma": "False", 
        "momentum": "0.9", 
        "use_global_stats": "False"
      }, 
      "inputs": [[9, 0, 0], [10, 0, 0], [11, 0, 0], [12, 0, 1], [13, 0, 1]]
    }, 
    {
      "op": "Activation", 
      "name": "resnetv22_relu0_fwd", 
      "attrs": {"act_type": "relu"}, 
      "inputs": [[14, 0, 0]]
    }, 
    {
      "op": "Pooling", 
      "name": "resnetv22_pool0_fwd", 
      "attrs": {
        "global_pool": "False", 
        "kernel": "(3, 3)", 
        "layout": "NCHW", 
        "pad": "(1, 1)", 
        "pool_type": "max", 
        "pooling_convention": "valid", 
        "stride": "(2, 2)"
      }, 
      "inputs": [[15, 0, 0]]
    }, 
    {
      "op": "null", 
      "name": "resnetv22_stage1_batchnorm0_gamma", 
      "attrs": {
        "__dtype__": "0", 
        "__init__": "ones", 
        "__lr_mult__": "1.0", 
        "__shape__": "(64,)", 
        "__storage_type__": "0", 
        "__wd_mult__": "1.0"
      }, 
      "inputs": []
    }, 
    {
      "op": "null", 
      "name": "resnetv22_stage1_batchnorm0_beta", 
      "attrs": {
        "__dtype__": "0", 
        "__init__": "zeros", 
        "__lr_mult__": "1.0", 
        "__shape__": "(64,)", 
        "__storage_type__": "0", 
        "__wd_mult__": "1.0"
      }, 
      "inputs": []
    }, 
    {
      "op": "null", 
      "name": "resnetv22_stage1_batchnorm0_running_mean", 
      "attrs": {
        "__dtype__": "0", 
        "__init__": "zeros", 
        "__lr_mult__": "1.0", 
        "__shape__": "(64,)", 
        "__storage_type__": "0", 
        "__wd_mult__": "1.0"
      }, 
      "inputs": []
    }, 
    {
      "op": "null", 
      "name": "resnetv22_stage1_batchnorm0_running_var", 
      "attrs": {
        "__dtype__": "0", 
        "__init__": "ones", 
        "__lr_mult__": "1.0", 
        "__shape__": "(64,)", 
        "__storage_type__": "0", 
        "__wd_mult__": "1.0"
      }, 
      "inputs": []
    }, 
    {
      "op": "BatchNorm", 
      "name": "resnetv22_stage1_batchnorm0_fwd", 
      "attrs": {
        "axis": "1", 
        "eps": "1e-05", 
        "fix_gamma": "False", 
        "momentum": "0.9", 
        "use_global_stats": "False"
      }, 
      "inputs": [[16, 0, 0], [17, 0, 0], [18, 0, 0], [19, 0, 1], [20, 0, 1]]
    }, 
    {
      "op": "Activation", 
      "name": "resnetv22_stage1_activation0", 
      "attrs": {"act_type": "relu"}, 
      "inputs": [[21, 0, 0]]
    }, 
    {
      "op": "amp_cast", 
      "name": "resnetv22_stage1_conv0_amp_cast0", 
      "attrs": {"dtype": "float16"}, 
      "inputs": [[22, 0, 0]]
    }, 
    {
      "op": "null", 
      "name": "resnetv22_stage1_conv0_weight", 
      "attrs": {
        "__dtype__": "0", 
        "__lr_mult__": "1.0", 
        "__shape__": "(64, 64, 3, 3)", 
        "__storage_type__": "0", 
        "__wd_mult__": "1.0"
      }, 
      "inputs": []
    }, 
    {
      "op": "amp_cast", 
      "name": "resnetv22_stage1_conv0_amp_cast1", 
      "attrs": {"dtype": "float16"}, 
      "inputs": [[24, 0, 0]]
    }, 
    {
      "op": "Convolution", 
      "name": "resnetv22_stage1_conv0_fwd", 
      "attrs": {
        "dilate": "(1, 1)", 
        "kernel": "(3, 3)", 
        "layout": "NCHW", 
        "no_bias": "True", 
        "num_filter": "64", 
        "num_group": "1", 
        "pad": "(1, 1)", 
        "stride": "(1, 1)"
      }, 
      "inputs": [[23, 0, 0], [25, 0, 0]]
    }, 
    {
      "op": "null", 
      "name": "resnetv22_stage1_batchnorm1_gamma", 
      "attrs": {
        "__dtype__": "0", 
        "__init__": "ones", 
        "__lr_mult__": "1.0", 
        "__shape__": "(64,)", 
        "__storage_type__": "0", 
        "__wd_mult__": "1.0"
      }, 
      "inputs": []
    }, 
    {
      "op": "null", 
      "name": "resnetv22_stage1_batchnorm1_beta", 
      "attrs": {
        "__dtype__": "0", 
        "__init__": "zeros", 
        "__lr_mult__": "1.0", 
        "__shape__": "(64,)", 
        "__storage_type__": "0", 
        "__wd_mult__": "1.0"
      }, 
      "inputs": []
    }, 
    {
      "op": "null", 
      "name": "resnetv22_stage1_batchnorm1_running_mean", 
      "attrs": {
        "__dtype__": "0", 
        "__init__": "zeros", 
        "__lr_mult__": "1.0", 
        "__shape__": "(64,)", 
        "__storage_type__": "0", 
        "__wd_mult__": "1.0"
      }, 
      "inputs": []
    }, 
    {
      "op": "null", 
      "name": "resnetv22_stage1_batchnorm1_running_var", 
      "attrs": {
        "__dtype__": "0", 
        "__init__": "ones", 
        "__lr_mult__": "1.0", 
        "__shape__": "(64,)", 
        "__storage_type__": "0", 
        "__wd_mult__": "1.0"
      }, 
      "inputs": []
    }, 
    {
      "op": "BatchNorm", 
      "name": "resnetv22_stage1_batchnorm1_fwd", 
      "attrs": {
        "axis": "1", 
        "eps": "1e-05", 
        "fix_gamma": "False", 
        "momentum": "0.9", 
        "use_global_stats": "False"
      }, 
      "inputs": [[26, 0, 0], [27, 0, 0], [28, 0, 0], [29, 0, 1], [30, 0, 1]]
    }, 
    {
      "op": "Activation", 
      "name": "resnetv22_stage1_activation1", 
      "attrs": {"act_type": "relu"}, 
      "inputs": [[31, 0, 0]]
    }, 
    {
      "op": "amp_cast", 
      "name": "resnetv22_stage1_conv1_amp_cast0", 
      "attrs": {"dtype": "float16"}, 
      "inputs": [[32, 0, 0]]
    }, 
    {
      "op": "null", 
      "name": "resnetv22_stage1_conv1_weight", 
      "attrs": {
        "__dtype__": "0", 
        "__lr_mult__": "1.0", 
        "__shape__": "(64, 64, 3, 3)", 
        "__storage_type__": "0", 
        "__wd_mult__": "1.0"
      }, 
      "inputs": []
    }, 
    {
      "op": "amp_cast", 
      "name": "resnetv22_stage1_conv1_amp_cast1", 
      "attrs": {"dtype": "float16"}, 
      "inputs": [[34, 0, 0]]
    }, 
    {
      "op": "Convolution", 
      "name": "resnetv22_stage1_conv1_fwd", 
      "attrs": {
        "dilate": "(1, 1)", 
        "kernel": "(3, 3)", 
        "layout": "NCHW", 
        "no_bias": "True", 
        "num_filter": "64", 
        "num_group": "1", 
        "pad": "(1, 1)", 
        "stride": "(1, 1)"
      }, 
      "inputs": [[33, 0, 0], [35, 0, 0]]
    }, 
    {
      "op": "amp_multicast", 
      "name": "resnetv22_stage1_amp_multicast0", 
      "attrs": {"num_outputs": "2"}, 
      "inputs": [[36, 0, 0], [16, 0, 0]]
    }, 
    {
      "op": "elemwise_add", 
      "name": "resnetv22_stage1__plus0", 
      "inputs": [[37, 0, 0], [37, 1, 0]]
    }, 
    {
      "op": "null", 
      "name": "resnetv22_stage1_batchnorm2_gamma", 
      "attrs": {
        "__dtype__": "0", 
        "__init__": "ones", 
        "__lr_mult__": "1.0", 
        "__shape__": "(64,)", 
        "__storage_type__": "0", 
        "__wd_mult__": "1.0"
      }, 
      "inputs": []
    }, 
    {
      "op": "null", 
      "name": "resnetv22_stage1_batchnorm2_beta", 
      "attrs": {
        "__dtype__": "0", 
        "__init__": "zeros", 
        "__lr_mult__": "1.0", 
        "__shape__": "(64,)", 
        "__storage_type__": "0", 
        "__wd_mult__": "1.0"
      }, 
      "inputs": []
    }, 
    {
      "op": "null", 
      "name": "resnetv22_stage1_batchnorm2_running_mean", 
      "attrs": {
        "__dtype__": "0", 
        "__init__": "zeros", 
        "__lr_mult__": "1.0", 
        "__shape__": "(64,)", 
        "__storage_type__": "0", 
        "__wd_mult__": "1.0"
      }, 
      "inputs": []
    }, 
    {
      "op": "null", 
      "name": "resnetv22_stage1_batchnorm2_running_var", 
      "attrs": {
        "__dtype__": "0", 
        "__init__": "ones", 
        "__lr_mult__": "1.0", 
        "__shape__": "(64,)", 
        "__storage_type__": "0", 
        "__wd_mult__": "1.0"
      }, 
      "inputs": []
    }, 
    {
      "op": "BatchNorm", 
      "name": "resnetv22_stage1_batchnorm2_fwd", 
      "attrs": {
        "axis": "1", 
        "eps": "1e-05", 
        "fix_gamma": "False", 
        "momentum": "0.9", 
        "use_global_stats": "False"
      }, 
      "inputs": [[38, 0, 0], [39, 0, 0], [40, 0, 0], [41, 0, 1], [42, 0, 1]]
    }, 
    {
      "op": "Activation", 
      "name": "resnetv22_stage1_activation2", 
      "attrs": {"act_type": "relu"}, 
      "inputs": [[43, 0, 0]]
    }, 
    {
      "op": "amp_cast", 
      "name": "resnetv22_stage1_conv2_amp_cast0", 
      "attrs": {"dtype": "float16"}, 
      "inputs": [[44, 0, 0]]
    }, 
    {
      "op": "null", 
      "name": "resnetv22_stage1_conv2_weight", 
      "attrs": {
        "__dtype__": "0", 
        "__lr_mult__": "1.0", 
        "__shape__": "(64, 64, 3, 3)", 
        "__storage_type__": "0", 
        "__wd_mult__": "1.0"
      }, 
      "inputs": []
    }, 
    {
      "op": "amp_cast", 
      "name": "resnetv22_stage1_conv2_amp_cast1", 
      "attrs": {"dtype": "float16"}, 
      "inputs": [[46, 0, 0]]
    }, 
    {
      "op": "Convolution", 
      "name": "resnetv22_stage1_conv2_fwd", 
      "attrs": {
        "dilate": "(1, 1)", 
        "kernel": "(3, 3)", 
        "layout": "NCHW", 
        "no_bias": "True", 
        "num_filter": "64", 
        "num_group": "1", 
        "pad": "(1, 1)", 
        "stride": "(1, 1)"
      }, 
      "inputs": [[45, 0, 0], [47, 0, 0]]
    }, 
    {
      "op": "null", 
      "name": "resnetv22_stage1_batchnorm3_gamma", 
      "attrs": {
        "__dtype__": "0", 
        "__init__": "ones", 
        "__lr_mult__": "1.0", 
        "__shape__": "(64,)", 
        "__storage_type__": "0", 
        "__wd_mult__": "1.0"
      }, 
      "inputs": []
    }, 
    {
      "op": "null", 
      "name": "resnetv22_stage1_batchnorm3_beta", 
      "attrs": {
        "__dtype__": "0", 
        "__init__": "zeros", 
        "__lr_mult__": "1.0", 
        "__shape__": "(64,)", 
        "__storage_type__": "0", 
        "__wd_mult__": "1.0"
      }, 
      "inputs": []
    }, 
    {
      "op": "null", 
      "name": "resnetv22_stage1_batchnorm3_running_mean", 
      "attrs": {
        "__dtype__": "0", 
        "__init__": "zeros", 
        "__lr_mult__": "1.0", 
        "__shape__": "(64,)", 
        "__storage_type__": "0", 
        "__wd_mult__": "1.0"
      }, 
      "inputs": []
    }, 
    {
      "op": "null", 
      "name": "resnetv22_stage1_batchnorm3_running_var", 
      "attrs": {
        "__dtype__": "0", 
        "__init__": "ones", 
        "__lr_mult__": "1.0", 
        "__shape__": "(64,)", 
        "__storage_type__": "0", 
        "__wd_mult__": "1.0"
      }, 
      "inputs": []
    }, 
    {
      "op": "BatchNorm", 
      "name": "resnetv22_stage1_batchnorm3_fwd", 
      "attrs": {
        "axis": "1", 
        "eps": "1e-05", 
        "fix_gamma": "False", 
        "momentum": "0.9", 
        "use_global_stats": "False"
      }, 
      "inputs": [[48, 0, 0], [49, 0, 0], [50, 0, 0], [51, 0, 1], [52, 0, 1]]
    }, 
    {
      "op": "Activation", 
      "name": "resnetv22_stage1_activation3", 
      "attrs": {"act_type": "relu"}, 
      "inputs": [[53, 0, 0]]
    }, 
    {
      "op": "amp_cast", 
      "name": "resnetv22_stage1_conv3_amp_cast0", 
      "attrs": {"dtype": "float16"}, 
      "inputs": [[54, 0, 0]]
    }, 
    {
      "op": "null", 
      "name": "resnetv22_stage1_conv3_weight", 
      "attrs": {
        "__dtype__": "0", 
        "__lr_mult__": "1.0", 
        "__shape__": "(64, 64, 3, 3)", 
        "__storage_type__": "0", 
        "__wd_mult__": "1.0"
      }, 
      "inputs": []
    }, 
    {
      "op": "amp_cast", 
      "name": "resnetv22_stage1_conv3_amp_cast1", 
      "attrs": {"dtype": "float16"}, 
      "inputs": [[56, 0, 0]]
    }, 
    {
      "op": "Convolution", 
      "name": "resnetv22_stage1_conv3_fwd", 
      "attrs": {
        "dilate": "(1, 1)", 
        "kernel": "(3, 3)", 
        "layout": "NCHW", 
        "no_bias": "True", 
        "num_filter": "64", 
        "num_group": "1", 
        "pad": "(1, 1)", 
        "stride": "(1, 1)"
      }, 
      "inputs": [[55, 0, 0], [57, 0, 0]]
    }, 
    {
      "op": "amp_multicast", 
      "name": "resnetv22_stage1_amp_multicast1", 
      "attrs": {"num_outputs": "2"}, 
      "inputs": [[58, 0, 0], [38, 0, 0]]
    }, 
    {
      "op": "elemwise_add", 
      "name": "resnetv22_stage1__plus1", 
      "inputs": [[59, 0, 0], [59, 1, 0]]
    }, 
    {
      "op": "null", 
      "name": "resnetv22_stage2_batchnorm0_gamma", 
      "attrs": {
        "__dtype__": "0", 
        "__init__": "ones", 
        "__lr_mult__": "1.0", 
        "__shape__": "(64,)", 
        "__storage_type__": "0", 
        "__wd_mult__": "1.0"
      }, 
      "inputs": []
    }, 
    {
      "op": "null", 
      "name": "resnetv22_stage2_batchnorm0_beta", 
      "attrs": {
        "__dtype__": "0", 
        "__init__": "zeros", 
        "__lr_mult__": "1.0", 
        "__shape__": "(64,)", 
        "__storage_type__": "0", 
        "__wd_mult__": "1.0"
      }, 
      "inputs": []
    }, 
    {
      "op": "null", 
      "name": "resnetv22_stage2_batchnorm0_running_mean", 
      "attrs": {
        "__dtype__": "0", 
        "__init__": "zeros", 
        "__lr_mult__": "1.0", 
        "__shape__": "(64,)", 
        "__storage_type__": "0", 
        "__wd_mult__": "1.0"
      }, 
      "inputs": []
    }, 
    {
      "op": "null", 
      "name": "resnetv22_stage2_batchnorm0_running_var", 
      "attrs": {
        "__dtype__": "0", 
        "__init__": "ones", 
        "__lr_mult__": "1.0", 
        "__shape__": "(64,)", 
        "__storage_type__": "0", 
        "__wd_mult__": "1.0"
      }, 
      "inputs": []
    }, 
    {
      "op": "BatchNorm", 
      "name": "resnetv22_stage2_batchnorm0_fwd", 
      "attrs": {
        "axis": "1", 
        "eps": "1e-05", 
        "fix_gamma": "False", 
        "momentum": "0.9", 
        "use_global_stats": "False"
      }, 
      "inputs": [[60, 0, 0], [61, 0, 0], [62, 0, 0], [63, 0, 1], [64, 0, 1]]
    }, 
    {
      "op": "Activation", 
      "name": "resnetv22_stage2_activation0", 
      "attrs": {"act_type": "relu"}, 
      "inputs": [[65, 0, 0]]
    }, 
    {
      "op": "amp_cast", 
      "name": "resnetv22_stage2_conv0_amp_cast0", 
      "attrs": {"dtype": "float16"}, 
      "inputs": [[66, 0, 0]]
    }, 
    {
      "op": "null", 
      "name": "resnetv22_stage2_conv0_weight", 
      "attrs": {
        "__dtype__": "0", 
        "__lr_mult__": "1.0", 
        "__shape__": "(128, 64, 3, 3)", 
        "__storage_type__": "0", 
        "__wd_mult__": "1.0"
      }, 
      "inputs": []
    }, 
    {
      "op": "amp_cast", 
      "name": "resnetv22_stage2_conv0_amp_cast1", 
      "attrs": {"dtype": "float16"}, 
      "inputs": [[68, 0, 0]]
    }, 
    {
      "op": "Convolution", 
      "name": "resnetv22_stage2_conv0_fwd", 
      "attrs": {
        "dilate": "(1, 1)", 
        "kernel": "(3, 3)", 
        "layout": "NCHW", 
        "no_bias": "True", 
        "num_filter": "128", 
        "num_group": "1", 
        "pad": "(1, 1)", 
        "stride": "(2, 2)"
      }, 
      "inputs": [[67, 0, 0], [69, 0, 0]]
    }, 
    {
      "op": "null", 
      "name": "resnetv22_stage2_batchnorm1_gamma", 
      "attrs": {
        "__dtype__": "0", 
        "__init__": "ones", 
        "__lr_mult__": "1.0", 
        "__shape__": "(128,)", 
        "__storage_type__": "0", 
        "__wd_mult__": "1.0"
      }, 
      "inputs": []
    }, 
    {
      "op": "null", 
      "name": "resnetv22_stage2_batchnorm1_beta", 
      "attrs": {
        "__dtype__": "0", 
        "__init__": "zeros", 
        "__lr_mult__": "1.0", 
        "__shape__": "(128,)", 
        "__storage_type__": "0", 
        "__wd_mult__": "1.0"
      }, 
      "inputs": []
    }, 
    {
      "op": "null", 
      "name": "resnetv22_stage2_batchnorm1_running_mean", 
      "attrs": {
        "__dtype__": "0", 
        "__init__": "zeros", 
        "__lr_mult__": "1.0", 
        "__shape__": "(128,)", 
        "__storage_type__": "0", 
        "__wd_mult__": "1.0"
      }, 
      "inputs": []
    }, 
    {
      "op": "null", 
      "name": "resnetv22_stage2_batchnorm1_running_var", 
      "attrs": {
        "__dtype__": "0", 
        "__init__": "ones", 
        "__lr_mult__": "1.0", 
        "__shape__": "(128,)", 
        "__storage_type__": "0", 
        "__wd_mult__": "1.0"
      }, 
      "inputs": []
    }, 
    {
      "op": "BatchNorm", 
      "name": "resnetv22_stage2_batchnorm1_fwd", 
      "attrs": {
        "axis": "1", 
        "eps": "1e-05", 
        "fix_gamma": "False", 
        "momentum": "0.9", 
        "use_global_stats": "False"
      }, 
      "inputs": [[70, 0, 0], [71, 0, 0], [72, 0, 0], [73, 0, 1], [74, 0, 1]]
    }, 
    {
      "op": "Activation", 
      "name": "resnetv22_stage2_activation1", 
      "attrs": {"act_type": "relu"}, 
      "inputs": [[75, 0, 0]]
    }, 
    {
      "op": "amp_cast", 
      "name": "resnetv22_stage2_conv1_amp_cast0", 
      "attrs": {"dtype": "float16"}, 
      "inputs": [[76, 0, 0]]
    }, 
    {
      "op": "null", 
      "name": "resnetv22_stage2_conv1_weight", 
      "attrs": {
        "__dtype__": "0", 
        "__lr_mult__": "1.0", 
        "__shape__": "(128, 128, 3, 3)", 
        "__storage_type__": "0", 
        "__wd_mult__": "1.0"
      }, 
      "inputs": []
    }, 
    {
      "op": "amp_cast", 
      "name": "resnetv22_stage2_conv1_amp_cast1", 
      "attrs": {"dtype": "float16"}, 
      "inputs": [[78, 0, 0]]
    }, 
    {
      "op": "Convolution", 
      "name": "resnetv22_stage2_conv1_fwd", 
      "attrs": {
        "dilate": "(1, 1)", 
        "kernel": "(3, 3)", 
        "layout": "NCHW", 
        "no_bias": "True", 
        "num_filter": "128", 
        "num_group": "1", 
        "pad": "(1, 1)", 
        "stride": "(1, 1)"
      }, 
      "inputs": [[77, 0, 0], [79, 0, 0]]
    }, 
    {
      "op": "amp_cast", 
      "name": "resnetv22_stage2_conv2_amp_cast0", 
      "attrs": {"dtype": "float16"}, 
      "inputs": [[66, 0, 0]]
    }, 
    {
      "op": "null", 
      "name": "resnetv22_stage2_conv2_weight", 
      "attrs": {
        "__dtype__": "0", 
        "__lr_mult__": "1.0", 
        "__shape__": "(128, 64, 1, 1)", 
        "__storage_type__": "0", 
        "__wd_mult__": "1.0"
      }, 
      "inputs": []
    }, 
    {
      "op": "amp_cast", 
      "name": "resnetv22_stage2_conv2_amp_cast1", 
      "attrs": {"dtype": "float16"}, 
      "inputs": [[82, 0, 0]]
    }, 
    {
      "op": "Convolution", 
      "name": "resnetv22_stage2_conv2_fwd", 
      "attrs": {
        "dilate": "(1, 1)", 
        "kernel": "(1, 1)", 
        "layout": "NCHW", 
        "no_bias": "True", 
        "num_filter": "128", 
        "num_group": "1", 
        "pad": "(0, 0)", 
        "stride": "(2, 2)"
      }, 
      "inputs": [[81, 0, 0], [83, 0, 0]]
    }, 
    {
      "op": "amp_multicast", 
      "name": "resnetv22_stage2_amp_multicast0", 
      "attrs": {"num_outputs": "2"}, 
      "inputs": [[80, 0, 0], [84, 0, 0]]
    }, 
    {
      "op": "elemwise_add", 
      "name": "resnetv22_stage2__plus0", 
      "inputs": [[85, 0, 0], [85, 1, 0]]
    }, 
    {
      "op": "null", 
      "name": "resnetv22_stage2_batchnorm2_gamma", 
      "attrs": {
        "__dtype__": "0", 
        "__init__": "ones", 
        "__lr_mult__": "1.0", 
        "__shape__": "(128,)", 
        "__storage_type__": "0", 
        "__wd_mult__": "1.0"
      }, 
      "inputs": []
    }, 
    {
      "op": "null", 
      "name": "resnetv22_stage2_batchnorm2_beta", 
      "attrs": {
        "__dtype__": "0", 
        "__init__": "zeros", 
        "__lr_mult__": "1.0", 
        "__shape__": "(128,)", 
        "__storage_type__": "0", 
        "__wd_mult__": "1.0"
      }, 
      "inputs": []
    }, 
    {
      "op": "null", 
      "name": "resnetv22_stage2_batchnorm2_running_mean", 
      "attrs": {
        "__dtype__": "0", 
        "__init__": "zeros", 
        "__lr_mult__": "1.0", 
        "__shape__": "(128,)", 
        "__storage_type__": "0", 
        "__wd_mult__": "1.0"
      }, 
      "inputs": []
    }, 
    {
      "op": "null", 
      "name": "resnetv22_stage2_batchnorm2_running_var", 
      "attrs": {
        "__dtype__": "0", 
        "__init__": "ones", 
        "__lr_mult__": "1.0", 
        "__shape__": "(128,)", 
        "__storage_type__": "0", 
        "__wd_mult__": "1.0"
      }, 
      "inputs": []
    }, 
    {
      "op": "BatchNorm", 
      "name": "resnetv22_stage2_batchnorm2_fwd", 
      "attrs": {
        "axis": "1", 
        "eps": "1e-05", 
        "fix_gamma": "False", 
        "momentum": "0.9", 
        "use_global_stats": "False"
      }, 
      "inputs": [[86, 0, 0], [87, 0, 0], [88, 0, 0], [89, 0, 1], [90, 0, 1]]
    }, 
    {
      "op": "Activation", 
      "name": "resnetv22_stage2_activation2", 
      "attrs": {"act_type": "relu"}, 
      "inputs": [[91, 0, 0]]
    }, 
    {
      "op": "amp_cast", 
      "name": "resnetv22_stage2_conv3_amp_cast0", 
      "attrs": {"dtype": "float16"}, 
      "inputs": [[92, 0, 0]]
    }, 
    {
      "op": "null", 
      "name": "resnetv22_stage2_conv3_weight", 
      "attrs": {
        "__dtype__": "0", 
        "__lr_mult__": "1.0", 
        "__shape__": "(128, 128, 3, 3)", 
        "__storage_type__": "0", 
        "__wd_mult__": "1.0"
      }, 
      "inputs": []
    }, 
    {
      "op": "amp_cast", 
      "name": "resnetv22_stage2_conv3_amp_cast1", 
      "attrs": {"dtype": "float16"}, 
      "inputs": [[94, 0, 0]]
    }, 
    {
      "op": "Convolution", 
      "name": "resnetv22_stage2_conv3_fwd", 
      "attrs": {
        "dilate": "(1, 1)", 
        "kernel": "(3, 3)", 
        "layout": "NCHW", 
        "no_bias": "True", 
        "num_filter": "128", 
        "num_group": "1", 
        "pad": "(1, 1)", 
        "stride": "(1, 1)"
      }, 
      "inputs": [[93, 0, 0], [95, 0, 0]]
    }, 
    {
      "op": "null", 
      "name": "resnetv22_stage2_batchnorm3_gamma", 
      "attrs": {
        "__dtype__": "0", 
        "__init__": "ones", 
        "__lr_mult__": "1.0", 
        "__shape__": "(128,)", 
        "__storage_type__": "0", 
        "__wd_mult__": "1.0"
      }, 
      "inputs": []
    }, 
    {
      "op": "null", 
      "name": "resnetv22_stage2_batchnorm3_beta", 
      "attrs": {
        "__dtype__": "0", 
        "__init__": "zeros", 
        "__lr_mult__": "1.0", 
        "__shape__": "(128,)", 
        "__storage_type__": "0", 
        "__wd_mult__": "1.0"
      }, 
      "inputs": []
    }, 
    {
      "op": "null", 
      "name": "resnetv22_stage2_batchnorm3_running_mean", 
      "attrs": {
        "__dtype__": "0", 
        "__init__": "zeros", 
        "__lr_mult__": "1.0", 
        "__shape__": "(128,)", 
        "__storage_type__": "0", 
        "__wd_mult__": "1.0"
      }, 
      "inputs": []
    }, 
    {
      "op": "null", 
      "name": "resnetv22_stage2_batchnorm3_running_var", 
      "attrs": {
        "__dtype__": "0", 
        "__init__": "ones", 
        "__lr_mult__": "1.0", 
        "__shape__": "(128,)", 
        "__storage_type__": "0", 
        "__wd_mult__": "1.0"
      }, 
      "inputs": []
    }, 
    {
      "op": "BatchNorm", 
      "name": "resnetv22_stage2_batchnorm3_fwd", 
      "attrs": {
        "axis": "1", 
        "eps": "1e-05", 
        "fix_gamma": "False", 
        "momentum": "0.9", 
        "use_global_stats": "False"
      }, 
      "inputs": [[96, 0, 0], [97, 0, 0], [98, 0, 0], [99, 0, 1], [100, 0, 1]]
    }, 
    {
      "op": "Activation", 
      "name": "resnetv22_stage2_activation3", 
      "attrs": {"act_type": "relu"}, 
      "inputs": [[101, 0, 0]]
    }, 
    {
      "op": "amp_cast", 
      "name": "resnetv22_stage2_conv4_amp_cast0", 
      "attrs": {"dtype": "float16"}, 
      "inputs": [[102, 0, 0]]
    }, 
    {
      "op": "null", 
      "name": "resnetv22_stage2_conv4_weight", 
      "attrs": {
        "__dtype__": "0", 
        "__lr_mult__": "1.0", 
        "__shape__": "(128, 128, 3, 3)", 
        "__storage_type__": "0", 
        "__wd_mult__": "1.0"
      }, 
      "inputs": []
    }, 
    {
      "op": "amp_cast", 
      "name": "resnetv22_stage2_conv4_amp_cast1", 
      "attrs": {"dtype": "float16"}, 
      "inputs": [[104, 0, 0]]
    }, 
    {
      "op": "Convolution", 
      "name": "resnetv22_stage2_conv4_fwd", 
      "attrs": {
        "dilate": "(1, 1)", 
        "kernel": "(3, 3)", 
        "layout": "NCHW", 
        "no_bias": "True", 
        "num_filter": "128", 
        "num_group": "1", 
        "pad": "(1, 1)", 
        "stride": "(1, 1)"
      }, 
      "inputs": [[103, 0, 0], [105, 0, 0]]
    }, 
    {
      "op": "amp_multicast", 
      "name": "resnetv22_stage2_amp_multicast1", 
      "attrs": {"num_outputs": "2"}, 
      "inputs": [[106, 0, 0], [86, 0, 0]]
    }, 
    {
      "op": "elemwise_add", 
      "name": "resnetv22_stage2__plus1", 
      "inputs": [[107, 0, 0], [107, 1, 0]]
    }, 
    {
      "op": "null", 
      "name": "resnetv22_stage3_batchnorm0_gamma", 
      "attrs": {
        "__dtype__": "0", 
        "__init__": "ones", 
        "__lr_mult__": "1.0", 
        "__shape__": "(128,)", 
        "__storage_type__": "0", 
        "__wd_mult__": "1.0"
      }, 
      "inputs": []
    }, 
    {
      "op": "null", 
      "name": "resnetv22_stage3_batchnorm0_beta", 
      "attrs": {
        "__dtype__": "0", 
        "__init__": "zeros", 
        "__lr_mult__": "1.0", 
        "__shape__": "(128,)", 
        "__storage_type__": "0", 
        "__wd_mult__": "1.0"
      }, 
      "inputs": []
    }, 
    {
      "op": "null", 
      "name": "resnetv22_stage3_batchnorm0_running_mean", 
      "attrs": {
        "__dtype__": "0", 
        "__init__": "zeros", 
        "__lr_mult__": "1.0", 
        "__shape__": "(128,)", 
        "__storage_type__": "0", 
        "__wd_mult__": "1.0"
      }, 
      "inputs": []
    }, 
    {
      "op": "null", 
      "name": "resnetv22_stage3_batchnorm0_running_var", 
      "attrs": {
        "__dtype__": "0", 
        "__init__": "ones", 
        "__lr_mult__": "1.0", 
        "__shape__": "(128,)", 
        "__storage_type__": "0", 
        "__wd_mult__": "1.0"
      }, 
      "inputs": []
    }, 
    {
      "op": "BatchNorm", 
      "name": "resnetv22_stage3_batchnorm0_fwd", 
      "attrs": {
        "axis": "1", 
        "eps": "1e-05", 
        "fix_gamma": "False", 
        "momentum": "0.9", 
        "use_global_stats": "False"
      }, 
      "inputs": [[108, 0, 0], [109, 0, 0], [110, 0, 0], [111, 0, 1], [112, 0, 1]]
    }, 
    {
      "op": "Activation", 
      "name": "resnetv22_stage3_activation0", 
      "attrs": {"act_type": "relu"}, 
      "inputs": [[113, 0, 0]]
    }, 
    {
      "op": "amp_cast", 
      "name": "resnetv22_stage3_conv0_amp_cast0", 
      "attrs": {"dtype": "float16"}, 
      "inputs": [[114, 0, 0]]
    }, 
    {
      "op": "null", 
      "name": "resnetv22_stage3_conv0_weight", 
      "attrs": {
        "__dtype__": "0", 
        "__lr_mult__": "1.0", 
        "__shape__": "(256, 128, 3, 3)", 
        "__storage_type__": "0", 
        "__wd_mult__": "1.0"
      }, 
      "inputs": []
    }, 
    {
      "op": "amp_cast", 
      "name": "resnetv22_stage3_conv0_amp_cast1", 
      "attrs": {"dtype": "float16"}, 
      "inputs": [[116, 0, 0]]
    }, 
    {
      "op": "Convolution", 
      "name": "resnetv22_stage3_conv0_fwd", 
      "attrs": {
        "dilate": "(1, 1)", 
        "kernel": "(3, 3)", 
        "layout": "NCHW", 
        "no_bias": "True", 
        "num_filter": "256", 
        "num_group": "1", 
        "pad": "(1, 1)", 
        "stride": "(2, 2)"
      }, 
      "inputs": [[115, 0, 0], [117, 0, 0]]
    }, 
    {
      "op": "null", 
      "name": "resnetv22_stage3_batchnorm1_gamma", 
      "attrs": {
        "__dtype__": "0", 
        "__init__": "ones", 
        "__lr_mult__": "1.0", 
        "__shape__": "(256,)", 
        "__storage_type__": "0", 
        "__wd_mult__": "1.0"
      }, 
      "inputs": []
    }, 
    {
      "op": "null", 
      "name": "resnetv22_stage3_batchnorm1_beta", 
      "attrs": {
        "__dtype__": "0", 
        "__init__": "zeros", 
        "__lr_mult__": "1.0", 
        "__shape__": "(256,)", 
        "__storage_type__": "0", 
        "__wd_mult__": "1.0"
      }, 
      "inputs": []
    }, 
    {
      "op": "null", 
      "name": "resnetv22_stage3_batchnorm1_running_mean", 
      "attrs": {
        "__dtype__": "0", 
        "__init__": "zeros", 
        "__lr_mult__": "1.0", 
        "__shape__": "(256,)", 
        "__storage_type__": "0", 
        "__wd_mult__": "1.0"
      }, 
      "inputs": []
    }, 
    {
      "op": "null", 
      "name": "resnetv22_stage3_batchnorm1_running_var", 
      "attrs": {
        "__dtype__": "0", 
        "__init__": "ones", 
        "__lr_mult__": "1.0", 
        "__shape__": "(256,)", 
        "__storage_type__": "0", 
        "__wd_mult__": "1.0"
      }, 
      "inputs": []
    }, 
    {
      "op": "BatchNorm", 
      "name": "resnetv22_stage3_batchnorm1_fwd", 
      "attrs": {
        "axis": "1", 
        "eps": "1e-05", 
        "fix_gamma": "False", 
        "momentum": "0.9", 
        "use_global_stats": "False"
      }, 
      "inputs": [[118, 0, 0], [119, 0, 0], [120, 0, 0], [121, 0, 1], [122, 0, 1]]
    }, 
    {
      "op": "Activation", 
      "name": "resnetv22_stage3_activation1", 
      "attrs": {"act_type": "relu"}, 
      "inputs": [[123, 0, 0]]
    }, 
    {
      "op": "amp_cast", 
      "name": "resnetv22_stage3_conv1_amp_cast0", 
      "attrs": {"dtype": "float16"}, 
      "inputs": [[124, 0, 0]]
    }, 
    {
      "op": "null", 
      "name": "resnetv22_stage3_conv1_weight", 
      "attrs": {
        "__dtype__": "0", 
        "__lr_mult__": "1.0", 
        "__shape__": "(256, 256, 3, 3)", 
        "__storage_type__": "0", 
        "__wd_mult__": "1.0"
      }, 
      "inputs": []
    }, 
    {
      "op": "amp_cast", 
      "name": "resnetv22_stage3_conv1_amp_cast1", 
      "attrs": {"dtype": "float16"}, 
      "inputs": [[126, 0, 0]]
    }, 
    {
      "op": "Convolution", 
      "name": "resnetv22_stage3_conv1_fwd", 
      "attrs": {
        "dilate": "(1, 1)", 
        "kernel": "(3, 3)", 
        "layout": "NCHW", 
        "no_bias": "True", 
        "num_filter": "256", 
        "num_group": "1", 
        "pad": "(1, 1)", 
        "stride": "(1, 1)"
      }, 
      "inputs": [[125, 0, 0], [127, 0, 0]]
    }, 
    {
      "op": "amp_cast", 
      "name": "resnetv22_stage3_conv2_amp_cast0", 
      "attrs": {"dtype": "float16"}, 
      "inputs": [[114, 0, 0]]
    }, 
    {
      "op": "null", 
      "name": "resnetv22_stage3_conv2_weight", 
      "attrs": {
        "__dtype__": "0", 
        "__lr_mult__": "1.0", 
        "__shape__": "(256, 128, 1, 1)", 
        "__storage_type__": "0", 
        "__wd_mult__": "1.0"
      }, 
      "inputs": []
    }, 
    {
      "op": "amp_cast", 
      "name": "resnetv22_stage3_conv2_amp_cast1", 
      "attrs": {"dtype": "float16"}, 
      "inputs": [[130, 0, 0]]
    }, 
    {
      "op": "Convolution", 
      "name": "resnetv22_stage3_conv2_fwd", 
      "attrs": {
        "dilate": "(1, 1)", 
        "kernel": "(1, 1)", 
        "layout": "NCHW", 
        "no_bias": "True", 
        "num_filter": "256", 
        "num_group": "1", 
        "pad": "(0, 0)", 
        "stride": "(2, 2)"
      }, 
      "inputs": [[129, 0, 0], [131, 0, 0]]
    }, 
    {
      "op": "amp_multicast", 
      "name": "resnetv22_stage3_amp_multicast0", 
      "attrs": {"num_outputs": "2"}, 
      "inputs": [[128, 0, 0], [132, 0, 0]]
    }, 
    {
      "op": "elemwise_add", 
      "name": "resnetv22_stage3__plus0", 
      "inputs": [[133, 0, 0], [133, 1, 0]]
    }, 
    {
      "op": "null", 
      "name": "resnetv22_stage3_batchnorm2_gamma", 
      "attrs": {
        "__dtype__": "0", 
        "__init__": "ones", 
        "__lr_mult__": "1.0", 
        "__shape__": "(256,)", 
        "__storage_type__": "0", 
        "__wd_mult__": "1.0"
      }, 
      "inputs": []
    }, 
    {
      "op": "null", 
      "name": "resnetv22_stage3_batchnorm2_beta", 
      "attrs": {
        "__dtype__": "0", 
        "__init__": "zeros", 
        "__lr_mult__": "1.0", 
        "__shape__": "(256,)", 
        "__storage_type__": "0", 
        "__wd_mult__": "1.0"
      }, 
      "inputs": []
    }, 
    {
      "op": "null", 
      "name": "resnetv22_stage3_batchnorm2_running_mean", 
      "attrs": {
        "__dtype__": "0", 
        "__init__": "zeros", 
        "__lr_mult__": "1.0", 
        "__shape__": "(256,)", 
        "__storage_type__": "0", 
        "__wd_mult__": "1.0"
      }, 
      "inputs": []
    }, 
    {
      "op": "null", 
      "name": "resnetv22_stage3_batchnorm2_running_var", 
      "attrs": {
        "__dtype__": "0", 
        "__init__": "ones", 
        "__lr_mult__": "1.0", 
        "__shape__": "(256,)", 
        "__storage_type__": "0", 
        "__wd_mult__": "1.0"
      }, 
      "inputs": []
    }, 
    {
      "op": "BatchNorm", 
      "name": "resnetv22_stage3_batchnorm2_fwd", 
      "attrs": {
        "axis": "1", 
        "eps": "1e-05", 
        "fix_gamma": "False", 
        "momentum": "0.9", 
        "use_global_stats": "False"
      }, 
      "inputs": [[134, 0, 0], [135, 0, 0], [136, 0, 0], [137, 0, 1], [138, 0, 1]]
    }, 
    {
      "op": "Activation", 
      "name": "resnetv22_stage3_activation2", 
      "attrs": {"act_type": "relu"}, 
      "inputs": [[139, 0, 0]]
    }, 
    {
      "op": "amp_cast", 
      "name": "resnetv22_stage3_conv3_amp_cast0", 
      "attrs": {"dtype": "float16"}, 
      "inputs": [[140, 0, 0]]
    }, 
    {
      "op": "null", 
      "name": "resnetv22_stage3_conv3_weight", 
      "attrs": {
        "__dtype__": "0", 
        "__lr_mult__": "1.0", 
        "__shape__": "(256, 256, 3, 3)", 
        "__storage_type__": "0", 
        "__wd_mult__": "1.0"
      }, 
      "inputs": []
    }, 
    {
      "op": "amp_cast", 
      "name": "resnetv22_stage3_conv3_amp_cast1", 
      "attrs": {"dtype": "float16"}, 
      "inputs": [[142, 0, 0]]
    }, 
    {
      "op": "Convolution", 
      "name": "resnetv22_stage3_conv3_fwd", 
      "attrs": {
        "dilate": "(1, 1)", 
        "kernel": "(3, 3)", 
        "layout": "NCHW", 
        "no_bias": "True", 
        "num_filter": "256", 
        "num_group": "1", 
        "pad": "(1, 1)", 
        "stride": "(1, 1)"
      }, 
      "inputs": [[141, 0, 0], [143, 0, 0]]
    }, 
    {
      "op": "null", 
      "name": "resnetv22_stage3_batchnorm3_gamma", 
      "attrs": {
        "__dtype__": "0", 
        "__init__": "ones", 
        "__lr_mult__": "1.0", 
        "__shape__": "(256,)", 
        "__storage_type__": "0", 
        "__wd_mult__": "1.0"
      }, 
      "inputs": []
    }, 
    {
      "op": "null", 
      "name": "resnetv22_stage3_batchnorm3_beta", 
      "attrs": {
        "__dtype__": "0", 
        "__init__": "zeros", 
        "__lr_mult__": "1.0", 
        "__shape__": "(256,)", 
        "__storage_type__": "0", 
        "__wd_mult__": "1.0"
      }, 
      "inputs": []
    }, 
    {
      "op": "null", 
      "name": "resnetv22_stage3_batchnorm3_running_mean", 
      "attrs": {
        "__dtype__": "0", 
        "__init__": "zeros", 
        "__lr_mult__": "1.0", 
        "__shape__": "(256,)", 
        "__storage_type__": "0", 
        "__wd_mult__": "1.0"
      }, 
      "inputs": []
    }, 
    {
      "op": "null", 
      "name": "resnetv22_stage3_batchnorm3_running_var", 
      "attrs": {
        "__dtype__": "0", 
        "__init__": "ones", 
        "__lr_mult__": "1.0", 
        "__shape__": "(256,)", 
        "__storage_type__": "0", 
        "__wd_mult__": "1.0"
      }, 
      "inputs": []
    }, 
    {
      "op": "BatchNorm", 
      "name": "resnetv22_stage3_batchnorm3_fwd", 
      "attrs": {
        "axis": "1", 
        "eps": "1e-05", 
        "fix_gamma": "False", 
        "momentum": "0.9", 
        "use_global_stats": "False"
      }, 
      "inputs": [[144, 0, 0], [145, 0, 0], [146, 0, 0], [147, 0, 1], [148, 0, 1]]
    }, 
    {
      "op": "Activation", 
      "name": "resnetv22_stage3_activation3", 
      "attrs": {"act_type": "relu"}, 
      "inputs": [[149, 0, 0]]
    }, 
    {
      "op": "amp_cast", 
      "name": "resnetv22_stage3_conv4_amp_cast0", 
      "attrs": {"dtype": "float16"}, 
      "inputs": [[150, 0, 0]]
    }, 
    {
      "op": "null", 
      "name": "resnetv22_stage3_conv4_weight", 
      "attrs": {
        "__dtype__": "0", 
        "__lr_mult__": "1.0", 
        "__shape__": "(256, 256, 3, 3)", 
        "__storage_type__": "0", 
        "__wd_mult__": "1.0"
      }, 
      "inputs": []
    }, 
    {
      "op": "amp_cast", 
      "name": "resnetv22_stage3_conv4_amp_cast1", 
      "attrs": {"dtype": "float16"}, 
      "inputs": [[152, 0, 0]]
    }, 
    {
      "op": "Convolution", 
      "name": "resnetv22_stage3_conv4_fwd", 
      "attrs": {
        "dilate": "(1, 1)", 
        "kernel": "(3, 3)", 
        "layout": "NCHW", 
        "no_bias": "True", 
        "num_filter": "256", 
        "num_group": "1", 
        "pad": "(1, 1)", 
        "stride": "(1, 1)"
      }, 
      "inputs": [[151, 0, 0], [153, 0, 0]]
    }, 
    {
      "op": "amp_multicast", 
      "name": "resnetv22_stage3_amp_multicast1", 
      "attrs": {"num_outputs": "2"}, 
      "inputs": [[154, 0, 0], [134, 0, 0]]
    }, 
    {
      "op": "elemwise_add", 
      "name": "resnetv22_stage3__plus1", 
      "inputs": [[155, 0, 0], [155, 1, 0]]
    }, 
    {
      "op": "null", 
      "name": "resnetv22_stage4_batchnorm0_gamma", 
      "attrs": {
        "__dtype__": "0", 
        "__init__": "ones", 
        "__lr_mult__": "1.0", 
        "__shape__": "(256,)", 
        "__storage_type__": "0", 
        "__wd_mult__": "1.0"
      }, 
      "inputs": []
    }, 
    {
      "op": "null", 
      "name": "resnetv22_stage4_batchnorm0_beta", 
      "attrs": {
        "__dtype__": "0", 
        "__init__": "zeros", 
        "__lr_mult__": "1.0", 
        "__shape__": "(256,)", 
        "__storage_type__": "0", 
        "__wd_mult__": "1.0"
      }, 
      "inputs": []
    }, 
    {
      "op": "null", 
      "name": "resnetv22_stage4_batchnorm0_running_mean", 
      "attrs": {
        "__dtype__": "0", 
        "__init__": "zeros", 
        "__lr_mult__": "1.0", 
        "__shape__": "(256,)", 
        "__storage_type__": "0", 
        "__wd_mult__": "1.0"
      }, 
      "inputs": []
    }, 
    {
      "op": "null", 
      "name": "resnetv22_stage4_batchnorm0_running_var", 
      "attrs": {
        "__dtype__": "0", 
        "__init__": "ones", 
        "__lr_mult__": "1.0", 
        "__shape__": "(256,)", 
        "__storage_type__": "0", 
        "__wd_mult__": "1.0"
      }, 
      "inputs": []
    }, 
    {
      "op": "BatchNorm", 
      "name": "resnetv22_stage4_batchnorm0_fwd", 
      "attrs": {
        "axis": "1", 
        "eps": "1e-05", 
        "fix_gamma": "False", 
        "momentum": "0.9", 
        "use_global_stats": "False"
      }, 
      "inputs": [[156, 0, 0], [157, 0, 0], [158, 0, 0], [159, 0, 1], [160, 0, 1]]
    }, 
    {
      "op": "Activation", 
      "name": "resnetv22_stage4_activation0", 
      "attrs": {"act_type": "relu"}, 
      "inputs": [[161, 0, 0]]
    }, 
    {
      "op": "amp_cast", 
      "name": "resnetv22_stage4_conv0_amp_cast0", 
      "attrs": {"dtype": "float16"}, 
      "inputs": [[162, 0, 0]]
    }, 
    {
      "op": "null", 
      "name": "resnetv22_stage4_conv0_weight", 
      "attrs": {
        "__dtype__": "0", 
        "__lr_mult__": "1.0", 
        "__shape__": "(512, 256, 3, 3)", 
        "__storage_type__": "0", 
        "__wd_mult__": "1.0"
      }, 
      "inputs": []
    }, 
    {
      "op": "amp_cast", 
      "name": "resnetv22_stage4_conv0_amp_cast1", 
      "attrs": {"dtype": "float16"}, 
      "inputs": [[164, 0, 0]]
    }, 
    {
      "op": "Convolution", 
      "name": "resnetv22_stage4_conv0_fwd", 
      "attrs": {
        "dilate": "(1, 1)", 
        "kernel": "(3, 3)", 
        "layout": "NCHW", 
        "no_bias": "True", 
        "num_filter": "512", 
        "num_group": "1", 
        "pad": "(1, 1)", 
        "stride": "(2, 2)"
      }, 
      "inputs": [[163, 0, 0], [165, 0, 0]]
    }, 
    {
      "op": "null", 
      "name": "resnetv22_stage4_batchnorm1_gamma", 
      "attrs": {
        "__dtype__": "0", 
        "__init__": "ones", 
        "__lr_mult__": "1.0", 
        "__shape__": "(512,)", 
        "__storage_type__": "0", 
        "__wd_mult__": "1.0"
      }, 
      "inputs": []
    }, 
    {
      "op": "null", 
      "name": "resnetv22_stage4_batchnorm1_beta", 
      "attrs": {
        "__dtype__": "0", 
        "__init__": "zeros", 
        "__lr_mult__": "1.0", 
        "__shape__": "(512,)", 
        "__storage_type__": "0", 
        "__wd_mult__": "1.0"
      }, 
      "inputs": []
    }, 
    {
      "op": "null", 
      "name": "resnetv22_stage4_batchnorm1_running_mean", 
      "attrs": {
        "__dtype__": "0", 
        "__init__": "zeros", 
        "__lr_mult__": "1.0", 
        "__shape__": "(512,)", 
        "__storage_type__": "0", 
        "__wd_mult__": "1.0"
      }, 
      "inputs": []
    }, 
    {
      "op": "null", 
      "name": "resnetv22_stage4_batchnorm1_running_var", 
      "attrs": {
        "__dtype__": "0", 
        "__init__": "ones", 
        "__lr_mult__": "1.0", 
        "__shape__": "(512,)", 
        "__storage_type__": "0", 
        "__wd_mult__": "1.0"
      }, 
      "inputs": []
    }, 
    {
      "op": "BatchNorm", 
      "name": "resnetv22_stage4_batchnorm1_fwd", 
      "attrs": {
        "axis": "1", 
        "eps": "1e-05", 
        "fix_gamma": "False", 
        "momentum": "0.9", 
        "use_global_stats": "False"
      }, 
      "inputs": [[166, 0, 0], [167, 0, 0], [168, 0, 0], [169, 0, 1], [170, 0, 1]]
    }, 
    {
      "op": "Activation", 
      "name": "resnetv22_stage4_activation1", 
      "attrs": {"act_type": "relu"}, 
      "inputs": [[171, 0, 0]]
    }, 
    {
      "op": "amp_cast", 
      "name": "resnetv22_stage4_conv1_amp_cast0", 
      "attrs": {"dtype": "float16"}, 
      "inputs": [[172, 0, 0]]
    }, 
    {
      "op": "null", 
      "name": "resnetv22_stage4_conv1_weight", 
      "attrs": {
        "__dtype__": "0", 
        "__lr_mult__": "1.0", 
        "__shape__": "(512, 512, 3, 3)", 
        "__storage_type__": "0", 
        "__wd_mult__": "1.0"
      }, 
      "inputs": []
    }, 
    {
      "op": "amp_cast", 
      "name": "resnetv22_stage4_conv1_amp_cast1", 
      "attrs": {"dtype": "float16"}, 
      "inputs": [[174, 0, 0]]
    }, 
    {
      "op": "Convolution", 
      "name": "resnetv22_stage4_conv1_fwd", 
      "attrs": {
        "dilate": "(1, 1)", 
        "kernel": "(3, 3)", 
        "layout": "NCHW", 
        "no_bias": "True", 
        "num_filter": "512", 
        "num_group": "1", 
        "pad": "(1, 1)", 
        "stride": "(1, 1)"
      }, 
      "inputs": [[173, 0, 0], [175, 0, 0]]
    }, 
    {
      "op": "amp_cast", 
      "name": "resnetv22_stage4_conv2_amp_cast0", 
      "attrs": {"dtype": "float16"}, 
      "inputs": [[162, 0, 0]]
    }, 
    {
      "op": "null", 
      "name": "resnetv22_stage4_conv2_weight", 
      "attrs": {
        "__dtype__": "0", 
        "__lr_mult__": "1.0", 
        "__shape__": "(512, 256, 1, 1)", 
        "__storage_type__": "0", 
        "__wd_mult__": "1.0"
      }, 
      "inputs": []
    }, 
    {
      "op": "amp_cast", 
      "name": "resnetv22_stage4_conv2_amp_cast1", 
      "attrs": {"dtype": "float16"}, 
      "inputs": [[178, 0, 0]]
    }, 
    {
      "op": "Convolution", 
      "name": "resnetv22_stage4_conv2_fwd", 
      "attrs": {
        "dilate": "(1, 1)", 
        "kernel": "(1, 1)", 
        "layout": "NCHW", 
        "no_bias": "True", 
        "num_filter": "512", 
        "num_group": "1", 
        "pad": "(0, 0)", 
        "stride": "(2, 2)"
      }, 
      "inputs": [[177, 0, 0], [179, 0, 0]]
    }, 
    {
      "op": "amp_multicast", 
      "name": "resnetv22_stage4_amp_multicast0", 
      "attrs": {"num_outputs": "2"}, 
      "inputs": [[176, 0, 0], [180, 0, 0]]
    }, 
    {
      "op": "elemwise_add", 
      "name": "resnetv22_stage4__plus0", 
      "inputs": [[181, 0, 0], [181, 1, 0]]
    }, 
    {
      "op": "null", 
      "name": "resnetv22_stage4_batchnorm2_gamma", 
      "attrs": {
        "__dtype__": "0", 
        "__init__": "ones", 
        "__lr_mult__": "1.0", 
        "__shape__": "(512,)", 
        "__storage_type__": "0", 
        "__wd_mult__": "1.0"
      }, 
      "inputs": []
    }, 
    {
      "op": "null", 
      "name": "resnetv22_stage4_batchnorm2_beta", 
      "attrs": {
        "__dtype__": "0", 
        "__init__": "zeros", 
        "__lr_mult__": "1.0", 
        "__shape__": "(512,)", 
        "__storage_type__": "0", 
        "__wd_mult__": "1.0"
      }, 
      "inputs": []
    }, 
    {
      "op": "null", 
      "name": "resnetv22_stage4_batchnorm2_running_mean", 
      "attrs": {
        "__dtype__": "0", 
        "__init__": "zeros", 
        "__lr_mult__": "1.0", 
        "__shape__": "(512,)", 
        "__storage_type__": "0", 
        "__wd_mult__": "1.0"
      }, 
      "inputs": []
    }, 
    {
      "op": "null", 
      "name": "resnetv22_stage4_batchnorm2_running_var", 
      "attrs": {
        "__dtype__": "0", 
        "__init__": "ones", 
        "__lr_mult__": "1.0", 
        "__shape__": "(512,)", 
        "__storage_type__": "0", 
        "__wd_mult__": "1.0"
      }, 
      "inputs": []
    }, 
    {
      "op": "BatchNorm", 
      "name": "resnetv22_stage4_batchnorm2_fwd", 
      "attrs": {
        "axis": "1", 
        "eps": "1e-05", 
        "fix_gamma": "False", 
        "momentum": "0.9", 
        "use_global_stats": "False"
      }, 
      "inputs": [[182, 0, 0], [183, 0, 0], [184, 0, 0], [185, 0, 1], [186, 0, 1]]
    }, 
    {
      "op": "Activation", 
      "name": "resnetv22_stage4_activation2", 
      "attrs": {"act_type": "relu"}, 
      "inputs": [[187, 0, 0]]
    }, 
    {
      "op": "amp_cast", 
      "name": "resnetv22_stage4_conv3_amp_cast0", 
      "attrs": {"dtype": "float16"}, 
      "inputs": [[188, 0, 0]]
    }, 
    {
      "op": "null", 
      "name": "resnetv22_stage4_conv3_weight", 
      "attrs": {
        "__dtype__": "0", 
        "__lr_mult__": "1.0", 
        "__shape__": "(512, 512, 3, 3)", 
        "__storage_type__": "0", 
        "__wd_mult__": "1.0"
      }, 
      "inputs": []
    }, 
    {
      "op": "amp_cast", 
      "name": "resnetv22_stage4_conv3_amp_cast1", 
      "attrs": {"dtype": "float16"}, 
      "inputs": [[190, 0, 0]]
    }, 
    {
      "op": "Convolution", 
      "name": "resnetv22_stage4_conv3_fwd", 
      "attrs": {
        "dilate": "(1, 1)", 
        "kernel": "(3, 3)", 
        "layout": "NCHW", 
        "no_bias": "True", 
        "num_filter": "512", 
        "num_group": "1", 
        "pad": "(1, 1)", 
        "stride": "(1, 1)"
      }, 
      "inputs": [[189, 0, 0], [191, 0, 0]]
    }, 
    {
      "op": "null", 
      "name": "resnetv22_stage4_batchnorm3_gamma", 
      "attrs": {
        "__dtype__": "0", 
        "__init__": "ones", 
        "__lr_mult__": "1.0", 
        "__shape__": "(512,)", 
        "__storage_type__": "0", 
        "__wd_mult__": "1.0"
      }, 
      "inputs": []
    }, 
    {
      "op": "null", 
      "name": "resnetv22_stage4_batchnorm3_beta", 
      "attrs": {
        "__dtype__": "0", 
        "__init__": "zeros", 
        "__lr_mult__": "1.0", 
        "__shape__": "(512,)", 
        "__storage_type__": "0", 
        "__wd_mult__": "1.0"
      }, 
      "inputs": []
    }, 
    {
      "op": "null", 
      "name": "resnetv22_stage4_batchnorm3_running_mean", 
      "attrs": {
        "__dtype__": "0", 
        "__init__": "zeros", 
        "__lr_mult__": "1.0", 
        "__shape__": "(512,)", 
        "__storage_type__": "0", 
        "__wd_mult__": "1.0"
      }, 
      "inputs": []
    }, 
    {
      "op": "null", 
      "name": "resnetv22_stage4_batchnorm3_running_var", 
      "attrs": {
        "__dtype__": "0", 
        "__init__": "ones", 
        "__lr_mult__": "1.0", 
        "__shape__": "(512,)", 
        "__storage_type__": "0", 
        "__wd_mult__": "1.0"
      }, 
      "inputs": []
    }, 
    {
      "op": "BatchNorm", 
      "name": "resnetv22_stage4_batchnorm3_fwd", 
      "attrs": {
        "axis": "1", 
        "eps": "1e-05", 
        "fix_gamma": "False", 
        "momentum": "0.9", 
        "use_global_stats": "False"
      }, 
      "inputs": [[192, 0, 0], [193, 0, 0], [194, 0, 0], [195, 0, 1], [196, 0, 1]]
    }, 
    {
      "op": "Activation", 
      "name": "resnetv22_stage4_activation3", 
      "attrs": {"act_type": "relu"}, 
      "inputs": [[197, 0, 0]]
    }, 
    {
      "op": "amp_cast", 
      "name": "resnetv22_stage4_conv4_amp_cast0", 
      "attrs": {"dtype": "float16"}, 
      "inputs": [[198, 0, 0]]
    }, 
    {
      "op": "null", 
      "name": "resnetv22_stage4_conv4_weight", 
      "attrs": {
        "__dtype__": "0", 
        "__lr_mult__": "1.0", 
        "__shape__": "(512, 512, 3, 3)", 
        "__storage_type__": "0", 
        "__wd_mult__": "1.0"
      }, 
      "inputs": []
    }, 
    {
      "op": "amp_cast", 
      "name": "resnetv22_stage4_conv4_amp_cast1", 
      "attrs": {"dtype": "float16"}, 
      "inputs": [[200, 0, 0]]
    }, 
    {
      "op": "Convolution", 
      "name": "resnetv22_stage4_conv4_fwd", 
      "attrs": {
        "dilate": "(1, 1)", 
        "kernel": "(3, 3)", 
        "layout": "NCHW", 
        "no_bias": "True", 
        "num_filter": "512", 
        "num_group": "1", 
        "pad": "(1, 1)", 
        "stride": "(1, 1)"
      }, 
      "inputs": [[199, 0, 0], [201, 0, 0]]
    }, 
    {
      "op": "amp_multicast", 
      "name": "resnetv22_stage4_amp_multicast1", 
      "attrs": {"num_outputs": "2"}, 
      "inputs": [[202, 0, 0], [182, 0, 0]]
    }, 
    {
      "op": "elemwise_add", 
      "name": "resnetv22_stage4__plus1", 
      "inputs": [[203, 0, 0], [203, 1, 0]]
    }, 
    {
      "op": "null", 
      "name": "resnetv22_batchnorm2_gamma", 
      "attrs": {
        "__dtype__": "0", 
        "__init__": "ones", 
        "__lr_mult__": "1.0", 
        "__shape__": "(512,)", 
        "__storage_type__": "0", 
        "__wd_mult__": "1.0"
      }, 
      "inputs": []
    }, 
    {
      "op": "null", 
      "name": "resnetv22_batchnorm2_beta", 
      "attrs": {
        "__dtype__": "0", 
        "__init__": "zeros", 
        "__lr_mult__": "1.0", 
        "__shape__": "(512,)", 
        "__storage_type__": "0", 
        "__wd_mult__": "1.0"
      }, 
      "inputs": []
    }, 
    {
      "op": "null", 
      "name": "resnetv22_batchnorm2_running_mean", 
      "attrs": {
        "__dtype__": "0", 
        "__init__": "zeros", 
        "__lr_mult__": "1.0", 
        "__shape__": "(512,)", 
        "__storage_type__": "0", 
        "__wd_mult__": "1.0"
      }, 
      "inputs": []
    }, 
    {
      "op": "null", 
      "name": "resnetv22_batchnorm2_running_var", 
      "attrs": {
        "__dtype__": "0", 
        "__init__": "ones", 
        "__lr_mult__": "1.0", 
        "__shape__": "(512,)", 
        "__storage_type__": "0", 
        "__wd_mult__": "1.0"
      }, 
      "inputs": []
    }, 
    {
      "op": "BatchNorm", 
      "name": "resnetv22_batchnorm2_fwd", 
      "attrs": {
        "axis": "1", 
        "eps": "1e-05", 
        "fix_gamma": "False", 
        "momentum": "0.9", 
        "use_global_stats": "False"
      }, 
      "inputs": [[204, 0, 0], [205, 0, 0], [206, 0, 0], [207, 0, 1], [208, 0, 1]]
    }, 
    {
      "op": "Activation", 
      "name": "resnetv22_relu1_fwd", 
      "attrs": {"act_type": "relu"}, 
      "inputs": [[209, 0, 0]]
    }, 
    {
      "op": "amp_cast", 
      "name": "resnetv22_lateral5amp_cast0", 
      "attrs": {"dtype": "float16"}, 
      "inputs": [[210, 0, 0]]
    }, 
    {
      "op": "null", 
      "name": "resnetv22_lateral5weight", 
      "attrs": {
        "__dtype__": "0", 
        "__lr_mult__": "1.0", 
        "__shape__": "(256, 0, 1, 1)", 
        "__storage_type__": "0", 
        "__wd_mult__": "1.0"
      }, 
      "inputs": []
    }, 
    {
      "op": "amp_cast", 
      "name": "resnetv22_lateral5amp_cast1", 
      "attrs": {"dtype": "float16"}, 
      "inputs": [[212, 0, 0]]
    }, 
    {
      "op": "Convolution", 
      "name": "resnetv22_lateral5fwd", 
      "attrs": {
        "dilate": "(1, 1)", 
        "kernel": "(1, 1)", 
        "layout": "NCHW", 
        "no_bias": "True", 
        "num_filter": "256", 
        "num_group": "1", 
        "pad": "(0, 0)", 
        "stride": "(1, 1)"
      }, 
      "inputs": [[211, 0, 0], [213, 0, 0]]
    }, 
    {
      "op": "UpSampling", 
      "name": "resnetv22_upsampling0", 
      "attrs": {
        "num_args": "1", 
        "sample_type": "nearest", 
        "scale": "2"
      }, 
      "inputs": [[214, 0, 0]]
    }, 
    {
      "op": "amp_cast", 
      "name": "resnetv22_lateral4amp_cast0", 
      "attrs": {"dtype": "float16"}, 
      "inputs": [[156, 0, 0]]
    }, 
    {
      "op": "null", 
      "name": "resnetv22_lateral4weight", 
      "attrs": {
        "__dtype__": "0", 
        "__lr_mult__": "1.0", 
        "__shape__": "(256, 0, 1, 1)", 
        "__storage_type__": "0", 
        "__wd_mult__": "1.0"
      }, 
      "inputs": []
    }, 
    {
      "op": "amp_cast", 
      "name": "resnetv22_lateral4amp_cast1", 
      "attrs": {"dtype": "float16"}, 
      "inputs": [[217, 0, 0]]
    }, 
    {
      "op": "Convolution", 
      "name": "resnetv22_lateral4fwd", 
      "attrs": {
        "dilate": "(1, 1)", 
        "kernel": "(1, 1)", 
        "layout": "NCHW", 
        "no_bias": "True", 
        "num_filter": "256", 
        "num_group": "1", 
        "pad": "(0, 0)", 
        "stride": "(1, 1)"
      }, 
      "inputs": [[216, 0, 0], [218, 0, 0]]
    }, 
    {
      "op": "amp_multicast", 
      "name": "resnetv22_amp_multicast0", 
      "attrs": {"num_outputs": "2"}, 
      "inputs": [[215, 0, 0], [219, 0, 0]]
    }, 
    {
      "op": "elemwise_add", 
      "name": "resnetv22__plus0", 
      "inputs": [[220, 0, 0], [220, 1, 0]]
    }, 
    {
      "op": "UpSampling", 
      "name": "resnetv22_upsampling1", 
      "attrs": {
        "num_args": "1", 
        "sample_type": "nearest", 
        "scale": "2"
      }, 
      "inputs": [[221, 0, 0]]
    }, 
    {
      "op": "amp_cast", 
      "name": "resnetv22_lateral3amp_cast0", 
      "attrs": {"dtype": "float16"}, 
      "inputs": [[108, 0, 0]]
    }, 
    {
      "op": "null", 
      "name": "resnetv22_lateral3weight", 
      "attrs": {
        "__dtype__": "0", 
        "__lr_mult__": "1.0", 
        "__shape__": "(256, 0, 1, 1)", 
        "__storage_type__": "0", 
        "__wd_mult__": "1.0"
      }, 
      "inputs": []
    }, 
    {
      "op": "amp_cast", 
      "name": "resnetv22_lateral3amp_cast1", 
      "attrs": {"dtype": "float16"}, 
      "inputs": [[224, 0, 0]]
    }, 
    {
      "op": "Convolution", 
      "name": "resnetv22_lateral3fwd", 
      "attrs": {
        "dilate": "(1, 1)", 
        "kernel": "(1, 1)", 
        "layout": "NCHW", 
        "no_bias": "True", 
        "num_filter": "256", 
        "num_group": "1", 
        "pad": "(0, 0)", 
        "stride": "(1, 1)"
      }, 
      "inputs": [[223, 0, 0], [225, 0, 0]]
    }, 
    {
      "op": "amp_multicast", 
      "name": "resnetv22_amp_multicast1", 
      "attrs": {"num_outputs": "2"}, 
      "inputs": [[222, 0, 0], [226, 0, 0]]
    }, 
    {
      "op": "elemwise_add", 
      "name": "resnetv22__plus1", 
      "inputs": [[227, 0, 0], [227, 1, 0]]
    }, 
    {
      "op": "amp_cast", 
      "name": "retinanet0_convpredictor0_conv0_amp_cast0", 
      "attrs": {"dtype": "float16"}, 
      "inputs": [[228, 0, 0]]
    }, 
    {
      "op": "null", 
      "name": "retinanet0_convpredictor0_conv0_weight", 
      "attrs": {
        "__dtype__": "0", 
        "__init__": "[\"normal\", {\"sigma\": 0.01}]", 
        "__lr_mult__": "1.0", 
        "__shape__": "(256, 0, 3, 3)", 
        "__storage_type__": "0", 
        "__wd_mult__": "1.0"
      }, 
      "inputs": []
    }, 
    {
      "op": "amp_cast", 
      "name": "retinanet0_convpredictor0_conv0_amp_cast1", 
      "attrs": {"dtype": "float16"}, 
      "inputs": [[230, 0, 0]]
    }, 
    {
      "op": "null", 
      "name": "retinanet0_convpredictor0_conv0_bias", 
      "attrs": {
        "__dtype__": "0", 
        "__init__": "zeros", 
        "__lr_mult__": "1.0", 
        "__shape__": "(256,)", 
        "__storage_type__": "0", 
        "__wd_mult__": "1.0"
      }, 
      "inputs": []
    }, 
    {
      "op": "amp_cast", 
      "name": "retinanet0_convpredictor0_conv0_amp_cast2", 
      "attrs": {"dtype": "float16"}, 
      "inputs": [[232, 0, 0]]
    }, 
    {
      "op": "Convolution", 
      "name": "retinanet0_convpredictor0_conv0_fwd", 
      "attrs": {
        "dilate": "(1, 1)", 
        "kernel": "(3, 3)", 
        "layout": "NCHW", 
        "no_bias": "False", 
        "num_filter": "256", 
        "num_group": "1", 
        "pad": "(1, 1)", 
        "stride": "(1, 1)"
      }, 
      "inputs": [[229, 0, 0], [231, 0, 0], [233, 0, 0]]
    }, 
    {
      "op": "Activation", 
      "name": "retinanet0_convpredictor0_conv0_relu_fwd", 
      "attrs": {"act_type": "relu"}, 
      "inputs": [[234, 0, 0]]
    }, 
    {
      "op": "amp_cast", 
      "name": "retinanet0_convpredictor2_conv0_amp_cast0", 
      "attrs": {"dtype": "float16"}, 
      "inputs": [[235, 0, 0]]
    }, 
    {
      "op": "null", 
      "name": "retinanet0_convpredictor2_conv0_weight", 
      "attrs": {
        "__dtype__": "0", 
        "__init__": "[\"normal\", {\"sigma\": 0.01}]", 
        "__lr_mult__": "1.0", 
        "__shape__": "(256, 0, 3, 3)", 
        "__storage_type__": "0", 
        "__wd_mult__": "1.0"
      }, 
      "inputs": []
    }, 
    {
      "op": "amp_cast", 
      "name": "retinanet0_convpredictor2_conv0_amp_cast1", 
      "attrs": {"dtype": "float16"}, 
      "inputs": [[237, 0, 0]]
    }, 
    {
      "op": "null", 
      "name": "retinanet0_convpredictor2_conv0_bias", 
      "attrs": {
        "__dtype__": "0", 
        "__init__": "zeros", 
        "__lr_mult__": "1.0", 
        "__shape__": "(256,)", 
        "__storage_type__": "0", 
        "__wd_mult__": "1.0"
      }, 
      "inputs": []
    }, 
    {
      "op": "amp_cast", 
      "name": "retinanet0_convpredictor2_conv0_amp_cast2", 
      "attrs": {"dtype": "float16"}, 
      "inputs": [[239, 0, 0]]
    }, 
    {
      "op": "Convolution", 
      "name": "retinanet0_convpredictor2_conv0_fwd", 
      "attrs": {
        "dilate": "(1, 1)", 
        "kernel": "(3, 3)", 
        "layout": "NCHW", 
        "no_bias": "False", 
        "num_filter": "256", 
        "num_group": "1", 
        "pad": "(1, 1)", 
        "stride": "(1, 1)"
      }, 
      "inputs": [[236, 0, 0], [238, 0, 0], [240, 0, 0]]
    }, 
    {
      "op": "Activation", 
      "name": "retinanet0_convpredictor2_conv0_relu_fwd", 
      "attrs": {"act_type": "relu"}, 
      "inputs": [[241, 0, 0]]
    }, 
    {
      "op": "amp_cast", 
      "name": "retinanet0_convpredictor4_conv0_amp_cast0", 
      "attrs": {"dtype": "float16"}, 
      "inputs": [[242, 0, 0]]
    }, 
    {
      "op": "null", 
      "name": "retinanet0_convpredictor4_conv0_weight", 
      "attrs": {
        "__dtype__": "0", 
        "__init__": "[\"normal\", {\"sigma\": 0.01}]", 
        "__lr_mult__": "1.0", 
        "__shape__": "(256, 0, 3, 3)", 
        "__storage_type__": "0", 
        "__wd_mult__": "1.0"
      }, 
      "inputs": []
    }, 
    {
      "op": "amp_cast", 
      "name": "retinanet0_convpredictor4_conv0_amp_cast1", 
      "attrs": {"dtype": "float16"}, 
      "inputs": [[244, 0, 0]]
    }, 
    {
      "op": "null", 
      "name": "retinanet0_convpredictor4_conv0_bias", 
      "attrs": {
        "__dtype__": "0", 
        "__init__": "zeros", 
        "__lr_mult__": "1.0", 
        "__shape__": "(256,)", 
        "__storage_type__": "0", 
        "__wd_mult__": "1.0"
      }, 
      "inputs": []
    }, 
    {
      "op": "amp_cast", 
      "name": "retinanet0_convpredictor4_conv0_amp_cast2", 
      "attrs": {"dtype": "float16"}, 
      "inputs": [[246, 0, 0]]
    }, 
    {
      "op": "Convolution", 
      "name": "retinanet0_convpredictor4_conv0_fwd", 
      "attrs": {
        "dilate": "(1, 1)", 
        "kernel": "(3, 3)", 
        "layout": "NCHW", 
        "no_bias": "False", 
        "num_filter": "256", 
        "num_group": "1", 
        "pad": "(1, 1)", 
        "stride": "(1, 1)"
      }, 
      "inputs": [[243, 0, 0], [245, 0, 0], [247, 0, 0]]
    }, 
    {
      "op": "Activation", 
      "name": "retinanet0_convpredictor4_conv0_relu_fwd", 
      "attrs": {"act_type": "relu"}, 
      "inputs": [[248, 0, 0]]
    }, 
    {
      "op": "amp_cast", 
      "name": "retinanet0_convpredictor6_conv0_amp_cast0", 
      "attrs": {"dtype": "float16"}, 
      "inputs": [[249, 0, 0]]
    }, 
    {
      "op": "null", 
      "name": "retinanet0_convpredictor6_conv0_weight", 
      "attrs": {
        "__dtype__": "0", 
        "__init__": "[\"normal\", {\"sigma\": 0.01}]", 
        "__lr_mult__": "1.0", 
        "__shape__": "(45, 0, 3, 3)", 
        "__storage_type__": "0", 
        "__wd_mult__": "1.0"
      }, 
      "inputs": []
    }, 
    {
      "op": "amp_cast", 
      "name": "retinanet0_convpredictor6_conv0_amp_cast1", 
      "attrs": {"dtype": "float16"}, 
      "inputs": [[251, 0, 0]]
    }, 
    {
      "op": "null", 
      "name": "retinanet0_convpredictor6_conv0_bias", 
      "attrs": {
        "__dtype__": "0", 
        "__init__": "[\"constant\", {\"value\": -4.59511985013459}]", 
        "__lr_mult__": "1.0", 
        "__shape__": "(45,)", 
        "__storage_type__": "0", 
        "__wd_mult__": "1.0"
      }, 
      "inputs": []
    }, 
    {
      "op": "amp_cast", 
      "name": "retinanet0_convpredictor6_conv0_amp_cast2", 
      "attrs": {"dtype": "float16"}, 
      "inputs": [[253, 0, 0]]
    }, 
    {
      "op": "Convolution", 
      "name": "retinanet0_convpredictor6_conv0_fwd", 
      "attrs": {
        "dilate": "(1, 1)", 
        "kernel": "(3, 3)", 
        "layout": "NCHW", 
        "no_bias": "False", 
        "num_filter": "45", 
        "num_group": "1", 
        "pad": "(1, 1)", 
        "stride": "(1, 1)"
      }, 
      "inputs": [[250, 0, 0], [252, 0, 0], [254, 0, 0]]
    }, 
    {
      "op": "transpose", 
      "name": "retinanet0_transpose0", 
      "attrs": {"axes": "(0, 2, 3, 1)"}, 
      "inputs": [[255, 0, 0]]
    }, 
    {
      "op": "Flatten", 
      "name": "retinanet0_flatten0", 
      "inputs": [[256, 0, 0]]
    }, 
    {
      "op": "amp_cast", 
      "name": "retinanet0_convpredictor0_conv0_amp_cast0", 
      "attrs": {"dtype": "float16"}, 
      "inputs": [[221, 0, 0]]
    }, 
    {
      "op": "amp_cast", 
      "name": "retinanet0_convpredictor0_conv0_amp_cast1", 
      "attrs": {"dtype": "float16"}, 
      "inputs": [[230, 0, 0]]
    }, 
    {
      "op": "amp_cast", 
      "name": "retinanet0_convpredictor0_conv0_amp_cast2", 
      "attrs": {"dtype": "float16"}, 
      "inputs": [[232, 0, 0]]
    }, 
    {
      "op": "Convolution", 
      "name": "retinanet0_convpredictor0_conv0_fwd", 
      "attrs": {
        "dilate": "(1, 1)", 
        "kernel": "(3, 3)", 
        "layout": "NCHW", 
        "no_bias": "False", 
        "num_filter": "256", 
        "num_group": "1", 
        "pad": "(1, 1)", 
        "stride": "(1, 1)"
      }, 
      "inputs": [[258, 0, 0], [259, 0, 0], [260, 0, 0]]
    }, 
    {
      "op": "Activation", 
      "name": "retinanet0_convpredictor0_conv0_relu_fwd", 
      "attrs": {"act_type": "relu"}, 
      "inputs": [[261, 0, 0]]
    }, 
    {
      "op": "amp_cast", 
      "name": "retinanet0_convpredictor2_conv0_amp_cast0", 
      "attrs": {"dtype": "float16"}, 
      "inputs": [[262, 0, 0]]
    }, 
    {
      "op": "amp_cast", 
      "name": "retinanet0_convpredictor2_conv0_amp_cast1", 
      "attrs": {"dtype": "float16"}, 
      "inputs": [[237, 0, 0]]
    }, 
    {
      "op": "amp_cast", 
      "name": "retinanet0_convpredictor2_conv0_amp_cast2", 
      "attrs": {"dtype": "float16"}, 
      "inputs": [[239, 0, 0]]
    }, 
    {
      "op": "Convolution", 
      "name": "retinanet0_convpredictor2_conv0_fwd", 
      "attrs": {
        "dilate": "(1, 1)", 
        "kernel": "(3, 3)", 
        "layout": "NCHW", 
        "no_bias": "False", 
        "num_filter": "256", 
        "num_group": "1", 
        "pad": "(1, 1)", 
        "stride": "(1, 1)"
      }, 
      "inputs": [[263, 0, 0], [264, 0, 0], [265, 0, 0]]
    }, 
    {
      "op": "Activation", 
      "name": "retinanet0_convpredictor2_conv0_relu_fwd", 
      "attrs": {"act_type": "relu"}, 
      "inputs": [[266, 0, 0]]
    }, 
    {
      "op": "amp_cast", 
      "name": "retinanet0_convpredictor4_conv0_amp_cast0", 
      "attrs": {"dtype": "float16"}, 
      "inputs": [[267, 0, 0]]
    }, 
    {
      "op": "amp_cast", 
      "name": "retinanet0_convpredictor4_conv0_amp_cast1", 
      "attrs": {"dtype": "float16"}, 
      "inputs": [[244, 0, 0]]
    }, 
    {
      "op": "amp_cast", 
      "name": "retinanet0_convpredictor4_conv0_amp_cast2", 
      "attrs": {"dtype": "float16"}, 
      "inputs": [[246, 0, 0]]
    }, 
    {
      "op": "Convolution", 
      "name": "retinanet0_convpredictor4_conv0_fwd", 
      "attrs": {
        "dilate": "(1, 1)", 
        "kernel": "(3, 3)", 
        "layout": "NCHW", 
        "no_bias": "False", 
        "num_filter": "256", 
        "num_group": "1", 
        "pad": "(1, 1)", 
        "stride": "(1, 1)"
      }, 
      "inputs": [[268, 0, 0], [269, 0, 0], [270, 0, 0]]
    }, 
    {
      "op": "Activation", 
      "name": "retinanet0_convpredictor4_conv0_relu_fwd", 
      "attrs": {"act_type": "relu"}, 
      "inputs": [[271, 0, 0]]
    }, 
    {
      "op": "amp_cast", 
      "name": "retinanet0_convpredictor6_conv0_amp_cast0", 
      "attrs": {"dtype": "float16"}, 
      "inputs": [[272, 0, 0]]
    }, 
    {
      "op": "amp_cast", 
      "name": "retinanet0_convpredictor6_conv0_amp_cast1", 
      "attrs": {"dtype": "float16"}, 
      "inputs": [[251, 0, 0]]
    }, 
    {
      "op": "amp_cast", 
      "name": "retinanet0_convpredictor6_conv0_amp_cast2", 
      "attrs": {"dtype": "float16"}, 
      "inputs": [[253, 0, 0]]
    }, 
    {
      "op": "Convolution", 
      "name": "retinanet0_convpredictor6_conv0_fwd", 
      "attrs": {
        "dilate": "(1, 1)", 
        "kernel": "(3, 3)", 
        "layout": "NCHW", 
        "no_bias": "False", 
        "num_filter": "45", 
        "num_group": "1", 
        "pad": "(1, 1)", 
        "stride": "(1, 1)"
      }, 
      "inputs": [[273, 0, 0], [274, 0, 0], [275, 0, 0]]
    }, 
    {
      "op": "transpose", 
      "name": "retinanet0_transpose1", 
      "attrs": {"axes": "(0, 2, 3, 1)"}, 
      "inputs": [[276, 0, 0]]
    }, 
    {
      "op": "Flatten", 
      "name": "retinanet0_flatten1", 
      "inputs": [[277, 0, 0]]
    }, 
    {
      "op": "amp_cast", 
      "name": "retinanet0_convpredictor0_conv0_amp_cast0", 
      "attrs": {"dtype": "float16"}, 
      "inputs": [[214, 0, 0]]
    }, 
    {
      "op": "amp_cast", 
      "name": "retinanet0_convpredictor0_conv0_amp_cast1", 
      "attrs": {"dtype": "float16"}, 
      "inputs": [[230, 0, 0]]
    }, 
    {
      "op": "amp_cast", 
      "name": "retinanet0_convpredictor0_conv0_amp_cast2", 
      "attrs": {"dtype": "float16"}, 
      "inputs": [[232, 0, 0]]
    }, 
    {
      "op": "Convolution", 
      "name": "retinanet0_convpredictor0_conv0_fwd", 
      "attrs": {
        "dilate": "(1, 1)", 
        "kernel": "(3, 3)", 
        "layout": "NCHW", 
        "no_bias": "False", 
        "num_filter": "256", 
        "num_group": "1", 
        "pad": "(1, 1)", 
        "stride": "(1, 1)"
      }, 
      "inputs": [[279, 0, 0], [280, 0, 0], [281, 0, 0]]
    }, 
    {
      "op": "Activation", 
      "name": "retinanet0_convpredictor0_conv0_relu_fwd", 
      "attrs": {"act_type": "relu"}, 
      "inputs": [[282, 0, 0]]
    }, 
    {
      "op": "amp_cast", 
      "name": "retinanet0_convpredictor2_conv0_amp_cast0", 
      "attrs": {"dtype": "float16"}, 
      "inputs": [[283, 0, 0]]
    }, 
    {
      "op": "amp_cast", 
      "name": "retinanet0_convpredictor2_conv0_amp_cast1", 
      "attrs": {"dtype": "float16"}, 
      "inputs": [[237, 0, 0]]
    }, 
    {
      "op": "amp_cast", 
      "name": "retinanet0_convpredictor2_conv0_amp_cast2", 
      "attrs": {"dtype": "float16"}, 
      "inputs": [[239, 0, 0]]
    }, 
    {
      "op": "Convolution", 
      "name": "retinanet0_convpredictor2_conv0_fwd", 
      "attrs": {
        "dilate": "(1, 1)", 
        "kernel": "(3, 3)", 
        "layout": "NCHW", 
        "no_bias": "False", 
        "num_filter": "256", 
        "num_group": "1", 
        "pad": "(1, 1)", 
        "stride": "(1, 1)"
      }, 
      "inputs": [[284, 0, 0], [285, 0, 0], [286, 0, 0]]
    }, 
    {
      "op": "Activation", 
      "name": "retinanet0_convpredictor2_conv0_relu_fwd", 
      "attrs": {"act_type": "relu"}, 
      "inputs": [[287, 0, 0]]
    }, 
    {
      "op": "amp_cast", 
      "name": "retinanet0_convpredictor4_conv0_amp_cast0", 
      "attrs": {"dtype": "float16"}, 
      "inputs": [[288, 0, 0]]
    }, 
    {
      "op": "amp_cast", 
      "name": "retinanet0_convpredictor4_conv0_amp_cast1", 
      "attrs": {"dtype": "float16"}, 
      "inputs": [[244, 0, 0]]
    }, 
    {
      "op": "amp_cast", 
      "name": "retinanet0_convpredictor4_conv0_amp_cast2", 
      "attrs": {"dtype": "float16"}, 
      "inputs": [[246, 0, 0]]
    }, 
    {
      "op": "Convolution", 
      "name": "retinanet0_convpredictor4_conv0_fwd", 
      "attrs": {
        "dilate": "(1, 1)", 
        "kernel": "(3, 3)", 
        "layout": "NCHW", 
        "no_bias": "False", 
        "num_filter": "256", 
        "num_group": "1", 
        "pad": "(1, 1)", 
        "stride": "(1, 1)"
      }, 
      "inputs": [[289, 0, 0], [290, 0, 0], [291, 0, 0]]
    }, 
    {
      "op": "Activation", 
      "name": "retinanet0_convpredictor4_conv0_relu_fwd", 
      "attrs": {"act_type": "relu"}, 
      "inputs": [[292, 0, 0]]
    }, 
    {
      "op": "amp_cast", 
      "name": "retinanet0_convpredictor6_conv0_amp_cast0", 
      "attrs": {"dtype": "float16"}, 
      "inputs": [[293, 0, 0]]
    }, 
    {
      "op": "amp_cast", 
      "name": "retinanet0_convpredictor6_conv0_amp_cast1", 
      "attrs": {"dtype": "float16"}, 
      "inputs": [[251, 0, 0]]
    }, 
    {
      "op": "amp_cast", 
      "name": "retinanet0_convpredictor6_conv0_amp_cast2", 
      "attrs": {"dtype": "float16"}, 
      "inputs": [[253, 0, 0]]
    }, 
    {
      "op": "Convolution", 
      "name": "retinanet0_convpredictor6_conv0_fwd", 
      "attrs": {
        "dilate": "(1, 1)", 
        "kernel": "(3, 3)", 
        "layout": "NCHW", 
        "no_bias": "False", 
        "num_filter": "45", 
        "num_group": "1", 
        "pad": "(1, 1)", 
        "stride": "(1, 1)"
      }, 
      "inputs": [[294, 0, 0], [295, 0, 0], [296, 0, 0]]
    }, 
    {
      "op": "transpose", 
      "name": "retinanet0_transpose2", 
      "attrs": {"axes": "(0, 2, 3, 1)"}, 
      "inputs": [[297, 0, 0]]
    }, 
    {
      "op": "Flatten", 
      "name": "retinanet0_flatten2", 
      "inputs": [[298, 0, 0]]
    }, 
    {
      "op": "amp_cast", 
      "name": "resnetv22_extraconv1amp_cast0", 
      "attrs": {"dtype": "float16"}, 
      "inputs": [[210, 0, 0]]
    }, 
    {
      "op": "null", 
      "name": "resnetv22_extraconv1weight", 
      "attrs": {
        "__dtype__": "0", 
        "__lr_mult__": "1.0", 
        "__shape__": "(256, 0, 3, 3)", 
        "__storage_type__": "0", 
        "__wd_mult__": "1.0"
      }, 
      "inputs": []
    }, 
    {
      "op": "amp_cast", 
      "name": "resnetv22_extraconv1amp_cast1", 
      "attrs": {"dtype": "float16"}, 
      "inputs": [[301, 0, 0]]
    }, 
    {
      "op": "Convolution", 
      "name": "resnetv22_extraconv1fwd", 
      "attrs": {
        "dilate": "(1, 1)", 
        "kernel": "(3, 3)", 
        "layout": "NCHW", 
        "no_bias": "True", 
        "num_filter": "256", 
        "num_group": "1", 
        "pad": "(1, 1)", 
        "stride": "(2, 2)"
      }, 
      "inputs": [[300, 0, 0], [302, 0, 0]]
    }, 
    {
      "op": "amp_cast", 
      "name": "retinanet0_convpredictor0_conv0_amp_cast0", 
      "attrs": {"dtype": "float16"}, 
      "inputs": [[303, 0, 0]]
    }, 
    {
      "op": "amp_cast", 
      "name": "retinanet0_convpredictor0_conv0_amp_cast1", 
      "attrs": {"dtype": "float16"}, 
      "inputs": [[230, 0, 0]]
    }, 
    {
      "op": "amp_cast", 
      "name": "retinanet0_convpredictor0_conv0_amp_cast2", 
      "attrs": {"dtype": "float16"}, 
      "inputs": [[232, 0, 0]]
    }, 
    {
      "op": "Convolution", 
      "name": "retinanet0_convpredictor0_conv0_fwd", 
      "attrs": {
        "dilate": "(1, 1)", 
        "kernel": "(3, 3)", 
        "layout": "NCHW", 
        "no_bias": "False", 
        "num_filter": "256", 
        "num_group": "1", 
        "pad": "(1, 1)", 
        "stride": "(1, 1)"
      }, 
      "inputs": [[304, 0, 0], [305, 0, 0], [306, 0, 0]]
    }, 
    {
      "op": "Activation", 
      "name": "retinanet0_convpredictor0_conv0_relu_fwd", 
      "attrs": {"act_type": "relu"}, 
      "inputs": [[307, 0, 0]]
    }, 
    {
      "op": "amp_cast", 
      "name": "retinanet0_convpredictor2_conv0_amp_cast0", 
      "attrs": {"dtype": "float16"}, 
      "inputs": [[308, 0, 0]]
    }, 
    {
      "op": "amp_cast", 
      "name": "retinanet0_convpredictor2_conv0_amp_cast1", 
      "attrs": {"dtype": "float16"}, 
      "inputs": [[237, 0, 0]]
    }, 
    {
      "op": "amp_cast", 
      "name": "retinanet0_convpredictor2_conv0_amp_cast2", 
      "attrs": {"dtype": "float16"}, 
      "inputs": [[239, 0, 0]]
    }, 
    {
      "op": "Convolution", 
      "name": "retinanet0_convpredictor2_conv0_fwd", 
      "attrs": {
        "dilate": "(1, 1)", 
        "kernel": "(3, 3)", 
        "layout": "NCHW", 
        "no_bias": "False", 
        "num_filter": "256", 
        "num_group": "1", 
        "pad": "(1, 1)", 
        "stride": "(1, 1)"
      }, 
      "inputs": [[309, 0, 0], [310, 0, 0], [311, 0, 0]]
    }, 
    {
      "op": "Activation", 
      "name": "retinanet0_convpredictor2_conv0_relu_fwd", 
      "attrs": {"act_type": "relu"}, 
      "inputs": [[312, 0, 0]]
    }, 
    {
      "op": "amp_cast", 
      "name": "retinanet0_convpredictor4_conv0_amp_cast0", 
      "attrs": {"dtype": "float16"}, 
      "inputs": [[313, 0, 0]]
    }, 
    {
      "op": "amp_cast", 
      "name": "retinanet0_convpredictor4_conv0_amp_cast1", 
      "attrs": {"dtype": "float16"}, 
      "inputs": [[244, 0, 0]]
    }, 
    {
      "op": "amp_cast", 
      "name": "retinanet0_convpredictor4_conv0_amp_cast2", 
      "attrs": {"dtype": "float16"}, 
      "inputs": [[246, 0, 0]]
    }, 
    {
      "op": "Convolution", 
      "name": "retinanet0_convpredictor4_conv0_fwd", 
      "attrs": {
        "dilate": "(1, 1)", 
        "kernel": "(3, 3)", 
        "layout": "NCHW", 
        "no_bias": "False", 
        "num_filter": "256", 
        "num_group": "1", 
        "pad": "(1, 1)", 
        "stride": "(1, 1)"
      }, 
      "inputs": [[314, 0, 0], [315, 0, 0], [316, 0, 0]]
    }, 
    {
      "op": "Activation", 
      "name": "retinanet0_convpredictor4_conv0_relu_fwd", 
      "attrs": {"act_type": "relu"}, 
      "inputs": [[317, 0, 0]]
    }, 
    {
      "op": "amp_cast", 
      "name": "retinanet0_convpredictor6_conv0_amp_cast0", 
      "attrs": {"dtype": "float16"}, 
      "inputs": [[318, 0, 0]]
    }, 
    {
      "op": "amp_cast", 
      "name": "retinanet0_convpredictor6_conv0_amp_cast1", 
      "attrs": {"dtype": "float16"}, 
      "inputs": [[251, 0, 0]]
    }, 
    {
      "op": "amp_cast", 
      "name": "retinanet0_convpredictor6_conv0_amp_cast2", 
      "attrs": {"dtype": "float16"}, 
      "inputs": [[253, 0, 0]]
    }, 
    {
      "op": "Convolution", 
      "name": "retinanet0_convpredictor6_conv0_fwd", 
      "attrs": {
        "dilate": "(1, 1)", 
        "kernel": "(3, 3)", 
        "layout": "NCHW", 
        "no_bias": "False", 
        "num_filter": "45", 
        "num_group": "1", 
        "pad": "(1, 1)", 
        "stride": "(1, 1)"
      }, 
      "inputs": [[319, 0, 0], [320, 0, 0], [321, 0, 0]]
    }, 
    {
      "op": "transpose", 
      "name": "retinanet0_transpose3", 
      "attrs": {"axes": "(0, 2, 3, 1)"}, 
      "inputs": [[322, 0, 0]]
    }, 
    {
      "op": "Flatten", 
      "name": "retinanet0_flatten3", 
      "inputs": [[323, 0, 0]]
    }, 
    {
      "op": "Activation", 
      "name": "resnetv22_relu2_fwd", 
      "attrs": {"act_type": "relu"}, 
      "inputs": [[303, 0, 0]]
    }, 
    {
      "op": "amp_cast", 
      "name": "resnetv22_extraconv2amp_cast0", 
      "attrs": {"dtype": "float16"}, 
      "inputs": [[325, 0, 0]]
    }, 
    {
      "op": "null", 
      "name": "resnetv22_extraconv2weight", 
      "attrs": {
        "__dtype__": "0", 
        "__lr_mult__": "1.0", 
        "__shape__": "(256, 0, 3, 3)", 
        "__storage_type__": "0", 
        "__wd_mult__": "1.0"
      }, 
      "inputs": []
    }, 
    {
      "op": "amp_cast", 
      "name": "resnetv22_extraconv2amp_cast1", 
      "attrs": {"dtype": "float16"}, 
      "inputs": [[327, 0, 0]]
    }, 
    {
      "op": "Convolution", 
      "name": "resnetv22_extraconv2fwd", 
      "attrs": {
        "dilate": "(1, 1)", 
        "kernel": "(3, 3)", 
        "layout": "NCHW", 
        "no_bias": "True", 
        "num_filter": "256", 
        "num_group": "1", 
        "pad": "(1, 1)", 
        "stride": "(2, 2)"
      }, 
      "inputs": [[326, 0, 0], [328, 0, 0]]
    }, 
    {
      "op": "Activation", 
      "name": "resnetv22_extraconv2relu_fwd", 
      "attrs": {"act_type": "relu"}, 
      "inputs": [[329, 0, 0]]
    }, 
    {
      "op": "amp_cast", 
      "name": "retinanet0_convpredictor0_conv0_amp_cast0", 
      "attrs": {"dtype": "float16"}, 
      "inputs": [[330, 0, 0]]
    }, 
    {
      "op": "amp_cast", 
      "name": "retinanet0_convpredictor0_conv0_amp_cast1", 
      "attrs": {"dtype": "float16"}, 
      "inputs": [[230, 0, 0]]
    }, 
    {
      "op": "amp_cast", 
      "name": "retinanet0_convpredictor0_conv0_amp_cast2", 
      "attrs": {"dtype": "float16"}, 
      "inputs": [[232, 0, 0]]
    }, 
    {
      "op": "Convolution", 
      "name": "retinanet0_convpredictor0_conv0_fwd", 
      "attrs": {
        "dilate": "(1, 1)", 
        "kernel": "(3, 3)", 
        "layout": "NCHW", 
        "no_bias": "False", 
        "num_filter": "256", 
        "num_group": "1", 
        "pad": "(1, 1)", 
        "stride": "(1, 1)"
      }, 
      "inputs": [[331, 0, 0], [332, 0, 0], [333, 0, 0]]
    }, 
    {
      "op": "Activation", 
      "name": "retinanet0_convpredictor0_conv0_relu_fwd", 
      "attrs": {"act_type": "relu"}, 
      "inputs": [[334, 0, 0]]
    }, 
    {
      "op": "amp_cast", 
      "name": "retinanet0_convpredictor2_conv0_amp_cast0", 
      "attrs": {"dtype": "float16"}, 
      "inputs": [[335, 0, 0]]
    }, 
    {
      "op": "amp_cast", 
      "name": "retinanet0_convpredictor2_conv0_amp_cast1", 
      "attrs": {"dtype": "float16"}, 
      "inputs": [[237, 0, 0]]
    }, 
    {
      "op": "amp_cast", 
      "name": "retinanet0_convpredictor2_conv0_amp_cast2", 
      "attrs": {"dtype": "float16"}, 
      "inputs": [[239, 0, 0]]
    }, 
    {
      "op": "Convolution", 
      "name": "retinanet0_convpredictor2_conv0_fwd", 
      "attrs": {
        "dilate": "(1, 1)", 
        "kernel": "(3, 3)", 
        "layout": "NCHW", 
        "no_bias": "False", 
        "num_filter": "256", 
        "num_group": "1", 
        "pad": "(1, 1)", 
        "stride": "(1, 1)"
      }, 
      "inputs": [[336, 0, 0], [337, 0, 0], [338, 0, 0]]
    }, 
    {
      "op": "Activation", 
      "name": "retinanet0_convpredictor2_conv0_relu_fwd", 
      "attrs": {"act_type": "relu"}, 
      "inputs": [[339, 0, 0]]
    }, 
    {
      "op": "amp_cast", 
      "name": "retinanet0_convpredictor4_conv0_amp_cast0", 
      "attrs": {"dtype": "float16"}, 
      "inputs": [[340, 0, 0]]
    }, 
    {
      "op": "amp_cast", 
      "name": "retinanet0_convpredictor4_conv0_amp_cast1", 
      "attrs": {"dtype": "float16"}, 
      "inputs": [[244, 0, 0]]
    }, 
    {
      "op": "amp_cast", 
      "name": "retinanet0_convpredictor4_conv0_amp_cast2", 
      "attrs": {"dtype": "float16"}, 
      "inputs": [[246, 0, 0]]
    }, 
    {
      "op": "Convolution", 
      "name": "retinanet0_convpredictor4_conv0_fwd", 
      "attrs": {
        "dilate": "(1, 1)", 
        "kernel": "(3, 3)", 
        "layout": "NCHW", 
        "no_bias": "False", 
        "num_filter": "256", 
        "num_group": "1", 
        "pad": "(1, 1)", 
        "stride": "(1, 1)"
      }, 
      "inputs": [[341, 0, 0], [342, 0, 0], [343, 0, 0]]
    }, 
    {
      "op": "Activation", 
      "name": "retinanet0_convpredictor4_conv0_relu_fwd", 
      "attrs": {"act_type": "relu"}, 
      "inputs": [[344, 0, 0]]
    }, 
    {
      "op": "amp_cast", 
      "name": "retinanet0_convpredictor6_conv0_amp_cast0", 
      "attrs": {"dtype": "float16"}, 
      "inputs": [[345, 0, 0]]
    }, 
    {
      "op": "amp_cast", 
      "name": "retinanet0_convpredictor6_conv0_amp_cast1", 
      "attrs": {"dtype": "float16"}, 
      "inputs": [[251, 0, 0]]
    }, 
    {
      "op": "amp_cast", 
      "name": "retinanet0_convpredictor6_conv0_amp_cast2", 
      "attrs": {"dtype": "float16"}, 
      "inputs": [[253, 0, 0]]
    }, 
    {
      "op": "Convolution", 
      "name": "retinanet0_convpredictor6_conv0_fwd", 
      "attrs": {
        "dilate": "(1, 1)", 
        "kernel": "(3, 3)", 
        "layout": "NCHW", 
        "no_bias": "False", 
        "num_filter": "45", 
        "num_group": "1", 
        "pad": "(1, 1)", 
        "stride": "(1, 1)"
      }, 
      "inputs": [[346, 0, 0], [347, 0, 0], [348, 0, 0]]
    }, 
    {
      "op": "transpose", 
      "name": "retinanet0_transpose4", 
      "attrs": {"axes": "(0, 2, 3, 1)"}, 
      "inputs": [[349, 0, 0]]
    }, 
    {
      "op": "Flatten", 
      "name": "retinanet0_flatten4", 
      "inputs": [[350, 0, 0]]
    }, 
    {
      "op": "amp_multicast", 
      "name": "retinanet0_amp_multicast0", 
      "attrs": {"num_outputs": "5"}, 
      "inputs": [[257, 0, 0], [278, 0, 0], [299, 0, 0], [324, 0, 0], [351, 0, 0]]
    }, 
    {
      "op": "Concat", 
      "name": "retinanet0_concat0", 
      "attrs": {
        "dim": "-1", 
        "num_args": "5"
      }, 
      "inputs": [[352, 0, 0], [352, 1, 0], [352, 2, 0], [352, 3, 0], [352, 4, 0]]
    }, 
    {
      "op": "Reshape", 
      "name": "retinanet0_reshape0", 
      "attrs": {"shape": "(0, -1, 5)"}, 
      "inputs": [[353, 0, 0]]
    }, 
    {
      "op": "BatchNorm", 
      "name": "resnetv22_batchnorm0_fwd", 
      "attrs": {
        "axis": "1", 
        "eps": "1e-05", 
        "fix_gamma": "True", 
        "momentum": "0.9", 
        "use_global_stats": "False"
      }, 
      "inputs": [[0, 0, 0], [1, 0, 0], [2, 0, 0], [3, 0, 2], [4, 0, 2]]
    }, 
    {
      "op": "amp_cast", 
      "name": "resnetv22_conv0_amp_cast0", 
      "attrs": {"dtype": "float16"}, 
      "inputs": [[355, 0, 0]]
    }, 
    {
      "op": "amp_cast", 
      "name": "resnetv22_conv0_amp_cast1", 
      "attrs": {"dtype": "float16"}, 
      "inputs": [[7, 0, 0]]
    }, 
    {
      "op": "Convolution", 
      "name": "resnetv22_conv0_fwd", 
      "attrs": {
        "dilate": "(1, 1)", 
        "kernel": "(7, 7)", 
        "layout": "NCHW", 
        "no_bias": "True", 
        "num_filter": "64", 
        "num_group": "1", 
        "pad": "(3, 3)", 
        "stride": "(2, 2)"
      }, 
      "inputs": [[356, 0, 0], [357, 0, 0]]
    }, 
    {
      "op": "BatchNorm", 
      "name": "resnetv22_batchnorm1_fwd", 
      "attrs": {
        "axis": "1", 
        "eps": "1e-05", 
        "fix_gamma": "False", 
        "momentum": "0.9", 
        "use_global_stats": "False"
      }, 
      "inputs": [[358, 0, 0], [10, 0, 0], [11, 0, 0], [12, 0, 2], [13, 0, 2]]
    }, 
    {
      "op": "Activation", 
      "name": "resnetv22_relu0_fwd", 
      "attrs": {"act_type": "relu"}, 
      "inputs": [[359, 0, 0]]
    }, 
    {
      "op": "Pooling", 
      "name": "resnetv22_pool0_fwd", 
      "attrs": {
        "global_pool": "False", 
        "kernel": "(3, 3)", 
        "layout": "NCHW", 
        "pad": "(1, 1)", 
        "pool_type": "max", 
        "pooling_convention": "valid", 
        "stride": "(2, 2)"
      }, 
      "inputs": [[360, 0, 0]]
    }, 
    {
      "op": "BatchNorm", 
      "name": "resnetv22_stage1_batchnorm0_fwd", 
      "attrs": {
        "axis": "1", 
        "eps": "1e-05", 
        "fix_gamma": "False", 
        "momentum": "0.9", 
        "use_global_stats": "False"
      }, 
      "inputs": [[361, 0, 0], [17, 0, 0], [18, 0, 0], [19, 0, 2], [20, 0, 2]]
    }, 
    {
      "op": "Activation", 
      "name": "resnetv22_stage1_activation0", 
      "attrs": {"act_type": "relu"}, 
      "inputs": [[362, 0, 0]]
    }, 
    {
      "op": "amp_cast", 
      "name": "resnetv22_stage1_conv0_amp_cast0", 
      "attrs": {"dtype": "float16"}, 
      "inputs": [[363, 0, 0]]
    }, 
    {
      "op": "amp_cast", 
      "name": "resnetv22_stage1_conv0_amp_cast1", 
      "attrs": {"dtype": "float16"}, 
      "inputs": [[24, 0, 0]]
    }, 
    {
      "op": "Convolution", 
      "name": "resnetv22_stage1_conv0_fwd", 
      "attrs": {
        "dilate": "(1, 1)", 
        "kernel": "(3, 3)", 
        "layout": "NCHW", 
        "no_bias": "True", 
        "num_filter": "64", 
        "num_group": "1", 
        "pad": "(1, 1)", 
        "stride": "(1, 1)"
      }, 
      "inputs": [[364, 0, 0], [365, 0, 0]]
    }, 
    {
      "op": "BatchNorm", 
      "name": "resnetv22_stage1_batchnorm1_fwd", 
      "attrs": {
        "axis": "1", 
        "eps": "1e-05", 
        "fix_gamma": "False", 
        "momentum": "0.9", 
        "use_global_stats": "False"
      }, 
      "inputs": [[366, 0, 0], [27, 0, 0], [28, 0, 0], [29, 0, 2], [30, 0, 2]]
    }, 
    {
      "op": "Activation", 
      "name": "resnetv22_stage1_activation1", 
      "attrs": {"act_type": "relu"}, 
      "inputs": [[367, 0, 0]]
    }, 
    {
      "op": "amp_cast", 
      "name": "resnetv22_stage1_conv1_amp_cast0", 
      "attrs": {"dtype": "float16"}, 
      "inputs": [[368, 0, 0]]
    }, 
    {
      "op": "amp_cast", 
      "name": "resnetv22_stage1_conv1_amp_cast1", 
      "attrs": {"dtype": "float16"}, 
      "inputs": [[34, 0, 0]]
    }, 
    {
      "op": "Convolution", 
      "name": "resnetv22_stage1_conv1_fwd", 
      "attrs": {
        "dilate": "(1, 1)", 
        "kernel": "(3, 3)", 
        "layout": "NCHW", 
        "no_bias": "True", 
        "num_filter": "64", 
        "num_group": "1", 
        "pad": "(1, 1)", 
        "stride": "(1, 1)"
      }, 
      "inputs": [[369, 0, 0], [370, 0, 0]]
    }, 
    {
      "op": "amp_multicast", 
      "name": "resnetv22_stage1_amp_multicast0", 
      "attrs": {"num_outputs": "2"}, 
      "inputs": [[371, 0, 0], [361, 0, 0]]
    }, 
    {
      "op": "elemwise_add", 
      "name": "resnetv22_stage1__plus0", 
      "inputs": [[372, 0, 0], [372, 1, 0]]
    }, 
    {
      "op": "BatchNorm", 
      "name": "resnetv22_stage1_batchnorm2_fwd", 
      "attrs": {
        "axis": "1", 
        "eps": "1e-05", 
        "fix_gamma": "False", 
        "momentum": "0.9", 
        "use_global_stats": "False"
      }, 
      "inputs": [[373, 0, 0], [39, 0, 0], [40, 0, 0], [41, 0, 2], [42, 0, 2]]
    }, 
    {
      "op": "Activation", 
      "name": "resnetv22_stage1_activation2", 
      "attrs": {"act_type": "relu"}, 
      "inputs": [[374, 0, 0]]
    }, 
    {
      "op": "amp_cast", 
      "name": "resnetv22_stage1_conv2_amp_cast0", 
      "attrs": {"dtype": "float16"}, 
      "inputs": [[375, 0, 0]]
    }, 
    {
      "op": "amp_cast", 
      "name": "resnetv22_stage1_conv2_amp_cast1", 
      "attrs": {"dtype": "float16"}, 
      "inputs": [[46, 0, 0]]
    }, 
    {
      "op": "Convolution", 
      "name": "resnetv22_stage1_conv2_fwd", 
      "attrs": {
        "dilate": "(1, 1)", 
        "kernel": "(3, 3)", 
        "layout": "NCHW", 
        "no_bias": "True", 
        "num_filter": "64", 
        "num_group": "1", 
        "pad": "(1, 1)", 
        "stride": "(1, 1)"
      }, 
      "inputs": [[376, 0, 0], [377, 0, 0]]
    }, 
    {
      "op": "BatchNorm", 
      "name": "resnetv22_stage1_batchnorm3_fwd", 
      "attrs": {
        "axis": "1", 
        "eps": "1e-05", 
        "fix_gamma": "False", 
        "momentum": "0.9", 
        "use_global_stats": "False"
      }, 
      "inputs": [[378, 0, 0], [49, 0, 0], [50, 0, 0], [51, 0, 2], [52, 0, 2]]
    }, 
    {
      "op": "Activation", 
      "name": "resnetv22_stage1_activation3", 
      "attrs": {"act_type": "relu"}, 
      "inputs": [[379, 0, 0]]
    }, 
    {
      "op": "amp_cast", 
      "name": "resnetv22_stage1_conv3_amp_cast0", 
      "attrs": {"dtype": "float16"}, 
      "inputs": [[380, 0, 0]]
    }, 
    {
      "op": "amp_cast", 
      "name": "resnetv22_stage1_conv3_amp_cast1", 
      "attrs": {"dtype": "float16"}, 
      "inputs": [[56, 0, 0]]
    }, 
    {
      "op": "Convolution", 
      "name": "resnetv22_stage1_conv3_fwd", 
      "attrs": {
        "dilate": "(1, 1)", 
        "kernel": "(3, 3)", 
        "layout": "NCHW", 
        "no_bias": "True", 
        "num_filter": "64", 
        "num_group": "1", 
        "pad": "(1, 1)", 
        "stride": "(1, 1)"
      }, 
      "inputs": [[381, 0, 0], [382, 0, 0]]
    }, 
    {
      "op": "amp_multicast", 
      "name": "resnetv22_stage1_amp_multicast1", 
      "attrs": {"num_outputs": "2"}, 
      "inputs": [[383, 0, 0], [373, 0, 0]]
    }, 
    {
      "op": "elemwise_add", 
      "name": "resnetv22_stage1__plus1", 
      "inputs": [[384, 0, 0], [384, 1, 0]]
    }, 
    {
      "op": "BatchNorm", 
      "name": "resnetv22_stage2_batchnorm0_fwd", 
      "attrs": {
        "axis": "1", 
        "eps": "1e-05", 
        "fix_gamma": "False", 
        "momentum": "0.9", 
        "use_global_stats": "False"
      }, 
      "inputs": [[385, 0, 0], [61, 0, 0], [62, 0, 0], [63, 0, 2], [64, 0, 2]]
    }, 
    {
      "op": "Activation", 
      "name": "resnetv22_stage2_activation0", 
      "attrs": {"act_type": "relu"}, 
      "inputs": [[386, 0, 0]]
    }, 
    {
      "op": "amp_cast", 
      "name": "resnetv22_stage2_conv0_amp_cast0", 
      "attrs": {"dtype": "float16"}, 
      "inputs": [[387, 0, 0]]
    }, 
    {
      "op": "amp_cast", 
      "name": "resnetv22_stage2_conv0_amp_cast1", 
      "attrs": {"dtype": "float16"}, 
      "inputs": [[68, 0, 0]]
    }, 
    {
      "op": "Convolution", 
      "name": "resnetv22_stage2_conv0_fwd", 
      "attrs": {
        "dilate": "(1, 1)", 
        "kernel": "(3, 3)", 
        "layout": "NCHW", 
        "no_bias": "True", 
        "num_filter": "128", 
        "num_group": "1", 
        "pad": "(1, 1)", 
        "stride": "(2, 2)"
      }, 
      "inputs": [[388, 0, 0], [389, 0, 0]]
    }, 
    {
      "op": "BatchNorm", 
      "name": "resnetv22_stage2_batchnorm1_fwd", 
      "attrs": {
        "axis": "1", 
        "eps": "1e-05", 
        "fix_gamma": "False", 
        "momentum": "0.9", 
        "use_global_stats": "False"
      }, 
      "inputs": [[390, 0, 0], [71, 0, 0], [72, 0, 0], [73, 0, 2], [74, 0, 2]]
    }, 
    {
      "op": "Activation", 
      "name": "resnetv22_stage2_activation1", 
      "attrs": {"act_type": "relu"}, 
      "inputs": [[391, 0, 0]]
    }, 
    {
      "op": "amp_cast", 
      "name": "resnetv22_stage2_conv1_amp_cast0", 
      "attrs": {"dtype": "float16"}, 
      "inputs": [[392, 0, 0]]
    }, 
    {
      "op": "amp_cast", 
      "name": "resnetv22_stage2_conv1_amp_cast1", 
      "attrs": {"dtype": "float16"}, 
      "inputs": [[78, 0, 0]]
    }, 
    {
      "op": "Convolution", 
      "name": "resnetv22_stage2_conv1_fwd", 
      "attrs": {
        "dilate": "(1, 1)", 
        "kernel": "(3, 3)", 
        "layout": "NCHW", 
        "no_bias": "True", 
        "num_filter": "128", 
        "num_group": "1", 
        "pad": "(1, 1)", 
        "stride": "(1, 1)"
      }, 
      "inputs": [[393, 0, 0], [394, 0, 0]]
    }, 
    {
      "op": "amp_cast", 
      "name": "resnetv22_stage2_conv2_amp_cast0", 
      "attrs": {"dtype": "float16"}, 
      "inputs": [[387, 0, 0]]
    }, 
    {
      "op": "amp_cast", 
      "name": "resnetv22_stage2_conv2_amp_cast1", 
      "attrs": {"dtype": "float16"}, 
      "inputs": [[82, 0, 0]]
    }, 
    {
      "op": "Convolution", 
      "name": "resnetv22_stage2_conv2_fwd", 
      "attrs": {
        "dilate": "(1, 1)", 
        "kernel": "(1, 1)", 
        "layout": "NCHW", 
        "no_bias": "True", 
        "num_filter": "128", 
        "num_group": "1", 
        "pad": "(0, 0)", 
        "stride": "(2, 2)"
      }, 
      "inputs": [[396, 0, 0], [397, 0, 0]]
    }, 
    {
      "op": "amp_multicast", 
      "name": "resnetv22_stage2_amp_multicast0", 
      "attrs": {"num_outputs": "2"}, 
      "inputs": [[395, 0, 0], [398, 0, 0]]
    }, 
    {
      "op": "elemwise_add", 
      "name": "resnetv22_stage2__plus0", 
      "inputs": [[399, 0, 0], [399, 1, 0]]
    }, 
    {
      "op": "BatchNorm", 
      "name": "resnetv22_stage2_batchnorm2_fwd", 
      "attrs": {
        "axis": "1", 
        "eps": "1e-05", 
        "fix_gamma": "False", 
        "momentum": "0.9", 
        "use_global_stats": "False"
      }, 
      "inputs": [[400, 0, 0], [87, 0, 0], [88, 0, 0], [89, 0, 2], [90, 0, 2]]
    }, 
    {
      "op": "Activation", 
      "name": "resnetv22_stage2_activation2", 
      "attrs": {"act_type": "relu"}, 
      "inputs": [[401, 0, 0]]
    }, 
    {
      "op": "amp_cast", 
      "name": "resnetv22_stage2_conv3_amp_cast0", 
      "attrs": {"dtype": "float16"}, 
      "inputs": [[402, 0, 0]]
    }, 
    {
      "op": "amp_cast", 
      "name": "resnetv22_stage2_conv3_amp_cast1", 
      "attrs": {"dtype": "float16"}, 
      "inputs": [[94, 0, 0]]
    }, 
    {
      "op": "Convolution", 
      "name": "resnetv22_stage2_conv3_fwd", 
      "attrs": {
        "dilate": "(1, 1)", 
        "kernel": "(3, 3)", 
        "layout": "NCHW", 
        "no_bias": "True", 
        "num_filter": "128", 
        "num_group": "1", 
        "pad": "(1, 1)", 
        "stride": "(1, 1)"
      }, 
      "inputs": [[403, 0, 0], [404, 0, 0]]
    }, 
    {
      "op": "BatchNorm", 
      "name": "resnetv22_stage2_batchnorm3_fwd", 
      "attrs": {
        "axis": "1", 
        "eps": "1e-05", 
        "fix_gamma": "False", 
        "momentum": "0.9", 
        "use_global_stats": "False"
      }, 
      "inputs": [[405, 0, 0], [97, 0, 0], [98, 0, 0], [99, 0, 2], [100, 0, 2]]
    }, 
    {
      "op": "Activation", 
      "name": "resnetv22_stage2_activation3", 
      "attrs": {"act_type": "relu"}, 
      "inputs": [[406, 0, 0]]
    }, 
    {
      "op": "amp_cast", 
      "name": "resnetv22_stage2_conv4_amp_cast0", 
      "attrs": {"dtype": "float16"}, 
      "inputs": [[407, 0, 0]]
    }, 
    {
      "op": "amp_cast", 
      "name": "resnetv22_stage2_conv4_amp_cast1", 
      "attrs": {"dtype": "float16"}, 
      "inputs": [[104, 0, 0]]
    }, 
    {
      "op": "Convolution", 
      "name": "resnetv22_stage2_conv4_fwd", 
      "attrs": {
        "dilate": "(1, 1)", 
        "kernel": "(3, 3)", 
        "layout": "NCHW", 
        "no_bias": "True", 
        "num_filter": "128", 
        "num_group": "1", 
        "pad": "(1, 1)", 
        "stride": "(1, 1)"
      }, 
      "inputs": [[408, 0, 0], [409, 0, 0]]
    }, 
    {
      "op": "amp_multicast", 
      "name": "resnetv22_stage2_amp_multicast1", 
      "attrs": {"num_outputs": "2"}, 
      "inputs": [[410, 0, 0], [400, 0, 0]]
    }, 
    {
      "op": "elemwise_add", 
      "name": "resnetv22_stage2__plus1", 
      "inputs": [[411, 0, 0], [411, 1, 0]]
    }, 
    {
      "op": "BatchNorm", 
      "name": "resnetv22_stage3_batchnorm0_fwd", 
      "attrs": {
        "axis": "1", 
        "eps": "1e-05", 
        "fix_gamma": "False", 
        "momentum": "0.9", 
        "use_global_stats": "False"
      }, 
      "inputs": [[412, 0, 0], [109, 0, 0], [110, 0, 0], [111, 0, 2], [112, 0, 2]]
    }, 
    {
      "op": "Activation", 
      "name": "resnetv22_stage3_activation0", 
      "attrs": {"act_type": "relu"}, 
      "inputs": [[413, 0, 0]]
    }, 
    {
      "op": "amp_cast", 
      "name": "resnetv22_stage3_conv0_amp_cast0", 
      "attrs": {"dtype": "float16"}, 
      "inputs": [[414, 0, 0]]
    }, 
    {
      "op": "amp_cast", 
      "name": "resnetv22_stage3_conv0_amp_cast1", 
      "attrs": {"dtype": "float16"}, 
      "inputs": [[116, 0, 0]]
    }, 
    {
      "op": "Convolution", 
      "name": "resnetv22_stage3_conv0_fwd", 
      "attrs": {
        "dilate": "(1, 1)", 
        "kernel": "(3, 3)", 
        "layout": "NCHW", 
        "no_bias": "True", 
        "num_filter": "256", 
        "num_group": "1", 
        "pad": "(1, 1)", 
        "stride": "(2, 2)"
      }, 
      "inputs": [[415, 0, 0], [416, 0, 0]]
    }, 
    {
      "op": "BatchNorm", 
      "name": "resnetv22_stage3_batchnorm1_fwd", 
      "attrs": {
        "axis": "1", 
        "eps": "1e-05", 
        "fix_gamma": "False", 
        "momentum": "0.9", 
        "use_global_stats": "False"
      }, 
      "inputs": [[417, 0, 0], [119, 0, 0], [120, 0, 0], [121, 0, 2], [122, 0, 2]]
    }, 
    {
      "op": "Activation", 
      "name": "resnetv22_stage3_activation1", 
      "attrs": {"act_type": "relu"}, 
      "inputs": [[418, 0, 0]]
    }, 
    {
      "op": "amp_cast", 
      "name": "resnetv22_stage3_conv1_amp_cast0", 
      "attrs": {"dtype": "float16"}, 
      "inputs": [[419, 0, 0]]
    }, 
    {
      "op": "amp_cast", 
      "name": "resnetv22_stage3_conv1_amp_cast1", 
      "attrs": {"dtype": "float16"}, 
      "inputs": [[126, 0, 0]]
    }, 
    {
      "op": "Convolution", 
      "name": "resnetv22_stage3_conv1_fwd", 
      "attrs": {
        "dilate": "(1, 1)", 
        "kernel": "(3, 3)", 
        "layout": "NCHW", 
        "no_bias": "True", 
        "num_filter": "256", 
        "num_group": "1", 
        "pad": "(1, 1)", 
        "stride": "(1, 1)"
      }, 
      "inputs": [[420, 0, 0], [421, 0, 0]]
    }, 
    {
      "op": "amp_cast", 
      "name": "resnetv22_stage3_conv2_amp_cast0", 
      "attrs": {"dtype": "float16"}, 
      "inputs": [[414, 0, 0]]
    }, 
    {
      "op": "amp_cast", 
      "name": "resnetv22_stage3_conv2_amp_cast1", 
      "attrs": {"dtype": "float16"}, 
      "inputs": [[130, 0, 0]]
    }, 
    {
      "op": "Convolution", 
      "name": "resnetv22_stage3_conv2_fwd", 
      "attrs": {
        "dilate": "(1, 1)", 
        "kernel": "(1, 1)", 
        "layout": "NCHW", 
        "no_bias": "True", 
        "num_filter": "256", 
        "num_group": "1", 
        "pad": "(0, 0)", 
        "stride": "(2, 2)"
      }, 
      "inputs": [[423, 0, 0], [424, 0, 0]]
    }, 
    {
      "op": "amp_multicast", 
      "name": "resnetv22_stage3_amp_multicast0", 
      "attrs": {"num_outputs": "2"}, 
      "inputs": [[422, 0, 0], [425, 0, 0]]
    }, 
    {
      "op": "elemwise_add", 
      "name": "resnetv22_stage3__plus0", 
      "inputs": [[426, 0, 0], [426, 1, 0]]
    }, 
    {
      "op": "BatchNorm", 
      "name": "resnetv22_stage3_batchnorm2_fwd", 
      "attrs": {
        "axis": "1", 
        "eps": "1e-05", 
        "fix_gamma": "False", 
        "momentum": "0.9", 
        "use_global_stats": "False"
      }, 
      "inputs": [[427, 0, 0], [135, 0, 0], [136, 0, 0], [137, 0, 2], [138, 0, 2]]
    }, 
    {
      "op": "Activation", 
      "name": "resnetv22_stage3_activation2", 
      "attrs": {"act_type": "relu"}, 
      "inputs": [[428, 0, 0]]
    }, 
    {
      "op": "amp_cast", 
      "name": "resnetv22_stage3_conv3_amp_cast0", 
      "attrs": {"dtype": "float16"}, 
      "inputs": [[429, 0, 0]]
    }, 
    {
      "op": "amp_cast", 
      "name": "resnetv22_stage3_conv3_amp_cast1", 
      "attrs": {"dtype": "float16"}, 
      "inputs": [[142, 0, 0]]
    }, 
    {
      "op": "Convolution", 
      "name": "resnetv22_stage3_conv3_fwd", 
      "attrs": {
        "dilate": "(1, 1)", 
        "kernel": "(3, 3)", 
        "layout": "NCHW", 
        "no_bias": "True", 
        "num_filter": "256", 
        "num_group": "1", 
        "pad": "(1, 1)", 
        "stride": "(1, 1)"
      }, 
      "inputs": [[430, 0, 0], [431, 0, 0]]
    }, 
    {
      "op": "BatchNorm", 
      "name": "resnetv22_stage3_batchnorm3_fwd", 
      "attrs": {
        "axis": "1", 
        "eps": "1e-05", 
        "fix_gamma": "False", 
        "momentum": "0.9", 
        "use_global_stats": "False"
      }, 
      "inputs": [[432, 0, 0], [145, 0, 0], [146, 0, 0], [147, 0, 2], [148, 0, 2]]
    }, 
    {
      "op": "Activation", 
      "name": "resnetv22_stage3_activation3", 
      "attrs": {"act_type": "relu"}, 
      "inputs": [[433, 0, 0]]
    }, 
    {
      "op": "amp_cast", 
      "name": "resnetv22_stage3_conv4_amp_cast0", 
      "attrs": {"dtype": "float16"}, 
      "inputs": [[434, 0, 0]]
    }, 
    {
      "op": "amp_cast", 
      "name": "resnetv22_stage3_conv4_amp_cast1", 
      "attrs": {"dtype": "float16"}, 
      "inputs": [[152, 0, 0]]
    }, 
    {
      "op": "Convolution", 
      "name": "resnetv22_stage3_conv4_fwd", 
      "attrs": {
        "dilate": "(1, 1)", 
        "kernel": "(3, 3)", 
        "layout": "NCHW", 
        "no_bias": "True", 
        "num_filter": "256", 
        "num_group": "1", 
        "pad": "(1, 1)", 
        "stride": "(1, 1)"
      }, 
      "inputs": [[435, 0, 0], [436, 0, 0]]
    }, 
    {
      "op": "amp_multicast", 
      "name": "resnetv22_stage3_amp_multicast1", 
      "attrs": {"num_outputs": "2"}, 
      "inputs": [[437, 0, 0], [427, 0, 0]]
    }, 
    {
      "op": "elemwise_add", 
      "name": "resnetv22_stage3__plus1", 
      "inputs": [[438, 0, 0], [438, 1, 0]]
    }, 
    {
      "op": "BatchNorm", 
      "name": "resnetv22_stage4_batchnorm0_fwd", 
      "attrs": {
        "axis": "1", 
        "eps": "1e-05", 
        "fix_gamma": "False", 
        "momentum": "0.9", 
        "use_global_stats": "False"
      }, 
      "inputs": [[439, 0, 0], [157, 0, 0], [158, 0, 0], [159, 0, 2], [160, 0, 2]]
    }, 
    {
      "op": "Activation", 
      "name": "resnetv22_stage4_activation0", 
      "attrs": {"act_type": "relu"}, 
      "inputs": [[440, 0, 0]]
    }, 
    {
      "op": "amp_cast", 
      "name": "resnetv22_stage4_conv0_amp_cast0", 
      "attrs": {"dtype": "float16"}, 
      "inputs": [[441, 0, 0]]
    }, 
    {
      "op": "amp_cast", 
      "name": "resnetv22_stage4_conv0_amp_cast1", 
      "attrs": {"dtype": "float16"}, 
      "inputs": [[164, 0, 0]]
    }, 
    {
      "op": "Convolution", 
      "name": "resnetv22_stage4_conv0_fwd", 
      "attrs": {
        "dilate": "(1, 1)", 
        "kernel": "(3, 3)", 
        "layout": "NCHW", 
        "no_bias": "True", 
        "num_filter": "512", 
        "num_group": "1", 
        "pad": "(1, 1)", 
        "stride": "(2, 2)"
      }, 
      "inputs": [[442, 0, 0], [443, 0, 0]]
    }, 
    {
      "op": "BatchNorm", 
      "name": "resnetv22_stage4_batchnorm1_fwd", 
      "attrs": {
        "axis": "1", 
        "eps": "1e-05", 
        "fix_gamma": "False", 
        "momentum": "0.9", 
        "use_global_stats": "False"
      }, 
      "inputs": [[444, 0, 0], [167, 0, 0], [168, 0, 0], [169, 0, 2], [170, 0, 2]]
    }, 
    {
      "op": "Activation", 
      "name": "resnetv22_stage4_activation1", 
      "attrs": {"act_type": "relu"}, 
      "inputs": [[445, 0, 0]]
    }, 
    {
      "op": "amp_cast", 
      "name": "resnetv22_stage4_conv1_amp_cast0", 
      "attrs": {"dtype": "float16"}, 
      "inputs": [[446, 0, 0]]
    }, 
    {
      "op": "amp_cast", 
      "name": "resnetv22_stage4_conv1_amp_cast1", 
      "attrs": {"dtype": "float16"}, 
      "inputs": [[174, 0, 0]]
    }, 
    {
      "op": "Convolution", 
      "name": "resnetv22_stage4_conv1_fwd", 
      "attrs": {
        "dilate": "(1, 1)", 
        "kernel": "(3, 3)", 
        "layout": "NCHW", 
        "no_bias": "True", 
        "num_filter": "512", 
        "num_group": "1", 
        "pad": "(1, 1)", 
        "stride": "(1, 1)"
      }, 
      "inputs": [[447, 0, 0], [448, 0, 0]]
    }, 
    {
      "op": "amp_cast", 
      "name": "resnetv22_stage4_conv2_amp_cast0", 
      "attrs": {"dtype": "float16"}, 
      "inputs": [[441, 0, 0]]
    }, 
    {
      "op": "amp_cast", 
      "name": "resnetv22_stage4_conv2_amp_cast1", 
      "attrs": {"dtype": "float16"}, 
      "inputs": [[178, 0, 0]]
    }, 
    {
      "op": "Convolution", 
      "name": "resnetv22_stage4_conv2_fwd", 
      "attrs": {
        "dilate": "(1, 1)", 
        "kernel": "(1, 1)", 
        "layout": "NCHW", 
        "no_bias": "True", 
        "num_filter": "512", 
        "num_group": "1", 
        "pad": "(0, 0)", 
        "stride": "(2, 2)"
      }, 
      "inputs": [[450, 0, 0], [451, 0, 0]]
    }, 
    {
      "op": "amp_multicast", 
      "name": "resnetv22_stage4_amp_multicast0", 
      "attrs": {"num_outputs": "2"}, 
      "inputs": [[449, 0, 0], [452, 0, 0]]
    }, 
    {
      "op": "elemwise_add", 
      "name": "resnetv22_stage4__plus0", 
      "inputs": [[453, 0, 0], [453, 1, 0]]
    }, 
    {
      "op": "BatchNorm", 
      "name": "resnetv22_stage4_batchnorm2_fwd", 
      "attrs": {
        "axis": "1", 
        "eps": "1e-05", 
        "fix_gamma": "False", 
        "momentum": "0.9", 
        "use_global_stats": "False"
      }, 
      "inputs": [[454, 0, 0], [183, 0, 0], [184, 0, 0], [185, 0, 2], [186, 0, 2]]
    }, 
    {
      "op": "Activation", 
      "name": "resnetv22_stage4_activation2", 
      "attrs": {"act_type": "relu"}, 
      "inputs": [[455, 0, 0]]
    }, 
    {
      "op": "amp_cast", 
      "name": "resnetv22_stage4_conv3_amp_cast0", 
      "attrs": {"dtype": "float16"}, 
      "inputs": [[456, 0, 0]]
    }, 
    {
      "op": "amp_cast", 
      "name": "resnetv22_stage4_conv3_amp_cast1", 
      "attrs": {"dtype": "float16"}, 
      "inputs": [[190, 0, 0]]
    }, 
    {
      "op": "Convolution", 
      "name": "resnetv22_stage4_conv3_fwd", 
      "attrs": {
        "dilate": "(1, 1)", 
        "kernel": "(3, 3)", 
        "layout": "NCHW", 
        "no_bias": "True", 
        "num_filter": "512", 
        "num_group": "1", 
        "pad": "(1, 1)", 
        "stride": "(1, 1)"
      }, 
      "inputs": [[457, 0, 0], [458, 0, 0]]
    }, 
    {
      "op": "BatchNorm", 
      "name": "resnetv22_stage4_batchnorm3_fwd", 
      "attrs": {
        "axis": "1", 
        "eps": "1e-05", 
        "fix_gamma": "False", 
        "momentum": "0.9", 
        "use_global_stats": "False"
      }, 
      "inputs": [[459, 0, 0], [193, 0, 0], [194, 0, 0], [195, 0, 2], [196, 0, 2]]
    }, 
    {
      "op": "Activation", 
      "name": "resnetv22_stage4_activation3", 
      "attrs": {"act_type": "relu"}, 
      "inputs": [[460, 0, 0]]
    }, 
    {
      "op": "amp_cast", 
      "name": "resnetv22_stage4_conv4_amp_cast0", 
      "attrs": {"dtype": "float16"}, 
      "inputs": [[461, 0, 0]]
    }, 
    {
      "op": "amp_cast", 
      "name": "resnetv22_stage4_conv4_amp_cast1", 
      "attrs": {"dtype": "float16"}, 
      "inputs": [[200, 0, 0]]
    }, 
    {
      "op": "Convolution", 
      "name": "resnetv22_stage4_conv4_fwd", 
      "attrs": {
        "dilate": "(1, 1)", 
        "kernel": "(3, 3)", 
        "layout": "NCHW", 
        "no_bias": "True", 
        "num_filter": "512", 
        "num_group": "1", 
        "pad": "(1, 1)", 
        "stride": "(1, 1)"
      }, 
      "inputs": [[462, 0, 0], [463, 0, 0]]
    }, 
    {
      "op": "amp_multicast", 
      "name": "resnetv22_stage4_amp_multicast1", 
      "attrs": {"num_outputs": "2"}, 
      "inputs": [[464, 0, 0], [454, 0, 0]]
    }, 
    {
      "op": "elemwise_add", 
      "name": "resnetv22_stage4__plus1", 
      "inputs": [[465, 0, 0], [465, 1, 0]]
    }, 
    {
      "op": "BatchNorm", 
      "name": "resnetv22_batchnorm2_fwd", 
      "attrs": {
        "axis": "1", 
        "eps": "1e-05", 
        "fix_gamma": "False", 
        "momentum": "0.9", 
        "use_global_stats": "False"
      }, 
      "inputs": [[466, 0, 0], [205, 0, 0], [206, 0, 0], [207, 0, 2], [208, 0, 2]]
    }, 
    {
      "op": "Activation", 
      "name": "resnetv22_relu1_fwd", 
      "attrs": {"act_type": "relu"}, 
      "inputs": [[467, 0, 0]]
    }, 
    {
      "op": "amp_cast", 
      "name": "resnetv22_lateral5amp_cast0", 
      "attrs": {"dtype": "float16"}, 
      "inputs": [[468, 0, 0]]
    }, 
    {
      "op": "amp_cast", 
      "name": "resnetv22_lateral5amp_cast1", 
      "attrs": {"dtype": "float16"}, 
      "inputs": [[212, 0, 0]]
    }, 
    {
      "op": "Convolution", 
      "name": "resnetv22_lateral5fwd", 
      "attrs": {
        "dilate": "(1, 1)", 
        "kernel": "(1, 1)", 
        "layout": "NCHW", 
        "no_bias": "True", 
        "num_filter": "256", 
        "num_group": "1", 
        "pad": "(0, 0)", 
        "stride": "(1, 1)"
      }, 
      "inputs": [[469, 0, 0], [470, 0, 0]]
    }, 
    {
      "op": "UpSampling", 
      "name": "resnetv22_upsampling0", 
      "attrs": {
        "num_args": "1", 
        "sample_type": "nearest", 
        "scale": "2"
      }, 
      "inputs": [[471, 0, 0]]
    }, 
    {
      "op": "amp_cast", 
      "name": "resnetv22_lateral4amp_cast0", 
      "attrs": {"dtype": "float16"}, 
      "inputs": [[439, 0, 0]]
    }, 
    {
      "op": "amp_cast", 
      "name": "resnetv22_lateral4amp_cast1", 
      "attrs": {"dtype": "float16"}, 
      "inputs": [[217, 0, 0]]
    }, 
    {
      "op": "Convolution", 
      "name": "resnetv22_lateral4fwd", 
      "attrs": {
        "dilate": "(1, 1)", 
        "kernel": "(1, 1)", 
        "layout": "NCHW", 
        "no_bias": "True", 
        "num_filter": "256", 
        "num_group": "1", 
        "pad": "(0, 0)", 
        "stride": "(1, 1)"
      }, 
      "inputs": [[473, 0, 0], [474, 0, 0]]
    }, 
    {
      "op": "amp_multicast", 
      "name": "resnetv22_amp_multicast0", 
      "attrs": {"num_outputs": "2"}, 
      "inputs": [[472, 0, 0], [475, 0, 0]]
    }, 
    {
      "op": "elemwise_add", 
      "name": "resnetv22__plus0", 
      "inputs": [[476, 0, 0], [476, 1, 0]]
    }, 
    {
      "op": "UpSampling", 
      "name": "resnetv22_upsampling1", 
      "attrs": {
        "num_args": "1", 
        "sample_type": "nearest", 
        "scale": "2"
      }, 
      "inputs": [[477, 0, 0]]
    }, 
    {
      "op": "amp_cast", 
      "name": "resnetv22_lateral3amp_cast0", 
      "attrs": {"dtype": "float16"}, 
      "inputs": [[412, 0, 0]]
    }, 
    {
      "op": "amp_cast", 
      "name": "resnetv22_lateral3amp_cast1", 
      "attrs": {"dtype": "float16"}, 
      "inputs": [[224, 0, 0]]
    }, 
    {
      "op": "Convolution", 
      "name": "resnetv22_lateral3fwd", 
      "attrs": {
        "dilate": "(1, 1)", 
        "kernel": "(1, 1)", 
        "layout": "NCHW", 
        "no_bias": "True", 
        "num_filter": "256", 
        "num_group": "1", 
        "pad": "(0, 0)", 
        "stride": "(1, 1)"
      }, 
      "inputs": [[479, 0, 0], [480, 0, 0]]
    }, 
    {
      "op": "amp_multicast", 
      "name": "resnetv22_amp_multicast1", 
      "attrs": {"num_outputs": "2"}, 
      "inputs": [[478, 0, 0], [481, 0, 0]]
    }, 
    {
      "op": "elemwise_add", 
      "name": "resnetv22__plus1", 
      "inputs": [[482, 0, 0], [482, 1, 0]]
    }, 
    {
      "op": "amp_cast", 
      "name": "retinanet0_convpredictor1_conv0_amp_cast0", 
      "attrs": {"dtype": "float16"}, 
      "inputs": [[483, 0, 0]]
    }, 
    {
      "op": "null", 
      "name": "retinanet0_convpredictor1_conv0_weight", 
      "attrs": {
        "__dtype__": "0", 
        "__init__": "[\"normal\", {\"sigma\": 0.01}]", 
        "__lr_mult__": "1.0", 
        "__shape__": "(256, 0, 3, 3)", 
        "__storage_type__": "0", 
        "__wd_mult__": "1.0"
      }, 
      "inputs": []
    }, 
    {
      "op": "amp_cast", 
      "name": "retinanet0_convpredictor1_conv0_amp_cast1", 
      "attrs": {"dtype": "float16"}, 
      "inputs": [[485, 0, 0]]
    }, 
    {
      "op": "null", 
      "name": "retinanet0_convpredictor1_conv0_bias", 
      "attrs": {
        "__dtype__": "0", 
        "__init__": "zeros", 
        "__lr_mult__": "1.0", 
        "__shape__": "(256,)", 
        "__storage_type__": "0", 
        "__wd_mult__": "1.0"
      }, 
      "inputs": []
    }, 
    {
      "op": "amp_cast", 
      "name": "retinanet0_convpredictor1_conv0_amp_cast2", 
      "attrs": {"dtype": "float16"}, 
      "inputs": [[487, 0, 0]]
    }, 
    {
      "op": "Convolution", 
      "name": "retinanet0_convpredictor1_conv0_fwd", 
      "attrs": {
        "dilate": "(1, 1)", 
        "kernel": "(3, 3)", 
        "layout": "NCHW", 
        "no_bias": "False", 
        "num_filter": "256", 
        "num_group": "1", 
        "pad": "(1, 1)", 
        "stride": "(1, 1)"
      }, 
      "inputs": [[484, 0, 0], [486, 0, 0], [488, 0, 0]]
    }, 
    {
      "op": "Activation", 
      "name": "retinanet0_convpredictor1_conv0_relu_fwd", 
      "attrs": {"act_type": "relu"}, 
      "inputs": [[489, 0, 0]]
    }, 
    {
      "op": "amp_cast", 
      "name": "retinanet0_convpredictor3_conv0_amp_cast0", 
      "attrs": {"dtype": "float16"}, 
      "inputs": [[490, 0, 0]]
    }, 
    {
      "op": "null", 
      "name": "retinanet0_convpredictor3_conv0_weight", 
      "attrs": {
        "__dtype__": "0", 
        "__init__": "[\"normal\", {\"sigma\": 0.01}]", 
        "__lr_mult__": "1.0", 
        "__shape__": "(256, 0, 3, 3)", 
        "__storage_type__": "0", 
        "__wd_mult__": "1.0"
      }, 
      "inputs": []
    }, 
    {
      "op": "amp_cast", 
      "name": "retinanet0_convpredictor3_conv0_amp_cast1", 
      "attrs": {"dtype": "float16"}, 
      "inputs": [[492, 0, 0]]
    }, 
    {
      "op": "null", 
      "name": "retinanet0_convpredictor3_conv0_bias", 
      "attrs": {
        "__dtype__": "0", 
        "__init__": "zeros", 
        "__lr_mult__": "1.0", 
        "__shape__": "(256,)", 
        "__storage_type__": "0", 
        "__wd_mult__": "1.0"
      }, 
      "inputs": []
    }, 
    {
      "op": "amp_cast", 
      "name": "retinanet0_convpredictor3_conv0_amp_cast2", 
      "attrs": {"dtype": "float16"}, 
      "inputs": [[494, 0, 0]]
    }, 
    {
      "op": "Convolution", 
      "name": "retinanet0_convpredictor3_conv0_fwd", 
      "attrs": {
        "dilate": "(1, 1)", 
        "kernel": "(3, 3)", 
        "layout": "NCHW", 
        "no_bias": "False", 
        "num_filter": "256", 
        "num_group": "1", 
        "pad": "(1, 1)", 
        "stride": "(1, 1)"
      }, 
      "inputs": [[491, 0, 0], [493, 0, 0], [495, 0, 0]]
    }, 
    {
      "op": "Activation", 
      "name": "retinanet0_convpredictor3_conv0_relu_fwd", 
      "attrs": {"act_type": "relu"}, 
      "inputs": [[496, 0, 0]]
    }, 
    {
      "op": "amp_cast", 
      "name": "retinanet0_convpredictor5_conv0_amp_cast0", 
      "attrs": {"dtype": "float16"}, 
      "inputs": [[497, 0, 0]]
    }, 
    {
      "op": "null", 
      "name": "retinanet0_convpredictor5_conv0_weight", 
      "attrs": {
        "__dtype__": "0", 
        "__init__": "[\"normal\", {\"sigma\": 0.01}]", 
        "__lr_mult__": "1.0", 
        "__shape__": "(256, 0, 3, 3)", 
        "__storage_type__": "0", 
        "__wd_mult__": "1.0"
      }, 
      "inputs": []
    }, 
    {
      "op": "amp_cast", 
      "name": "retinanet0_convpredictor5_conv0_amp_cast1", 
      "attrs": {"dtype": "float16"}, 
      "inputs": [[499, 0, 0]]
    }, 
    {
      "op": "null", 
      "name": "retinanet0_convpredictor5_conv0_bias", 
      "attrs": {
        "__dtype__": "0", 
        "__init__": "zeros", 
        "__lr_mult__": "1.0", 
        "__shape__": "(256,)", 
        "__storage_type__": "0", 
        "__wd_mult__": "1.0"
      }, 
      "inputs": []
    }, 
    {
      "op": "amp_cast", 
      "name": "retinanet0_convpredictor5_conv0_amp_cast2", 
      "attrs": {"dtype": "float16"}, 
      "inputs": [[501, 0, 0]]
    }, 
    {
      "op": "Convolution", 
      "name": "retinanet0_convpredictor5_conv0_fwd", 
      "attrs": {
        "dilate": "(1, 1)", 
        "kernel": "(3, 3)", 
        "layout": "NCHW", 
        "no_bias": "False", 
        "num_filter": "256", 
        "num_group": "1", 
        "pad": "(1, 1)", 
        "stride": "(1, 1)"
      }, 
      "inputs": [[498, 0, 0], [500, 0, 0], [502, 0, 0]]
    }, 
    {
      "op": "Activation", 
      "name": "retinanet0_convpredictor5_conv0_relu_fwd", 
      "attrs": {"act_type": "relu"}, 
      "inputs": [[503, 0, 0]]
    }, 
    {
      "op": "amp_cast", 
      "name": "retinanet0_convpredictor7_conv0_amp_cast0", 
      "attrs": {"dtype": "float16"}, 
      "inputs": [[504, 0, 0]]
    }, 
    {
      "op": "null", 
      "name": "retinanet0_convpredictor7_conv0_weight", 
      "attrs": {
        "__dtype__": "0", 
        "__init__": "[\"normal\", {\"sigma\": 0.01}]", 
        "__lr_mult__": "1.0", 
        "__shape__": "(36, 0, 3, 3)", 
        "__storage_type__": "0", 
        "__wd_mult__": "1.0"
      }, 
      "inputs": []
    }, 
    {
      "op": "amp_cast", 
      "name": "retinanet0_convpredictor7_conv0_amp_cast1", 
      "attrs": {"dtype": "float16"}, 
      "inputs": [[506, 0, 0]]
    }, 
    {
      "op": "null", 
      "name": "retinanet0_convpredictor7_conv0_bias", 
      "attrs": {
        "__dtype__": "0", 
        "__init__": "zeros", 
        "__lr_mult__": "1.0", 
        "__shape__": "(36,)", 
        "__storage_type__": "0", 
        "__wd_mult__": "1.0"
      }, 
      "inputs": []
    }, 
    {
      "op": "amp_cast", 
      "name": "retinanet0_convpredictor7_conv0_amp_cast2", 
      "attrs": {"dtype": "float16"}, 
      "inputs": [[508, 0, 0]]
    }, 
    {
      "op": "Convolution", 
      "name": "retinanet0_convpredictor7_conv0_fwd", 
      "attrs": {
        "dilate": "(1, 1)", 
        "kernel": "(3, 3)", 
        "layout": "NCHW", 
        "no_bias": "False", 
        "num_filter": "36", 
        "num_group": "1", 
        "pad": "(1, 1)", 
        "stride": "(1, 1)"
      }, 
      "inputs": [[505, 0, 0], [507, 0, 0], [509, 0, 0]]
    }, 
    {
      "op": "transpose", 
      "name": "retinanet0_transpose5", 
      "attrs": {"axes": "(0, 2, 3, 1)"}, 
      "inputs": [[510, 0, 0]]
    }, 
    {
      "op": "Flatten", 
      "name": "retinanet0_flatten5", 
      "inputs": [[511, 0, 0]]
    }, 
    {
      "op": "amp_cast", 
      "name": "retinanet0_convpredictor1_conv0_amp_cast0", 
      "attrs": {"dtype": "float16"}, 
      "inputs": [[477, 0, 0]]
    }, 
    {
      "op": "amp_cast", 
      "name": "retinanet0_convpredictor1_conv0_amp_cast1", 
      "attrs": {"dtype": "float16"}, 
      "inputs": [[485, 0, 0]]
    }, 
    {
      "op": "amp_cast", 
      "name": "retinanet0_convpredictor1_conv0_amp_cast2", 
      "attrs": {"dtype": "float16"}, 
      "inputs": [[487, 0, 0]]
    }, 
    {
      "op": "Convolution", 
      "name": "retinanet0_convpredictor1_conv0_fwd", 
      "attrs": {
        "dilate": "(1, 1)", 
        "kernel": "(3, 3)", 
        "layout": "NCHW", 
        "no_bias": "False", 
        "num_filter": "256", 
        "num_group": "1", 
        "pad": "(1, 1)", 
        "stride": "(1, 1)"
      }, 
      "inputs": [[513, 0, 0], [514, 0, 0], [515, 0, 0]]
    }, 
    {
      "op": "Activation", 
      "name": "retinanet0_convpredictor1_conv0_relu_fwd", 
      "attrs": {"act_type": "relu"}, 
      "inputs": [[516, 0, 0]]
    }, 
    {
      "op": "amp_cast", 
      "name": "retinanet0_convpredictor3_conv0_amp_cast0", 
      "attrs": {"dtype": "float16"}, 
      "inputs": [[517, 0, 0]]
    }, 
    {
      "op": "amp_cast", 
      "name": "retinanet0_convpredictor3_conv0_amp_cast1", 
      "attrs": {"dtype": "float16"}, 
      "inputs": [[492, 0, 0]]
    }, 
    {
      "op": "amp_cast", 
      "name": "retinanet0_convpredictor3_conv0_amp_cast2", 
      "attrs": {"dtype": "float16"}, 
      "inputs": [[494, 0, 0]]
    }, 
    {
      "op": "Convolution", 
      "name": "retinanet0_convpredictor3_conv0_fwd", 
      "attrs": {
        "dilate": "(1, 1)", 
        "kernel": "(3, 3)", 
        "layout": "NCHW", 
        "no_bias": "False", 
        "num_filter": "256", 
        "num_group": "1", 
        "pad": "(1, 1)", 
        "stride": "(1, 1)"
      }, 
      "inputs": [[518, 0, 0], [519, 0, 0], [520, 0, 0]]
    }, 
    {
      "op": "Activation", 
      "name": "retinanet0_convpredictor3_conv0_relu_fwd", 
      "attrs": {"act_type": "relu"}, 
      "inputs": [[521, 0, 0]]
    }, 
    {
      "op": "amp_cast", 
      "name": "retinanet0_convpredictor5_conv0_amp_cast0", 
      "attrs": {"dtype": "float16"}, 
      "inputs": [[522, 0, 0]]
    }, 
    {
      "op": "amp_cast", 
      "name": "retinanet0_convpredictor5_conv0_amp_cast1", 
      "attrs": {"dtype": "float16"}, 
      "inputs": [[499, 0, 0]]
    }, 
    {
      "op": "amp_cast", 
      "name": "retinanet0_convpredictor5_conv0_amp_cast2", 
      "attrs": {"dtype": "float16"}, 
      "inputs": [[501, 0, 0]]
    }, 
    {
      "op": "Convolution", 
      "name": "retinanet0_convpredictor5_conv0_fwd", 
      "attrs": {
        "dilate": "(1, 1)", 
        "kernel": "(3, 3)", 
        "layout": "NCHW", 
        "no_bias": "False", 
        "num_filter": "256", 
        "num_group": "1", 
        "pad": "(1, 1)", 
        "stride": "(1, 1)"
      }, 
      "inputs": [[523, 0, 0], [524, 0, 0], [525, 0, 0]]
    }, 
    {
      "op": "Activation", 
      "name": "retinanet0_convpredictor5_conv0_relu_fwd", 
      "attrs": {"act_type": "relu"}, 
      "inputs": [[526, 0, 0]]
    }, 
    {
      "op": "amp_cast", 
      "name": "retinanet0_convpredictor7_conv0_amp_cast0", 
      "attrs": {"dtype": "float16"}, 
      "inputs": [[527, 0, 0]]
    }, 
    {
      "op": "amp_cast", 
      "name": "retinanet0_convpredictor7_conv0_amp_cast1", 
      "attrs": {"dtype": "float16"}, 
      "inputs": [[506, 0, 0]]
    }, 
    {
      "op": "amp_cast", 
      "name": "retinanet0_convpredictor7_conv0_amp_cast2", 
      "attrs": {"dtype": "float16"}, 
      "inputs": [[508, 0, 0]]
    }, 
    {
      "op": "Convolution", 
      "name": "retinanet0_convpredictor7_conv0_fwd", 
      "attrs": {
        "dilate": "(1, 1)", 
        "kernel": "(3, 3)", 
        "layout": "NCHW", 
        "no_bias": "False", 
        "num_filter": "36", 
        "num_group": "1", 
        "pad": "(1, 1)", 
        "stride": "(1, 1)"
      }, 
      "inputs": [[528, 0, 0], [529, 0, 0], [530, 0, 0]]
    }, 
    {
      "op": "transpose", 
      "name": "retinanet0_transpose6", 
      "attrs": {"axes": "(0, 2, 3, 1)"}, 
      "inputs": [[531, 0, 0]]
    }, 
    {
      "op": "Flatten", 
      "name": "retinanet0_flatten6", 
      "inputs": [[532, 0, 0]]
    }, 
    {
      "op": "amp_cast", 
      "name": "retinanet0_convpredictor1_conv0_amp_cast0", 
      "attrs": {"dtype": "float16"}, 
      "inputs": [[471, 0, 0]]
    }, 
    {
      "op": "amp_cast", 
      "name": "retinanet0_convpredictor1_conv0_amp_cast1", 
      "attrs": {"dtype": "float16"}, 
      "inputs": [[485, 0, 0]]
    }, 
    {
      "op": "amp_cast", 
      "name": "retinanet0_convpredictor1_conv0_amp_cast2", 
      "attrs": {"dtype": "float16"}, 
      "inputs": [[487, 0, 0]]
    }, 
    {
      "op": "Convolution", 
      "name": "retinanet0_convpredictor1_conv0_fwd", 
      "attrs": {
        "dilate": "(1, 1)", 
        "kernel": "(3, 3)", 
        "layout": "NCHW", 
        "no_bias": "False", 
        "num_filter": "256", 
        "num_group": "1", 
        "pad": "(1, 1)", 
        "stride": "(1, 1)"
      }, 
      "inputs": [[534, 0, 0], [535, 0, 0], [536, 0, 0]]
    }, 
    {
      "op": "Activation", 
      "name": "retinanet0_convpredictor1_conv0_relu_fwd", 
      "attrs": {"act_type": "relu"}, 
      "inputs": [[537, 0, 0]]
    }, 
    {
      "op": "amp_cast", 
      "name": "retinanet0_convpredictor3_conv0_amp_cast0", 
      "attrs": {"dtype": "float16"}, 
      "inputs": [[538, 0, 0]]
    }, 
    {
      "op": "amp_cast", 
      "name": "retinanet0_convpredictor3_conv0_amp_cast1", 
      "attrs": {"dtype": "float16"}, 
      "inputs": [[492, 0, 0]]
    }, 
    {
      "op": "amp_cast", 
      "name": "retinanet0_convpredictor3_conv0_amp_cast2", 
      "attrs": {"dtype": "float16"}, 
      "inputs": [[494, 0, 0]]
    }, 
    {
      "op": "Convolution", 
      "name": "retinanet0_convpredictor3_conv0_fwd", 
      "attrs": {
        "dilate": "(1, 1)", 
        "kernel": "(3, 3)", 
        "layout": "NCHW", 
        "no_bias": "False", 
        "num_filter": "256", 
        "num_group": "1", 
        "pad": "(1, 1)", 
        "stride": "(1, 1)"
      }, 
      "inputs": [[539, 0, 0], [540, 0, 0], [541, 0, 0]]
    }, 
    {
      "op": "Activation", 
      "name": "retinanet0_convpredictor3_conv0_relu_fwd", 
      "attrs": {"act_type": "relu"}, 
      "inputs": [[542, 0, 0]]
    }, 
    {
      "op": "amp_cast", 
      "name": "retinanet0_convpredictor5_conv0_amp_cast0", 
      "attrs": {"dtype": "float16"}, 
      "inputs": [[543, 0, 0]]
    }, 
    {
      "op": "amp_cast", 
      "name": "retinanet0_convpredictor5_conv0_amp_cast1", 
      "attrs": {"dtype": "float16"}, 
      "inputs": [[499, 0, 0]]
    }, 
    {
      "op": "amp_cast", 
      "name": "retinanet0_convpredictor5_conv0_amp_cast2", 
      "attrs": {"dtype": "float16"}, 
      "inputs": [[501, 0, 0]]
    }, 
    {
      "op": "Convolution", 
      "name": "retinanet0_convpredictor5_conv0_fwd", 
      "attrs": {
        "dilate": "(1, 1)", 
        "kernel": "(3, 3)", 
        "layout": "NCHW", 
        "no_bias": "False", 
        "num_filter": "256", 
        "num_group": "1", 
        "pad": "(1, 1)", 
        "stride": "(1, 1)"
      }, 
      "inputs": [[544, 0, 0], [545, 0, 0], [546, 0, 0]]
    }, 
    {
      "op": "Activation", 
      "name": "retinanet0_convpredictor5_conv0_relu_fwd", 
      "attrs": {"act_type": "relu"}, 
      "inputs": [[547, 0, 0]]
    }, 
    {
      "op": "amp_cast", 
      "name": "retinanet0_convpredictor7_conv0_amp_cast0", 
      "attrs": {"dtype": "float16"}, 
      "inputs": [[548, 0, 0]]
    }, 
    {
      "op": "amp_cast", 
      "name": "retinanet0_convpredictor7_conv0_amp_cast1", 
      "attrs": {"dtype": "float16"}, 
      "inputs": [[506, 0, 0]]
    }, 
    {
      "op": "amp_cast", 
      "name": "retinanet0_convpredictor7_conv0_amp_cast2", 
      "attrs": {"dtype": "float16"}, 
      "inputs": [[508, 0, 0]]
    }, 
    {
      "op": "Convolution", 
      "name": "retinanet0_convpredictor7_conv0_fwd", 
      "attrs": {
        "dilate": "(1, 1)", 
        "kernel": "(3, 3)", 
        "layout": "NCHW", 
        "no_bias": "False", 
        "num_filter": "36", 
        "num_group": "1", 
        "pad": "(1, 1)", 
        "stride": "(1, 1)"
      }, 
      "inputs": [[549, 0, 0], [550, 0, 0], [551, 0, 0]]
    }, 
    {
      "op": "transpose", 
      "name": "retinanet0_transpose7", 
      "attrs": {"axes": "(0, 2, 3, 1)"}, 
      "inputs": [[552, 0, 0]]
    }, 
    {
      "op": "Flatten", 
      "name": "retinanet0_flatten7", 
      "inputs": [[553, 0, 0]]
    }, 
    {
      "op": "amp_cast", 
      "name": "resnetv22_extraconv1amp_cast0", 
      "attrs": {"dtype": "float16"}, 
      "inputs": [[468, 0, 0]]
    }, 
    {
      "op": "amp_cast", 
      "name": "resnetv22_extraconv1amp_cast1", 
      "attrs": {"dtype": "float16"}, 
      "inputs": [[301, 0, 0]]
    }, 
    {
      "op": "Convolution", 
      "name": "resnetv22_extraconv1fwd", 
      "attrs": {
        "dilate": "(1, 1)", 
        "kernel": "(3, 3)", 
        "layout": "NCHW", 
        "no_bias": "True", 
        "num_filter": "256", 
        "num_group": "1", 
        "pad": "(1, 1)", 
        "stride": "(2, 2)"
      }, 
      "inputs": [[555, 0, 0], [556, 0, 0]]
    }, 
    {
      "op": "amp_cast", 
      "name": "retinanet0_convpredictor1_conv0_amp_cast0", 
      "attrs": {"dtype": "float16"}, 
      "inputs": [[557, 0, 0]]
    }, 
    {
      "op": "amp_cast", 
      "name": "retinanet0_convpredictor1_conv0_amp_cast1", 
      "attrs": {"dtype": "float16"}, 
      "inputs": [[485, 0, 0]]
    }, 
    {
      "op": "amp_cast", 
      "name": "retinanet0_convpredictor1_conv0_amp_cast2", 
      "attrs": {"dtype": "float16"}, 
      "inputs": [[487, 0, 0]]
    }, 
    {
      "op": "Convolution", 
      "name": "retinanet0_convpredictor1_conv0_fwd", 
      "attrs": {
        "dilate": "(1, 1)", 
        "kernel": "(3, 3)", 
        "layout": "NCHW", 
        "no_bias": "False", 
        "num_filter": "256", 
        "num_group": "1", 
        "pad": "(1, 1)", 
        "stride": "(1, 1)"
      }, 
      "inputs": [[558, 0, 0], [559, 0, 0], [560, 0, 0]]
    }, 
    {
      "op": "Activation", 
      "name": "retinanet0_convpredictor1_conv0_relu_fwd", 
      "attrs": {"act_type": "relu"}, 
      "inputs": [[561, 0, 0]]
    }, 
    {
      "op": "amp_cast", 
      "name": "retinanet0_convpredictor3_conv0_amp_cast0", 
      "attrs": {"dtype": "float16"}, 
      "inputs": [[562, 0, 0]]
    }, 
    {
      "op": "amp_cast", 
      "name": "retinanet0_convpredictor3_conv0_amp_cast1", 
      "attrs": {"dtype": "float16"}, 
      "inputs": [[492, 0, 0]]
    }, 
    {
      "op": "amp_cast", 
      "name": "retinanet0_convpredictor3_conv0_amp_cast2", 
      "attrs": {"dtype": "float16"}, 
      "inputs": [[494, 0, 0]]
    }, 
    {
      "op": "Convolution", 
      "name": "retinanet0_convpredictor3_conv0_fwd", 
      "attrs": {
        "dilate": "(1, 1)", 
        "kernel": "(3, 3)", 
        "layout": "NCHW", 
        "no_bias": "False", 
        "num_filter": "256", 
        "num_group": "1", 
        "pad": "(1, 1)", 
        "stride": "(1, 1)"
      }, 
      "inputs": [[563, 0, 0], [564, 0, 0], [565, 0, 0]]
    }, 
    {
      "op": "Activation", 
      "name": "retinanet0_convpredictor3_conv0_relu_fwd", 
      "attrs": {"act_type": "relu"}, 
      "inputs": [[566, 0, 0]]
    }, 
    {
      "op": "amp_cast", 
      "name": "retinanet0_convpredictor5_conv0_amp_cast0", 
      "attrs": {"dtype": "float16"}, 
      "inputs": [[567, 0, 0]]
    }, 
    {
      "op": "amp_cast", 
      "name": "retinanet0_convpredictor5_conv0_amp_cast1", 
      "attrs": {"dtype": "float16"}, 
      "inputs": [[499, 0, 0]]
    }, 
    {
      "op": "amp_cast", 
      "name": "retinanet0_convpredictor5_conv0_amp_cast2", 
      "attrs": {"dtype": "float16"}, 
      "inputs": [[501, 0, 0]]
    }, 
    {
      "op": "Convolution", 
      "name": "retinanet0_convpredictor5_conv0_fwd", 
      "attrs": {
        "dilate": "(1, 1)", 
        "kernel": "(3, 3)", 
        "layout": "NCHW", 
        "no_bias": "False", 
        "num_filter": "256", 
        "num_group": "1", 
        "pad": "(1, 1)", 
        "stride": "(1, 1)"
      }, 
      "inputs": [[568, 0, 0], [569, 0, 0], [570, 0, 0]]
    }, 
    {
      "op": "Activation", 
      "name": "retinanet0_convpredictor5_conv0_relu_fwd", 
      "attrs": {"act_type": "relu"}, 
      "inputs": [[571, 0, 0]]
    }, 
    {
      "op": "amp_cast", 
      "name": "retinanet0_convpredictor7_conv0_amp_cast0", 
      "attrs": {"dtype": "float16"}, 
      "inputs": [[572, 0, 0]]
    }, 
    {
      "op": "amp_cast", 
      "name": "retinanet0_convpredictor7_conv0_amp_cast1", 
      "attrs": {"dtype": "float16"}, 
      "inputs": [[506, 0, 0]]
    }, 
    {
      "op": "amp_cast", 
      "name": "retinanet0_convpredictor7_conv0_amp_cast2", 
      "attrs": {"dtype": "float16"}, 
      "inputs": [[508, 0, 0]]
    }, 
    {
      "op": "Convolution", 
      "name": "retinanet0_convpredictor7_conv0_fwd", 
      "attrs": {
        "dilate": "(1, 1)", 
        "kernel": "(3, 3)", 
        "layout": "NCHW", 
        "no_bias": "False", 
        "num_filter": "36", 
        "num_group": "1", 
        "pad": "(1, 1)", 
        "stride": "(1, 1)"
      }, 
      "inputs": [[573, 0, 0], [574, 0, 0], [575, 0, 0]]
    }, 
    {
      "op": "transpose", 
      "name": "retinanet0_transpose8", 
      "attrs": {"axes": "(0, 2, 3, 1)"}, 
      "inputs": [[576, 0, 0]]
    }, 
    {
      "op": "Flatten", 
      "name": "retinanet0_flatten8", 
      "inputs": [[577, 0, 0]]
    }, 
    {
      "op": "Activation", 
      "name": "resnetv22_relu2_fwd", 
      "attrs": {"act_type": "relu"}, 
      "inputs": [[557, 0, 0]]
    }, 
    {
      "op": "amp_cast", 
      "name": "resnetv22_extraconv2amp_cast0", 
      "attrs": {"dtype": "float16"}, 
      "inputs": [[579, 0, 0]]
    }, 
    {
      "op": "amp_cast", 
      "name": "resnetv22_extraconv2amp_cast1", 
      "attrs": {"dtype": "float16"}, 
      "inputs": [[327, 0, 0]]
    }, 
    {
      "op": "Convolution", 
      "name": "resnetv22_extraconv2fwd", 
      "attrs": {
        "dilate": "(1, 1)", 
        "kernel": "(3, 3)", 
        "layout": "NCHW", 
        "no_bias": "True", 
        "num_filter": "256", 
        "num_group": "1", 
        "pad": "(1, 1)", 
        "stride": "(2, 2)"
      }, 
      "inputs": [[580, 0, 0], [581, 0, 0]]
    }, 
    {
      "op": "Activation", 
      "name": "resnetv22_extraconv2relu_fwd", 
      "attrs": {"act_type": "relu"}, 
      "inputs": [[582, 0, 0]]
    }, 
    {
      "op": "amp_cast", 
      "name": "retinanet0_convpredictor1_conv0_amp_cast0", 
      "attrs": {"dtype": "float16"}, 
      "inputs": [[583, 0, 0]]
    }, 
    {
      "op": "amp_cast", 
      "name": "retinanet0_convpredictor1_conv0_amp_cast1", 
      "attrs": {"dtype": "float16"}, 
      "inputs": [[485, 0, 0]]
    }, 
    {
      "op": "amp_cast", 
      "name": "retinanet0_convpredictor1_conv0_amp_cast2", 
      "attrs": {"dtype": "float16"}, 
      "inputs": [[487, 0, 0]]
    }, 
    {
      "op": "Convolution", 
      "name": "retinanet0_convpredictor1_conv0_fwd", 
      "attrs": {
        "dilate": "(1, 1)", 
        "kernel": "(3, 3)", 
        "layout": "NCHW", 
        "no_bias": "False", 
        "num_filter": "256", 
        "num_group": "1", 
        "pad": "(1, 1)", 
        "stride": "(1, 1)"
      }, 
      "inputs": [[584, 0, 0], [585, 0, 0], [586, 0, 0]]
    }, 
    {
      "op": "Activation", 
      "name": "retinanet0_convpredictor1_conv0_relu_fwd", 
      "attrs": {"act_type": "relu"}, 
      "inputs": [[587, 0, 0]]
    }, 
    {
      "op": "amp_cast", 
      "name": "retinanet0_convpredictor3_conv0_amp_cast0", 
      "attrs": {"dtype": "float16"}, 
      "inputs": [[588, 0, 0]]
    }, 
    {
      "op": "amp_cast", 
      "name": "retinanet0_convpredictor3_conv0_amp_cast1", 
      "attrs": {"dtype": "float16"}, 
      "inputs": [[492, 0, 0]]
    }, 
    {
      "op": "amp_cast", 
      "name": "retinanet0_convpredictor3_conv0_amp_cast2", 
      "attrs": {"dtype": "float16"}, 
      "inputs": [[494, 0, 0]]
    }, 
    {
      "op": "Convolution", 
      "name": "retinanet0_convpredictor3_conv0_fwd", 
      "attrs": {
        "dilate": "(1, 1)", 
        "kernel": "(3, 3)", 
        "layout": "NCHW", 
        "no_bias": "False", 
        "num_filter": "256", 
        "num_group": "1", 
        "pad": "(1, 1)", 
        "stride": "(1, 1)"
      }, 
      "inputs": [[589, 0, 0], [590, 0, 0], [591, 0, 0]]
    }, 
    {
      "op": "Activation", 
      "name": "retinanet0_convpredictor3_conv0_relu_fwd", 
      "attrs": {"act_type": "relu"}, 
      "inputs": [[592, 0, 0]]
    }, 
    {
      "op": "amp_cast", 
      "name": "retinanet0_convpredictor5_conv0_amp_cast0", 
      "attrs": {"dtype": "float16"}, 
      "inputs": [[593, 0, 0]]
    }, 
    {
      "op": "amp_cast", 
      "name": "retinanet0_convpredictor5_conv0_amp_cast1", 
      "attrs": {"dtype": "float16"}, 
      "inputs": [[499, 0, 0]]
    }, 
    {
      "op": "amp_cast", 
      "name": "retinanet0_convpredictor5_conv0_amp_cast2", 
      "attrs": {"dtype": "float16"}, 
      "inputs": [[501, 0, 0]]
    }, 
    {
      "op": "Convolution", 
      "name": "retinanet0_convpredictor5_conv0_fwd", 
      "attrs": {
        "dilate": "(1, 1)", 
        "kernel": "(3, 3)", 
        "layout": "NCHW", 
        "no_bias": "False", 
        "num_filter": "256", 
        "num_group": "1", 
        "pad": "(1, 1)", 
        "stride": "(1, 1)"
      }, 
      "inputs": [[594, 0, 0], [595, 0, 0], [596, 0, 0]]
    }, 
    {
      "op": "Activation", 
      "name": "retinanet0_convpredictor5_conv0_relu_fwd", 
      "attrs": {"act_type": "relu"}, 
      "inputs": [[597, 0, 0]]
    }, 
    {
      "op": "amp_cast", 
      "name": "retinanet0_convpredictor7_conv0_amp_cast0", 
      "attrs": {"dtype": "float16"}, 
      "inputs": [[598, 0, 0]]
    }, 
    {
      "op": "amp_cast", 
      "name": "retinanet0_convpredictor7_conv0_amp_cast1", 
      "attrs": {"dtype": "float16"}, 
      "inputs": [[506, 0, 0]]
    }, 
    {
      "op": "amp_cast", 
      "name": "retinanet0_convpredictor7_conv0_amp_cast2", 
      "attrs": {"dtype": "float16"}, 
      "inputs": [[508, 0, 0]]
    }, 
    {
      "op": "Convolution", 
      "name": "retinanet0_convpredictor7_conv0_fwd", 
      "attrs": {
        "dilate": "(1, 1)", 
        "kernel": "(3, 3)", 
        "layout": "NCHW", 
        "no_bias": "False", 
        "num_filter": "36", 
        "num_group": "1", 
        "pad": "(1, 1)", 
        "stride": "(1, 1)"
      }, 
      "inputs": [[599, 0, 0], [600, 0, 0], [601, 0, 0]]
    }, 
    {
      "op": "transpose", 
      "name": "retinanet0_transpose9", 
      "attrs": {"axes": "(0, 2, 3, 1)"}, 
      "inputs": [[602, 0, 0]]
    }, 
    {
      "op": "Flatten", 
      "name": "retinanet0_flatten9", 
      "inputs": [[603, 0, 0]]
    }, 
    {
      "op": "amp_multicast", 
      "name": "retinanet0_amp_multicast1", 
      "attrs": {"num_outputs": "5"}, 
      "inputs": [[512, 0, 0], [533, 0, 0], [554, 0, 0], [578, 0, 0], [604, 0, 0]]
    }, 
    {
      "op": "Concat", 
      "name": "retinanet0_concat1", 
      "attrs": {
        "dim": "-1", 
        "num_args": "5"
      }, 
      "inputs": [[605, 0, 0], [605, 1, 0], [605, 2, 0], [605, 3, 0], [605, 4, 0]]
    }, 
    {
      "op": "Reshape", 
      "name": "retinanet0_reshape1", 
      "attrs": {"shape": "(0, -1, 4)"}, 
      "inputs": [[606, 0, 0]]
    }, 
    {
      "op": "null", 
      "name": "retinanet0_retinaanchorgenerator0_anchor_0", 
      "attrs": {
        "__dtype__": "0", 
        "__init__": "Constant_retinanet0_retinaanchorgenerator0_anchor_0_140237046223824", 
        "__lr_mult__": "1.0", 
        "__shape__": "(18432, 4)", 
        "__storage_type__": "0", 
        "__wd_mult__": "1.0"
      }, 
      "inputs": []
    }, 
    {
      "op": "null", 
      "name": "retinanet0_retinaanchorgenerator1_anchor_1", 
      "attrs": {
        "__dtype__": "0", 
        "__init__": "Constant_retinanet0_retinaanchorgenerator1_anchor_1_140237046055888", 
        "__lr_mult__": "1.0", 
        "__shape__": "(4608, 4)", 
        "__storage_type__": "0", 
        "__wd_mult__": "1.0"
      }, 
      "inputs": []
    }, 
    {
      "op": "null", 
      "name": "retinanet0_retinaanchorgenerator2_anchor_2", 
      "attrs": {
        "__dtype__": "0", 
        "__init__": "Constant_retinanet0_retinaanchorgenerator2_anchor_2_140237046059792", 
        "__lr_mult__": "1.0", 
        "__shape__": "(1152, 4)", 
        "__storage_type__": "0", 
        "__wd_mult__": "1.0"
      }, 
      "inputs": []
    }, 
    {
      "op": "null", 
      "name": "retinanet0_retinaanchorgenerator3_anchor_3", 
      "attrs": {
        "__dtype__": "0", 
        "__init__": "Constant_retinanet0_retinaanchorgenerator3_anchor_3_140237046060304", 
        "__lr_mult__": "1.0", 
        "__shape__": "(288, 4)", 
        "__storage_type__": "0", 
        "__wd_mult__": "1.0"
      }, 
      "inputs": []
    }, 
    {
      "op": "null", 
      "name": "retinanet0_retinaanchorgenerator4_anchor_4", 
      "attrs": {
        "__dtype__": "0", 
        "__init__": "Constant_retinanet0_retinaanchorgenerator4_anchor_4_140237046060688", 
        "__lr_mult__": "1.0", 
        "__shape__": "(72, 4)", 
        "__storage_type__": "0", 
        "__wd_mult__": "1.0"
      }, 
      "inputs": []
    }, 
    {
      "op": "amp_multicast", 
      "name": "retinanet0_amp_multicast2", 
      "attrs": {"num_outputs": "5"}, 
      "inputs": [[608, 0, 0], [609, 0, 0], [610, 0, 0], [611, 0, 0], [612, 0, 0]]
    }, 
    {
      "op": "Concat", 
      "name": "retinanet0_concat2", 
      "attrs": {
        "dim": "0", 
        "num_args": "5"
      }, 
      "inputs": [[613, 0, 0], [613, 1, 0], [613, 2, 0], [613, 3, 0], [613, 4, 0]]
    }, 
    {
      "op": "Reshape", 
      "name": "retinanet0_reshape2", 
      "attrs": {"shape": "(1, -1, 4)"}, 
      "inputs": [[614, 0, 0]]
    }
  ], 
  "arg_nodes": [
    0, 
    1, 
    2, 
    3, 
    4, 
    7, 
    10, 
    11, 
    12, 
    13, 
    17, 
    18, 
    19, 
    20, 
    24, 
    27, 
    28, 
    29, 
    30, 
    34, 
    39, 
    40, 
    41, 
    42, 
    46, 
    49, 
    50, 
    51, 
    52, 
    56, 
    61, 
    62, 
    63, 
    64, 
    68, 
    71, 
    72, 
    73, 
    74, 
    78, 
    82, 
    87, 
    88, 
    89, 
    90, 
    94, 
    97, 
    98, 
    99, 
    100, 
    104, 
    109, 
    110, 
    111, 
    112, 
    116, 
    119, 
    120, 
    121, 
    122, 
    126, 
    130, 
    135, 
    136, 
    137, 
    138, 
    142, 
    145, 
    146, 
    147, 
    148, 
    152, 
    157, 
    158, 
    159, 
    160, 
    164, 
    167, 
    168, 
    169, 
    170, 
    174, 
    178, 
    183, 
    184, 
    185, 
    186, 
    190, 
    193, 
    194, 
    195, 
    196, 
    200, 
    205, 
    206, 
    207, 
    208, 
    212, 
    217, 
    224, 
    230, 
    232, 
    237, 
    239, 
    244, 
    246, 
    251, 
    253, 
    301, 
    327, 
    485, 
    487, 
    492, 
    494, 
    499, 
    501, 
    506, 
    508, 
    608, 
    609, 
    610, 
    611, 
    612
  ], 
  "node_row_ptr": [
    0, 
    1, 
    2, 
    3, 
    4, 
    5, 
    8, 
    9, 
    10, 
    11, 
    12, 
    13, 
    14, 
    15, 
    16, 
    19, 
    20, 
    21, 
    22, 
    23, 
    24, 
    25, 
    28, 
    29, 
    30, 
    31, 
    32, 
    33, 
    34, 
    35, 
    36, 
    37, 
    40, 
    41, 
    42, 
    43, 
    44, 
    45, 
    47, 
    48, 
    49, 
    50, 
    51, 
    52, 
    55, 
    56, 
    57, 
    58, 
    59, 
    60, 
    61, 
    62, 
    63, 
    64, 
    67, 
    68, 
    69, 
    70, 
    71, 
    72, 
    74, 
    75, 
    76, 
    77, 
    78, 
    79, 
    82, 
    83, 
    84, 
    85, 
    86, 
    87, 
    88, 
    89, 
    90, 
    91, 
    94, 
    95, 
    96, 
    97, 
    98, 
    99, 
    100, 
    101, 
    102, 
    103, 
    105, 
    106, 
    107, 
    108, 
    109, 
    110, 
    113, 
    114, 
    115, 
    116, 
    117, 
    118, 
    119, 
    120, 
    121, 
    122, 
    125, 
    126, 
    127, 
    128, 
    129, 
    130, 
    132, 
    133, 
    134, 
    135, 
    136, 
    137, 
    140, 
    141, 
    142, 
    143, 
    144, 
    145, 
    146, 
    147, 
    148, 
    149, 
    152, 
    153, 
    154, 
    155, 
    156, 
    157, 
    158, 
    159, 
    160, 
    161, 
    163, 
    164, 
    165, 
    166, 
    167, 
    168, 
    171, 
    172, 
    173, 
    174, 
    175, 
    176, 
    177, 
    178, 
    179, 
    180, 
    183, 
    184, 
    185, 
    186, 
    187, 
    188, 
    190, 
    191, 
    192, 
    193, 
    194, 
    195, 
    198, 
    199, 
    200, 
    201, 
    202, 
    203, 
    204, 
    205, 
    206, 
    207, 
    210, 
    211, 
    212, 
    213, 
    214, 
    215, 
    216, 
    217, 
    218, 
    219, 
    221, 
    222, 
    223, 
    224, 
    225, 
    226, 
    229, 
    230, 
    231, 
    232, 
    233, 
    234, 
    235, 
    236, 
    237, 
    238, 
    241, 
    242, 
    243, 
    244, 
    245, 
    246, 
    248, 
    249, 
    250, 
    251, 
    252, 
    253, 
    256, 
    257, 
    258, 
    259, 
    260, 
    261, 
    262, 
    263, 
    264, 
    265, 
    266, 
    268, 
    269, 
    270, 
    271, 
    272, 
    273, 
    274, 
    276, 
    277, 
    278, 
    279, 
    280, 
    281, 
    282, 
    283, 
    284, 
    285, 
    286, 
    287, 
    288, 
    289, 
    290, 
    291, 
    292, 
    293, 
    294, 
    295, 
    296, 
    297, 
    298, 
    299, 
    300, 
    301, 
    302, 
    303, 
    304, 
    305, 
    306, 
    307, 
    308, 
    309, 
    310, 
    311, 
    312, 
    313, 
    314, 
    315, 
    316, 
    317, 
    318, 
    319, 
    320, 
    321, 
    322, 
    323, 
    324, 
    325, 
    326, 
    327, 
    328, 
    329, 
    330, 
    331, 
    332, 
    333, 
    334, 
    335, 
    336, 
    337, 
    338, 
    339, 
    340, 
    341, 
    342, 
    343, 
    344, 
    345, 
    346, 
    347, 
    348, 
    349, 
    350, 
    351, 
    352, 
    353, 
    354, 
    355, 
    356, 
    357, 
    358, 
    359, 
    360, 
    361, 
    362, 
    363, 
    364, 
    365, 
    366, 
    367, 
    368, 
    369, 
    370, 
    371, 
    372, 
    373, 
    374, 
    375, 
    376, 
    377, 
    378, 
    379, 
    380, 
    381, 
    382, 
    383, 
    384, 
    385, 
    386, 
    387, 
    388, 
    389, 
    390, 
    391, 
    392, 
    393, 
    394, 
    395, 
    396, 
    397, 
    398, 
    399, 
    400, 
    405, 
    406, 
    407, 
    410, 
    411, 
    412, 
    413, 
    416, 
    417, 
    418, 
    421, 
    422, 
    423, 
    424, 
    425, 
    428, 
    429, 
    430, 
    431, 
    432, 
    434, 
    435, 
    438, 
    439, 
    440, 
    441, 
    442, 
    445, 
    446, 
    447, 
    448, 
    449, 
    451, 
    452, 
    455, 
    456, 
    457, 
    458, 
    459, 
    462, 
    463, 
    464, 
    465, 
    466, 
    467, 
    468, 
    469, 
    471, 
    472, 
    475, 
    476, 
    477, 
    478, 
    479, 
    482, 
    483, 
    484, 
    485, 
    486, 
    488, 
    489, 
    492, 
    493, 
    494, 
    495, 
    496, 
    499, 
    500, 
    501, 
    502, 
    503, 
    504, 
    505, 
    506, 
    508, 
    509, 
    512, 
    513, 
    514, 
    515, 
    516, 
    519, 
    520, 
    521, 
    522, 
    523, 
    525, 
    526, 
    529, 
    530, 
    531, 
    532, 
    533, 
    536, 
    537, 
    538, 
    539, 
    540, 
    541, 
    542, 
    543, 
    545, 
    546, 
    549, 
    550, 
    551, 
    552, 
    553, 
    556, 
    557, 
    558, 
    559, 
    560, 
    562, 
    563, 
    566, 
    567, 
    568, 
    569, 
    570, 
    571, 
    572, 
    573, 
    574, 
    576, 
    577, 
    578, 
    579, 
    580, 
    581, 
    583, 
    584, 
    585, 
    586, 
    587, 
    588, 
    589, 
    590, 
    591, 
    592, 
    593, 
    594, 
    595, 
    596, 
    597, 
    598, 
    599, 
    600, 
    601, 
    602, 
    603, 
    604, 
    605, 
    606, 
    607, 
    608, 
    609, 
    610, 
    611, 
    612, 
    613, 
    614, 
    615, 
    616, 
    617, 
    618, 
    619, 
    620, 
    621, 
    622, 
    623, 
    624, 
    625, 
    626, 
    627, 
    628, 
    629, 
    630, 
    631, 
    632, 
    633, 
    634, 
    635, 
    636, 
    637, 
    638, 
    639, 
    640, 
    641, 
    642, 
    643, 
    644, 
    645, 
    646, 
    647, 
    648, 
    649, 
    650, 
    651, 
    652, 
    653, 
    654, 
    655, 
    656, 
    657, 
    658, 
    659, 
    660, 
    661, 
    662, 
    663, 
    664, 
    665, 
    666, 
    667, 
    668, 
    669, 
    670, 
    671, 
    672, 
    673, 
    674, 
    675, 
    676, 
    677, 
    678, 
    679, 
    680, 
    681, 
    682, 
    683, 
    684, 
    685, 
    686, 
    687, 
    688, 
    689, 
    690, 
    691, 
    692, 
    693, 
    694, 
    695, 
    696, 
    697, 
    698, 
    699, 
    700, 
    701, 
    702, 
    703, 
    704, 
    705, 
    710, 
    711, 
    712, 
    713, 
    714, 
    715, 
    716, 
    717, 
    722, 
    723, 
    724
  ], 
  "heads": [[354, 0, 0], [607, 0, 0], [615, 0, 0]], 
  "attrs": {"mxnet_version": ["int", 10501]}
}