{
  "nodes": [
    {
      "op": "null", 
      "name": "data", 
      "inputs": []
    }, 
    {
      "op": "null", 
      "name": "resnetv22_batchnorm0_gamma", 
      "attrs": {
        "__dtype__": "0", 
        "__init__": "ones", 
        "__lr_mult__": "1.0", 
        "__shape__": "(3,)", 
        "__storage_type__": "0", 
        "__wd_mult__": "1.0"
      }, 
      "inputs": []
    }, 
    {
      "op": "null", 
      "name": "resnetv22_batchnorm0_beta", 
      "attrs": {
        "__dtype__": "0", 
        "__init__": "zeros", 
        "__lr_mult__": "1.0", 
        "__shape__": "(3,)", 
        "__storage_type__": "0", 
        "__wd_mult__": "1.0"
      }, 
      "inputs": []
    }, 
    {
      "op": "null", 
      "name": "resnetv22_batchnorm0_running_mean", 
      "attrs": {
        "__dtype__": "0", 
        "__init__": "zeros", 
        "__lr_mult__": "1.0", 
        "__shape__": "(3,)", 
        "__storage_type__": "0", 
        "__wd_mult__": "1.0"
      }, 
      "inputs": []
    }, 
    {
      "op": "null", 
      "name": "resnetv22_batchnorm0_running_var", 
      "attrs": {
        "__dtype__": "0", 
        "__init__": "ones", 
        "__lr_mult__": "1.0", 
        "__shape__": "(3,)", 
        "__storage_type__": "0", 
        "__wd_mult__": "1.0"
      }, 
      "inputs": []
    }, 
    {
      "op": "BatchNorm", 
      "name": "resnetv22_batchnorm0_fwd", 
      "attrs": {
        "axis": "1", 
        "eps": "1e-05", 
        "fix_gamma": "True", 
        "momentum": "0.9", 
        "use_global_stats": "False"
      }, 
      "inputs": [[0, 0, 0], [1, 0, 0], [2, 0, 0], [3, 0, 1], [4, 0, 1]]
    }, 
    {
      "op": "null", 
      "name": "resnetv22_conv0_weight", 
      "attrs": {
        "__dtype__": "0", 
        "__lr_mult__": "1.0", 
        "__shape__": "(64, 3, 7, 7)", 
        "__storage_type__": "0", 
        "__wd_mult__": "1.0"
      }, 
      "inputs": []
    }, 
    {
      "op": "Convolution", 
      "name": "resnetv22_conv0_fwd", 
      "attrs": {
        "dilate": "(1, 1)", 
        "kernel": "(7, 7)", 
        "layout": "NCHW", 
        "no_bias": "True", 
        "num_filter": "64", 
        "num_group": "1", 
        "pad": "(3, 3)", 
        "stride": "(2, 2)"
      }, 
      "inputs": [[5, 0, 0], [6, 0, 0]]
    }, 
    {
      "op": "null", 
      "name": "resnetv22_batchnorm1_gamma", 
      "attrs": {
        "__dtype__": "0", 
        "__init__": "ones", 
        "__lr_mult__": "1.0", 
        "__shape__": "(64,)", 
        "__storage_type__": "0", 
        "__wd_mult__": "1.0"
      }, 
      "inputs": []
    }, 
    {
      "op": "null", 
      "name": "resnetv22_batchnorm1_beta", 
      "attrs": {
        "__dtype__": "0", 
        "__init__": "zeros", 
        "__lr_mult__": "1.0", 
        "__shape__": "(64,)", 
        "__storage_type__": "0", 
        "__wd_mult__": "1.0"
      }, 
      "inputs": []
    }, 
    {
      "op": "null", 
      "name": "resnetv22_batchnorm1_running_mean", 
      "attrs": {
        "__dtype__": "0", 
        "__init__": "zeros", 
        "__lr_mult__": "1.0", 
        "__shape__": "(64,)", 
        "__storage_type__": "0", 
        "__wd_mult__": "1.0"
      }, 
      "inputs": []
    }, 
    {
      "op": "null", 
      "name": "resnetv22_batchnorm1_running_var", 
      "attrs": {
        "__dtype__": "0", 
        "__init__": "ones", 
        "__lr_mult__": "1.0", 
        "__shape__": "(64,)", 
        "__storage_type__": "0", 
        "__wd_mult__": "1.0"
      }, 
      "inputs": []
    }, 
    {
      "op": "BatchNorm", 
      "name": "resnetv22_batchnorm1_fwd", 
      "attrs": {
        "axis": "1", 
        "eps": "1e-05", 
        "fix_gamma": "False", 
        "momentum": "0.9", 
        "use_global_stats": "False"
      }, 
      "inputs": [[7, 0, 0], [8, 0, 0], [9, 0, 0], [10, 0, 1], [11, 0, 1]]
    }, 
    {
      "op": "Activation", 
      "name": "resnetv22_relu0_fwd", 
      "attrs": {"act_type": "relu"}, 
      "inputs": [[12, 0, 0]]
    }, 
    {
      "op": "Pooling", 
      "name": "resnetv22_pool0_fwd", 
      "attrs": {
        "global_pool": "False", 
        "kernel": "(3, 3)", 
        "layout": "NCHW", 
        "pad": "(1, 1)", 
        "pool_type": "max", 
        "pooling_convention": "valid", 
        "stride": "(2, 2)"
      }, 
      "inputs": [[13, 0, 0]]
    }, 
    {
      "op": "null", 
      "name": "resnetv22_stage1_batchnorm0_gamma", 
      "attrs": {
        "__dtype__": "0", 
        "__init__": "ones", 
        "__lr_mult__": "1.0", 
        "__shape__": "(64,)", 
        "__storage_type__": "0", 
        "__wd_mult__": "1.0"
      }, 
      "inputs": []
    }, 
    {
      "op": "null", 
      "name": "resnetv22_stage1_batchnorm0_beta", 
      "attrs": {
        "__dtype__": "0", 
        "__init__": "zeros", 
        "__lr_mult__": "1.0", 
        "__shape__": "(64,)", 
        "__storage_type__": "0", 
        "__wd_mult__": "1.0"
      }, 
      "inputs": []
    }, 
    {
      "op": "null", 
      "name": "resnetv22_stage1_batchnorm0_running_mean", 
      "attrs": {
        "__dtype__": "0", 
        "__init__": "zeros", 
        "__lr_mult__": "1.0", 
        "__shape__": "(64,)", 
        "__storage_type__": "0", 
        "__wd_mult__": "1.0"
      }, 
      "inputs": []
    }, 
    {
      "op": "null", 
      "name": "resnetv22_stage1_batchnorm0_running_var", 
      "attrs": {
        "__dtype__": "0", 
        "__init__": "ones", 
        "__lr_mult__": "1.0", 
        "__shape__": "(64,)", 
        "__storage_type__": "0", 
        "__wd_mult__": "1.0"
      }, 
      "inputs": []
    }, 
    {
      "op": "BatchNorm", 
      "name": "resnetv22_stage1_batchnorm0_fwd", 
      "attrs": {
        "axis": "1", 
        "eps": "1e-05", 
        "fix_gamma": "False", 
        "momentum": "0.9", 
        "use_global_stats": "False"
      }, 
      "inputs": [[14, 0, 0], [15, 0, 0], [16, 0, 0], [17, 0, 1], [18, 0, 1]]
    }, 
    {
      "op": "Activation", 
      "name": "resnetv22_stage1_activation0", 
      "attrs": {"act_type": "relu"}, 
      "inputs": [[19, 0, 0]]
    }, 
    {
      "op": "null", 
      "name": "resnetv22_stage1_conv0_weight", 
      "attrs": {
        "__dtype__": "0", 
        "__lr_mult__": "1.0", 
        "__shape__": "(64, 64, 3, 3)", 
        "__storage_type__": "0", 
        "__wd_mult__": "1.0"
      }, 
      "inputs": []
    }, 
    {
      "op": "Convolution", 
      "name": "resnetv22_stage1_conv0_fwd", 
      "attrs": {
        "dilate": "(1, 1)", 
        "kernel": "(3, 3)", 
        "layout": "NCHW", 
        "no_bias": "True", 
        "num_filter": "64", 
        "num_group": "1", 
        "pad": "(1, 1)", 
        "stride": "(1, 1)"
      }, 
      "inputs": [[20, 0, 0], [21, 0, 0]]
    }, 
    {
      "op": "null", 
      "name": "resnetv22_stage1_batchnorm1_gamma", 
      "attrs": {
        "__dtype__": "0", 
        "__init__": "ones", 
        "__lr_mult__": "1.0", 
        "__shape__": "(64,)", 
        "__storage_type__": "0", 
        "__wd_mult__": "1.0"
      }, 
      "inputs": []
    }, 
    {
      "op": "null", 
      "name": "resnetv22_stage1_batchnorm1_beta", 
      "attrs": {
        "__dtype__": "0", 
        "__init__": "zeros", 
        "__lr_mult__": "1.0", 
        "__shape__": "(64,)", 
        "__storage_type__": "0", 
        "__wd_mult__": "1.0"
      }, 
      "inputs": []
    }, 
    {
      "op": "null", 
      "name": "resnetv22_stage1_batchnorm1_running_mean", 
      "attrs": {
        "__dtype__": "0", 
        "__init__": "zeros", 
        "__lr_mult__": "1.0", 
        "__shape__": "(64,)", 
        "__storage_type__": "0", 
        "__wd_mult__": "1.0"
      }, 
      "inputs": []
    }, 
    {
      "op": "null", 
      "name": "resnetv22_stage1_batchnorm1_running_var", 
      "attrs": {
        "__dtype__": "0", 
        "__init__": "ones", 
        "__lr_mult__": "1.0", 
        "__shape__": "(64,)", 
        "__storage_type__": "0", 
        "__wd_mult__": "1.0"
      }, 
      "inputs": []
    }, 
    {
      "op": "BatchNorm", 
      "name": "resnetv22_stage1_batchnorm1_fwd", 
      "attrs": {
        "axis": "1", 
        "eps": "1e-05", 
        "fix_gamma": "False", 
        "momentum": "0.9", 
        "use_global_stats": "False"
      }, 
      "inputs": [[22, 0, 0], [23, 0, 0], [24, 0, 0], [25, 0, 1], [26, 0, 1]]
    }, 
    {
      "op": "Activation", 
      "name": "resnetv22_stage1_activation1", 
      "attrs": {"act_type": "relu"}, 
      "inputs": [[27, 0, 0]]
    }, 
    {
      "op": "null", 
      "name": "resnetv22_stage1_conv1_weight", 
      "attrs": {
        "__dtype__": "0", 
        "__lr_mult__": "1.0", 
        "__shape__": "(64, 64, 3, 3)", 
        "__storage_type__": "0", 
        "__wd_mult__": "1.0"
      }, 
      "inputs": []
    }, 
    {
      "op": "Convolution", 
      "name": "resnetv22_stage1_conv1_fwd", 
      "attrs": {
        "dilate": "(1, 1)", 
        "kernel": "(3, 3)", 
        "layout": "NCHW", 
        "no_bias": "True", 
        "num_filter": "64", 
        "num_group": "1", 
        "pad": "(1, 1)", 
        "stride": "(1, 1)"
      }, 
      "inputs": [[28, 0, 0], [29, 0, 0]]
    }, 
    {
      "op": "elemwise_add", 
      "name": "resnetv22_stage1__plus0", 
      "inputs": [[30, 0, 0], [14, 0, 0]]
    }, 
    {
      "op": "null", 
      "name": "resnetv22_stage1_batchnorm2_gamma", 
      "attrs": {
        "__dtype__": "0", 
        "__init__": "ones", 
        "__lr_mult__": "1.0", 
        "__shape__": "(64,)", 
        "__storage_type__": "0", 
        "__wd_mult__": "1.0"
      }, 
      "inputs": []
    }, 
    {
      "op": "null", 
      "name": "resnetv22_stage1_batchnorm2_beta", 
      "attrs": {
        "__dtype__": "0", 
        "__init__": "zeros", 
        "__lr_mult__": "1.0", 
        "__shape__": "(64,)", 
        "__storage_type__": "0", 
        "__wd_mult__": "1.0"
      }, 
      "inputs": []
    }, 
    {
      "op": "null", 
      "name": "resnetv22_stage1_batchnorm2_running_mean", 
      "attrs": {
        "__dtype__": "0", 
        "__init__": "zeros", 
        "__lr_mult__": "1.0", 
        "__shape__": "(64,)", 
        "__storage_type__": "0", 
        "__wd_mult__": "1.0"
      }, 
      "inputs": []
    }, 
    {
      "op": "null", 
      "name": "resnetv22_stage1_batchnorm2_running_var", 
      "attrs": {
        "__dtype__": "0", 
        "__init__": "ones", 
        "__lr_mult__": "1.0", 
        "__shape__": "(64,)", 
        "__storage_type__": "0", 
        "__wd_mult__": "1.0"
      }, 
      "inputs": []
    }, 
    {
      "op": "BatchNorm", 
      "name": "resnetv22_stage1_batchnorm2_fwd", 
      "attrs": {
        "axis": "1", 
        "eps": "1e-05", 
        "fix_gamma": "False", 
        "momentum": "0.9", 
        "use_global_stats": "False"
      }, 
      "inputs": [[31, 0, 0], [32, 0, 0], [33, 0, 0], [34, 0, 1], [35, 0, 1]]
    }, 
    {
      "op": "Activation", 
      "name": "resnetv22_stage1_activation2", 
      "attrs": {"act_type": "relu"}, 
      "inputs": [[36, 0, 0]]
    }, 
    {
      "op": "null", 
      "name": "resnetv22_stage1_conv2_weight", 
      "attrs": {
        "__dtype__": "0", 
        "__lr_mult__": "1.0", 
        "__shape__": "(64, 64, 3, 3)", 
        "__storage_type__": "0", 
        "__wd_mult__": "1.0"
      }, 
      "inputs": []
    }, 
    {
      "op": "Convolution", 
      "name": "resnetv22_stage1_conv2_fwd", 
      "attrs": {
        "dilate": "(1, 1)", 
        "kernel": "(3, 3)", 
        "layout": "NCHW", 
        "no_bias": "True", 
        "num_filter": "64", 
        "num_group": "1", 
        "pad": "(1, 1)", 
        "stride": "(1, 1)"
      }, 
      "inputs": [[37, 0, 0], [38, 0, 0]]
    }, 
    {
      "op": "null", 
      "name": "resnetv22_stage1_batchnorm3_gamma", 
      "attrs": {
        "__dtype__": "0", 
        "__init__": "ones", 
        "__lr_mult__": "1.0", 
        "__shape__": "(64,)", 
        "__storage_type__": "0", 
        "__wd_mult__": "1.0"
      }, 
      "inputs": []
    }, 
    {
      "op": "null", 
      "name": "resnetv22_stage1_batchnorm3_beta", 
      "attrs": {
        "__dtype__": "0", 
        "__init__": "zeros", 
        "__lr_mult__": "1.0", 
        "__shape__": "(64,)", 
        "__storage_type__": "0", 
        "__wd_mult__": "1.0"
      }, 
      "inputs": []
    }, 
    {
      "op": "null", 
      "name": "resnetv22_stage1_batchnorm3_running_mean", 
      "attrs": {
        "__dtype__": "0", 
        "__init__": "zeros", 
        "__lr_mult__": "1.0", 
        "__shape__": "(64,)", 
        "__storage_type__": "0", 
        "__wd_mult__": "1.0"
      }, 
      "inputs": []
    }, 
    {
      "op": "null", 
      "name": "resnetv22_stage1_batchnorm3_running_var", 
      "attrs": {
        "__dtype__": "0", 
        "__init__": "ones", 
        "__lr_mult__": "1.0", 
        "__shape__": "(64,)", 
        "__storage_type__": "0", 
        "__wd_mult__": "1.0"
      }, 
      "inputs": []
    }, 
    {
      "op": "BatchNorm", 
      "name": "resnetv22_stage1_batchnorm3_fwd", 
      "attrs": {
        "axis": "1", 
        "eps": "1e-05", 
        "fix_gamma": "False", 
        "momentum": "0.9", 
        "use_global_stats": "False"
      }, 
      "inputs": [[39, 0, 0], [40, 0, 0], [41, 0, 0], [42, 0, 1], [43, 0, 1]]
    }, 
    {
      "op": "Activation", 
      "name": "resnetv22_stage1_activation3", 
      "attrs": {"act_type": "relu"}, 
      "inputs": [[44, 0, 0]]
    }, 
    {
      "op": "null", 
      "name": "resnetv22_stage1_conv3_weight", 
      "attrs": {
        "__dtype__": "0", 
        "__lr_mult__": "1.0", 
        "__shape__": "(64, 64, 3, 3)", 
        "__storage_type__": "0", 
        "__wd_mult__": "1.0"
      }, 
      "inputs": []
    }, 
    {
      "op": "Convolution", 
      "name": "resnetv22_stage1_conv3_fwd", 
      "attrs": {
        "dilate": "(1, 1)", 
        "kernel": "(3, 3)", 
        "layout": "NCHW", 
        "no_bias": "True", 
        "num_filter": "64", 
        "num_group": "1", 
        "pad": "(1, 1)", 
        "stride": "(1, 1)"
      }, 
      "inputs": [[45, 0, 0], [46, 0, 0]]
    }, 
    {
      "op": "elemwise_add", 
      "name": "resnetv22_stage1__plus1", 
      "inputs": [[47, 0, 0], [31, 0, 0]]
    }, 
    {
      "op": "null", 
      "name": "resnetv22_stage2_batchnorm0_gamma", 
      "attrs": {
        "__dtype__": "0", 
        "__init__": "ones", 
        "__lr_mult__": "1.0", 
        "__shape__": "(64,)", 
        "__storage_type__": "0", 
        "__wd_mult__": "1.0"
      }, 
      "inputs": []
    }, 
    {
      "op": "null", 
      "name": "resnetv22_stage2_batchnorm0_beta", 
      "attrs": {
        "__dtype__": "0", 
        "__init__": "zeros", 
        "__lr_mult__": "1.0", 
        "__shape__": "(64,)", 
        "__storage_type__": "0", 
        "__wd_mult__": "1.0"
      }, 
      "inputs": []
    }, 
    {
      "op": "null", 
      "name": "resnetv22_stage2_batchnorm0_running_mean", 
      "attrs": {
        "__dtype__": "0", 
        "__init__": "zeros", 
        "__lr_mult__": "1.0", 
        "__shape__": "(64,)", 
        "__storage_type__": "0", 
        "__wd_mult__": "1.0"
      }, 
      "inputs": []
    }, 
    {
      "op": "null", 
      "name": "resnetv22_stage2_batchnorm0_running_var", 
      "attrs": {
        "__dtype__": "0", 
        "__init__": "ones", 
        "__lr_mult__": "1.0", 
        "__shape__": "(64,)", 
        "__storage_type__": "0", 
        "__wd_mult__": "1.0"
      }, 
      "inputs": []
    }, 
    {
      "op": "BatchNorm", 
      "name": "resnetv22_stage2_batchnorm0_fwd", 
      "attrs": {
        "axis": "1", 
        "eps": "1e-05", 
        "fix_gamma": "False", 
        "momentum": "0.9", 
        "use_global_stats": "False"
      }, 
      "inputs": [[48, 0, 0], [49, 0, 0], [50, 0, 0], [51, 0, 1], [52, 0, 1]]
    }, 
    {
      "op": "Activation", 
      "name": "resnetv22_stage2_activation0", 
      "attrs": {"act_type": "relu"}, 
      "inputs": [[53, 0, 0]]
    }, 
    {
      "op": "null", 
      "name": "resnetv22_stage2_conv0_weight", 
      "attrs": {
        "__dtype__": "0", 
        "__lr_mult__": "1.0", 
        "__shape__": "(128, 64, 3, 3)", 
        "__storage_type__": "0", 
        "__wd_mult__": "1.0"
      }, 
      "inputs": []
    }, 
    {
      "op": "Convolution", 
      "name": "resnetv22_stage2_conv0_fwd", 
      "attrs": {
        "dilate": "(1, 1)", 
        "kernel": "(3, 3)", 
        "layout": "NCHW", 
        "no_bias": "True", 
        "num_filter": "128", 
        "num_group": "1", 
        "pad": "(1, 1)", 
        "stride": "(2, 2)"
      }, 
      "inputs": [[54, 0, 0], [55, 0, 0]]
    }, 
    {
      "op": "null", 
      "name": "resnetv22_stage2_batchnorm1_gamma", 
      "attrs": {
        "__dtype__": "0", 
        "__init__": "ones", 
        "__lr_mult__": "1.0", 
        "__shape__": "(128,)", 
        "__storage_type__": "0", 
        "__wd_mult__": "1.0"
      }, 
      "inputs": []
    }, 
    {
      "op": "null", 
      "name": "resnetv22_stage2_batchnorm1_beta", 
      "attrs": {
        "__dtype__": "0", 
        "__init__": "zeros", 
        "__lr_mult__": "1.0", 
        "__shape__": "(128,)", 
        "__storage_type__": "0", 
        "__wd_mult__": "1.0"
      }, 
      "inputs": []
    }, 
    {
      "op": "null", 
      "name": "resnetv22_stage2_batchnorm1_running_mean", 
      "attrs": {
        "__dtype__": "0", 
        "__init__": "zeros", 
        "__lr_mult__": "1.0", 
        "__shape__": "(128,)", 
        "__storage_type__": "0", 
        "__wd_mult__": "1.0"
      }, 
      "inputs": []
    }, 
    {
      "op": "null", 
      "name": "resnetv22_stage2_batchnorm1_running_var", 
      "attrs": {
        "__dtype__": "0", 
        "__init__": "ones", 
        "__lr_mult__": "1.0", 
        "__shape__": "(128,)", 
        "__storage_type__": "0", 
        "__wd_mult__": "1.0"
      }, 
      "inputs": []
    }, 
    {
      "op": "BatchNorm", 
      "name": "resnetv22_stage2_batchnorm1_fwd", 
      "attrs": {
        "axis": "1", 
        "eps": "1e-05", 
        "fix_gamma": "False", 
        "momentum": "0.9", 
        "use_global_stats": "False"
      }, 
      "inputs": [[56, 0, 0], [57, 0, 0], [58, 0, 0], [59, 0, 1], [60, 0, 1]]
    }, 
    {
      "op": "Activation", 
      "name": "resnetv22_stage2_activation1", 
      "attrs": {"act_type": "relu"}, 
      "inputs": [[61, 0, 0]]
    }, 
    {
      "op": "null", 
      "name": "resnetv22_stage2_conv1_weight", 
      "attrs": {
        "__dtype__": "0", 
        "__lr_mult__": "1.0", 
        "__shape__": "(128, 128, 3, 3)", 
        "__storage_type__": "0", 
        "__wd_mult__": "1.0"
      }, 
      "inputs": []
    }, 
    {
      "op": "Convolution", 
      "name": "resnetv22_stage2_conv1_fwd", 
      "attrs": {
        "dilate": "(1, 1)", 
        "kernel": "(3, 3)", 
        "layout": "NCHW", 
        "no_bias": "True", 
        "num_filter": "128", 
        "num_group": "1", 
        "pad": "(1, 1)", 
        "stride": "(1, 1)"
      }, 
      "inputs": [[62, 0, 0], [63, 0, 0]]
    }, 
    {
      "op": "null", 
      "name": "resnetv22_stage2_conv2_weight", 
      "attrs": {
        "__dtype__": "0", 
        "__lr_mult__": "1.0", 
        "__shape__": "(128, 64, 1, 1)", 
        "__storage_type__": "0", 
        "__wd_mult__": "1.0"
      }, 
      "inputs": []
    }, 
    {
      "op": "Convolution", 
      "name": "resnetv22_stage2_conv2_fwd", 
      "attrs": {
        "dilate": "(1, 1)", 
        "kernel": "(1, 1)", 
        "layout": "NCHW", 
        "no_bias": "True", 
        "num_filter": "128", 
        "num_group": "1", 
        "pad": "(0, 0)", 
        "stride": "(2, 2)"
      }, 
      "inputs": [[54, 0, 0], [65, 0, 0]]
    }, 
    {
      "op": "elemwise_add", 
      "name": "resnetv22_stage2__plus0", 
      "inputs": [[64, 0, 0], [66, 0, 0]]
    }, 
    {
      "op": "null", 
      "name": "resnetv22_stage2_batchnorm2_gamma", 
      "attrs": {
        "__dtype__": "0", 
        "__init__": "ones", 
        "__lr_mult__": "1.0", 
        "__shape__": "(128,)", 
        "__storage_type__": "0", 
        "__wd_mult__": "1.0"
      }, 
      "inputs": []
    }, 
    {
      "op": "null", 
      "name": "resnetv22_stage2_batchnorm2_beta", 
      "attrs": {
        "__dtype__": "0", 
        "__init__": "zeros", 
        "__lr_mult__": "1.0", 
        "__shape__": "(128,)", 
        "__storage_type__": "0", 
        "__wd_mult__": "1.0"
      }, 
      "inputs": []
    }, 
    {
      "op": "null", 
      "name": "resnetv22_stage2_batchnorm2_running_mean", 
      "attrs": {
        "__dtype__": "0", 
        "__init__": "zeros", 
        "__lr_mult__": "1.0", 
        "__shape__": "(128,)", 
        "__storage_type__": "0", 
        "__wd_mult__": "1.0"
      }, 
      "inputs": []
    }, 
    {
      "op": "null", 
      "name": "resnetv22_stage2_batchnorm2_running_var", 
      "attrs": {
        "__dtype__": "0", 
        "__init__": "ones", 
        "__lr_mult__": "1.0", 
        "__shape__": "(128,)", 
        "__storage_type__": "0", 
        "__wd_mult__": "1.0"
      }, 
      "inputs": []
    }, 
    {
      "op": "BatchNorm", 
      "name": "resnetv22_stage2_batchnorm2_fwd", 
      "attrs": {
        "axis": "1", 
        "eps": "1e-05", 
        "fix_gamma": "False", 
        "momentum": "0.9", 
        "use_global_stats": "False"
      }, 
      "inputs": [[67, 0, 0], [68, 0, 0], [69, 0, 0], [70, 0, 1], [71, 0, 1]]
    }, 
    {
      "op": "Activation", 
      "name": "resnetv22_stage2_activation2", 
      "attrs": {"act_type": "relu"}, 
      "inputs": [[72, 0, 0]]
    }, 
    {
      "op": "null", 
      "name": "resnetv22_stage2_conv3_weight", 
      "attrs": {
        "__dtype__": "0", 
        "__lr_mult__": "1.0", 
        "__shape__": "(128, 128, 3, 3)", 
        "__storage_type__": "0", 
        "__wd_mult__": "1.0"
      }, 
      "inputs": []
    }, 
    {
      "op": "Convolution", 
      "name": "resnetv22_stage2_conv3_fwd", 
      "attrs": {
        "dilate": "(1, 1)", 
        "kernel": "(3, 3)", 
        "layout": "NCHW", 
        "no_bias": "True", 
        "num_filter": "128", 
        "num_group": "1", 
        "pad": "(1, 1)", 
        "stride": "(1, 1)"
      }, 
      "inputs": [[73, 0, 0], [74, 0, 0]]
    }, 
    {
      "op": "null", 
      "name": "resnetv22_stage2_batchnorm3_gamma", 
      "attrs": {
        "__dtype__": "0", 
        "__init__": "ones", 
        "__lr_mult__": "1.0", 
        "__shape__": "(128,)", 
        "__storage_type__": "0", 
        "__wd_mult__": "1.0"
      }, 
      "inputs": []
    }, 
    {
      "op": "null", 
      "name": "resnetv22_stage2_batchnorm3_beta", 
      "attrs": {
        "__dtype__": "0", 
        "__init__": "zeros", 
        "__lr_mult__": "1.0", 
        "__shape__": "(128,)", 
        "__storage_type__": "0", 
        "__wd_mult__": "1.0"
      }, 
      "inputs": []
    }, 
    {
      "op": "null", 
      "name": "resnetv22_stage2_batchnorm3_running_mean", 
      "attrs": {
        "__dtype__": "0", 
        "__init__": "zeros", 
        "__lr_mult__": "1.0", 
        "__shape__": "(128,)", 
        "__storage_type__": "0", 
        "__wd_mult__": "1.0"
      }, 
      "inputs": []
    }, 
    {
      "op": "null", 
      "name": "resnetv22_stage2_batchnorm3_running_var", 
      "attrs": {
        "__dtype__": "0", 
        "__init__": "ones", 
        "__lr_mult__": "1.0", 
        "__shape__": "(128,)", 
        "__storage_type__": "0", 
        "__wd_mult__": "1.0"
      }, 
      "inputs": []
    }, 
    {
      "op": "BatchNorm", 
      "name": "resnetv22_stage2_batchnorm3_fwd", 
      "attrs": {
        "axis": "1", 
        "eps": "1e-05", 
        "fix_gamma": "False", 
        "momentum": "0.9", 
        "use_global_stats": "False"
      }, 
      "inputs": [[75, 0, 0], [76, 0, 0], [77, 0, 0], [78, 0, 1], [79, 0, 1]]
    }, 
    {
      "op": "Activation", 
      "name": "resnetv22_stage2_activation3", 
      "attrs": {"act_type": "relu"}, 
      "inputs": [[80, 0, 0]]
    }, 
    {
      "op": "null", 
      "name": "resnetv22_stage2_conv4_weight", 
      "attrs": {
        "__dtype__": "0", 
        "__lr_mult__": "1.0", 
        "__shape__": "(128, 128, 3, 3)", 
        "__storage_type__": "0", 
        "__wd_mult__": "1.0"
      }, 
      "inputs": []
    }, 
    {
      "op": "Convolution", 
      "name": "resnetv22_stage2_conv4_fwd", 
      "attrs": {
        "dilate": "(1, 1)", 
        "kernel": "(3, 3)", 
        "layout": "NCHW", 
        "no_bias": "True", 
        "num_filter": "128", 
        "num_group": "1", 
        "pad": "(1, 1)", 
        "stride": "(1, 1)"
      }, 
      "inputs": [[81, 0, 0], [82, 0, 0]]
    }, 
    {
      "op": "elemwise_add", 
      "name": "resnetv22_stage2__plus1", 
      "inputs": [[83, 0, 0], [67, 0, 0]]
    }, 
    {
      "op": "null", 
      "name": "resnetv22_stage3_batchnorm0_gamma", 
      "attrs": {
        "__dtype__": "0", 
        "__init__": "ones", 
        "__lr_mult__": "1.0", 
        "__shape__": "(128,)", 
        "__storage_type__": "0", 
        "__wd_mult__": "1.0"
      }, 
      "inputs": []
    }, 
    {
      "op": "null", 
      "name": "resnetv22_stage3_batchnorm0_beta", 
      "attrs": {
        "__dtype__": "0", 
        "__init__": "zeros", 
        "__lr_mult__": "1.0", 
        "__shape__": "(128,)", 
        "__storage_type__": "0", 
        "__wd_mult__": "1.0"
      }, 
      "inputs": []
    }, 
    {
      "op": "null", 
      "name": "resnetv22_stage3_batchnorm0_running_mean", 
      "attrs": {
        "__dtype__": "0", 
        "__init__": "zeros", 
        "__lr_mult__": "1.0", 
        "__shape__": "(128,)", 
        "__storage_type__": "0", 
        "__wd_mult__": "1.0"
      }, 
      "inputs": []
    }, 
    {
      "op": "null", 
      "name": "resnetv22_stage3_batchnorm0_running_var", 
      "attrs": {
        "__dtype__": "0", 
        "__init__": "ones", 
        "__lr_mult__": "1.0", 
        "__shape__": "(128,)", 
        "__storage_type__": "0", 
        "__wd_mult__": "1.0"
      }, 
      "inputs": []
    }, 
    {
      "op": "BatchNorm", 
      "name": "resnetv22_stage3_batchnorm0_fwd", 
      "attrs": {
        "axis": "1", 
        "eps": "1e-05", 
        "fix_gamma": "False", 
        "momentum": "0.9", 
        "use_global_stats": "False"
      }, 
      "inputs": [[84, 0, 0], [85, 0, 0], [86, 0, 0], [87, 0, 1], [88, 0, 1]]
    }, 
    {
      "op": "Activation", 
      "name": "resnetv22_stage3_activation0", 
      "attrs": {"act_type": "relu"}, 
      "inputs": [[89, 0, 0]]
    }, 
    {
      "op": "null", 
      "name": "resnetv22_stage3_conv0_weight", 
      "attrs": {
        "__dtype__": "0", 
        "__lr_mult__": "1.0", 
        "__shape__": "(256, 128, 3, 3)", 
        "__storage_type__": "0", 
        "__wd_mult__": "1.0"
      }, 
      "inputs": []
    }, 
    {
      "op": "Convolution", 
      "name": "resnetv22_stage3_conv0_fwd", 
      "attrs": {
        "dilate": "(1, 1)", 
        "kernel": "(3, 3)", 
        "layout": "NCHW", 
        "no_bias": "True", 
        "num_filter": "256", 
        "num_group": "1", 
        "pad": "(1, 1)", 
        "stride": "(2, 2)"
      }, 
      "inputs": [[90, 0, 0], [91, 0, 0]]
    }, 
    {
      "op": "null", 
      "name": "resnetv22_stage3_batchnorm1_gamma", 
      "attrs": {
        "__dtype__": "0", 
        "__init__": "ones", 
        "__lr_mult__": "1.0", 
        "__shape__": "(256,)", 
        "__storage_type__": "0", 
        "__wd_mult__": "1.0"
      }, 
      "inputs": []
    }, 
    {
      "op": "null", 
      "name": "resnetv22_stage3_batchnorm1_beta", 
      "attrs": {
        "__dtype__": "0", 
        "__init__": "zeros", 
        "__lr_mult__": "1.0", 
        "__shape__": "(256,)", 
        "__storage_type__": "0", 
        "__wd_mult__": "1.0"
      }, 
      "inputs": []
    }, 
    {
      "op": "null", 
      "name": "resnetv22_stage3_batchnorm1_running_mean", 
      "attrs": {
        "__dtype__": "0", 
        "__init__": "zeros", 
        "__lr_mult__": "1.0", 
        "__shape__": "(256,)", 
        "__storage_type__": "0", 
        "__wd_mult__": "1.0"
      }, 
      "inputs": []
    }, 
    {
      "op": "null", 
      "name": "resnetv22_stage3_batchnorm1_running_var", 
      "attrs": {
        "__dtype__": "0", 
        "__init__": "ones", 
        "__lr_mult__": "1.0", 
        "__shape__": "(256,)", 
        "__storage_type__": "0", 
        "__wd_mult__": "1.0"
      }, 
      "inputs": []
    }, 
    {
      "op": "BatchNorm", 
      "name": "resnetv22_stage3_batchnorm1_fwd", 
      "attrs": {
        "axis": "1", 
        "eps": "1e-05", 
        "fix_gamma": "False", 
        "momentum": "0.9", 
        "use_global_stats": "False"
      }, 
      "inputs": [[92, 0, 0], [93, 0, 0], [94, 0, 0], [95, 0, 1], [96, 0, 1]]
    }, 
    {
      "op": "Activation", 
      "name": "resnetv22_stage3_activation1", 
      "attrs": {"act_type": "relu"}, 
      "inputs": [[97, 0, 0]]
    }, 
    {
      "op": "null", 
      "name": "resnetv22_stage3_conv1_weight", 
      "attrs": {
        "__dtype__": "0", 
        "__lr_mult__": "1.0", 
        "__shape__": "(256, 256, 3, 3)", 
        "__storage_type__": "0", 
        "__wd_mult__": "1.0"
      }, 
      "inputs": []
    }, 
    {
      "op": "Convolution", 
      "name": "resnetv22_stage3_conv1_fwd", 
      "attrs": {
        "dilate": "(1, 1)", 
        "kernel": "(3, 3)", 
        "layout": "NCHW", 
        "no_bias": "True", 
        "num_filter": "256", 
        "num_group": "1", 
        "pad": "(1, 1)", 
        "stride": "(1, 1)"
      }, 
      "inputs": [[98, 0, 0], [99, 0, 0]]
    }, 
    {
      "op": "null", 
      "name": "resnetv22_stage3_conv2_weight", 
      "attrs": {
        "__dtype__": "0", 
        "__lr_mult__": "1.0", 
        "__shape__": "(256, 128, 1, 1)", 
        "__storage_type__": "0", 
        "__wd_mult__": "1.0"
      }, 
      "inputs": []
    }, 
    {
      "op": "Convolution", 
      "name": "resnetv22_stage3_conv2_fwd", 
      "attrs": {
        "dilate": "(1, 1)", 
        "kernel": "(1, 1)", 
        "layout": "NCHW", 
        "no_bias": "True", 
        "num_filter": "256", 
        "num_group": "1", 
        "pad": "(0, 0)", 
        "stride": "(2, 2)"
      }, 
      "inputs": [[90, 0, 0], [101, 0, 0]]
    }, 
    {
      "op": "elemwise_add", 
      "name": "resnetv22_stage3__plus0", 
      "inputs": [[100, 0, 0], [102, 0, 0]]
    }, 
    {
      "op": "null", 
      "name": "resnetv22_stage3_batchnorm2_gamma", 
      "attrs": {
        "__dtype__": "0", 
        "__init__": "ones", 
        "__lr_mult__": "1.0", 
        "__shape__": "(256,)", 
        "__storage_type__": "0", 
        "__wd_mult__": "1.0"
      }, 
      "inputs": []
    }, 
    {
      "op": "null", 
      "name": "resnetv22_stage3_batchnorm2_beta", 
      "attrs": {
        "__dtype__": "0", 
        "__init__": "zeros", 
        "__lr_mult__": "1.0", 
        "__shape__": "(256,)", 
        "__storage_type__": "0", 
        "__wd_mult__": "1.0"
      }, 
      "inputs": []
    }, 
    {
      "op": "null", 
      "name": "resnetv22_stage3_batchnorm2_running_mean", 
      "attrs": {
        "__dtype__": "0", 
        "__init__": "zeros", 
        "__lr_mult__": "1.0", 
        "__shape__": "(256,)", 
        "__storage_type__": "0", 
        "__wd_mult__": "1.0"
      }, 
      "inputs": []
    }, 
    {
      "op": "null", 
      "name": "resnetv22_stage3_batchnorm2_running_var", 
      "attrs": {
        "__dtype__": "0", 
        "__init__": "ones", 
        "__lr_mult__": "1.0", 
        "__shape__": "(256,)", 
        "__storage_type__": "0", 
        "__wd_mult__": "1.0"
      }, 
      "inputs": []
    }, 
    {
      "op": "BatchNorm", 
      "name": "resnetv22_stage3_batchnorm2_fwd", 
      "attrs": {
        "axis": "1", 
        "eps": "1e-05", 
        "fix_gamma": "False", 
        "momentum": "0.9", 
        "use_global_stats": "False"
      }, 
      "inputs": [[103, 0, 0], [104, 0, 0], [105, 0, 0], [106, 0, 1], [107, 0, 1]]
    }, 
    {
      "op": "Activation", 
      "name": "resnetv22_stage3_activation2", 
      "attrs": {"act_type": "relu"}, 
      "inputs": [[108, 0, 0]]
    }, 
    {
      "op": "null", 
      "name": "resnetv22_stage3_conv3_weight", 
      "attrs": {
        "__dtype__": "0", 
        "__lr_mult__": "1.0", 
        "__shape__": "(256, 256, 3, 3)", 
        "__storage_type__": "0", 
        "__wd_mult__": "1.0"
      }, 
      "inputs": []
    }, 
    {
      "op": "Convolution", 
      "name": "resnetv22_stage3_conv3_fwd", 
      "attrs": {
        "dilate": "(1, 1)", 
        "kernel": "(3, 3)", 
        "layout": "NCHW", 
        "no_bias": "True", 
        "num_filter": "256", 
        "num_group": "1", 
        "pad": "(1, 1)", 
        "stride": "(1, 1)"
      }, 
      "inputs": [[109, 0, 0], [110, 0, 0]]
    }, 
    {
      "op": "null", 
      "name": "resnetv22_stage3_batchnorm3_gamma", 
      "attrs": {
        "__dtype__": "0", 
        "__init__": "ones", 
        "__lr_mult__": "1.0", 
        "__shape__": "(256,)", 
        "__storage_type__": "0", 
        "__wd_mult__": "1.0"
      }, 
      "inputs": []
    }, 
    {
      "op": "null", 
      "name": "resnetv22_stage3_batchnorm3_beta", 
      "attrs": {
        "__dtype__": "0", 
        "__init__": "zeros", 
        "__lr_mult__": "1.0", 
        "__shape__": "(256,)", 
        "__storage_type__": "0", 
        "__wd_mult__": "1.0"
      }, 
      "inputs": []
    }, 
    {
      "op": "null", 
      "name": "resnetv22_stage3_batchnorm3_running_mean", 
      "attrs": {
        "__dtype__": "0", 
        "__init__": "zeros", 
        "__lr_mult__": "1.0", 
        "__shape__": "(256,)", 
        "__storage_type__": "0", 
        "__wd_mult__": "1.0"
      }, 
      "inputs": []
    }, 
    {
      "op": "null", 
      "name": "resnetv22_stage3_batchnorm3_running_var", 
      "attrs": {
        "__dtype__": "0", 
        "__init__": "ones", 
        "__lr_mult__": "1.0", 
        "__shape__": "(256,)", 
        "__storage_type__": "0", 
        "__wd_mult__": "1.0"
      }, 
      "inputs": []
    }, 
    {
      "op": "BatchNorm", 
      "name": "resnetv22_stage3_batchnorm3_fwd", 
      "attrs": {
        "axis": "1", 
        "eps": "1e-05", 
        "fix_gamma": "False", 
        "momentum": "0.9", 
        "use_global_stats": "False"
      }, 
      "inputs": [[111, 0, 0], [112, 0, 0], [113, 0, 0], [114, 0, 1], [115, 0, 1]]
    }, 
    {
      "op": "Activation", 
      "name": "resnetv22_stage3_activation3", 
      "attrs": {"act_type": "relu"}, 
      "inputs": [[116, 0, 0]]
    }, 
    {
      "op": "null", 
      "name": "resnetv22_stage3_conv4_weight", 
      "attrs": {
        "__dtype__": "0", 
        "__lr_mult__": "1.0", 
        "__shape__": "(256, 256, 3, 3)", 
        "__storage_type__": "0", 
        "__wd_mult__": "1.0"
      }, 
      "inputs": []
    }, 
    {
      "op": "Convolution", 
      "name": "resnetv22_stage3_conv4_fwd", 
      "attrs": {
        "dilate": "(1, 1)", 
        "kernel": "(3, 3)", 
        "layout": "NCHW", 
        "no_bias": "True", 
        "num_filter": "256", 
        "num_group": "1", 
        "pad": "(1, 1)", 
        "stride": "(1, 1)"
      }, 
      "inputs": [[117, 0, 0], [118, 0, 0]]
    }, 
    {
      "op": "elemwise_add", 
      "name": "resnetv22_stage3__plus1", 
      "inputs": [[119, 0, 0], [103, 0, 0]]
    }, 
    {
      "op": "null", 
      "name": "resnetv22_stage4_batchnorm0_gamma", 
      "attrs": {
        "__dtype__": "0", 
        "__init__": "ones", 
        "__lr_mult__": "1.0", 
        "__shape__": "(256,)", 
        "__storage_type__": "0", 
        "__wd_mult__": "1.0"
      }, 
      "inputs": []
    }, 
    {
      "op": "null", 
      "name": "resnetv22_stage4_batchnorm0_beta", 
      "attrs": {
        "__dtype__": "0", 
        "__init__": "zeros", 
        "__lr_mult__": "1.0", 
        "__shape__": "(256,)", 
        "__storage_type__": "0", 
        "__wd_mult__": "1.0"
      }, 
      "inputs": []
    }, 
    {
      "op": "null", 
      "name": "resnetv22_stage4_batchnorm0_running_mean", 
      "attrs": {
        "__dtype__": "0", 
        "__init__": "zeros", 
        "__lr_mult__": "1.0", 
        "__shape__": "(256,)", 
        "__storage_type__": "0", 
        "__wd_mult__": "1.0"
      }, 
      "inputs": []
    }, 
    {
      "op": "null", 
      "name": "resnetv22_stage4_batchnorm0_running_var", 
      "attrs": {
        "__dtype__": "0", 
        "__init__": "ones", 
        "__lr_mult__": "1.0", 
        "__shape__": "(256,)", 
        "__storage_type__": "0", 
        "__wd_mult__": "1.0"
      }, 
      "inputs": []
    }, 
    {
      "op": "BatchNorm", 
      "name": "resnetv22_stage4_batchnorm0_fwd", 
      "attrs": {
        "axis": "1", 
        "eps": "1e-05", 
        "fix_gamma": "False", 
        "momentum": "0.9", 
        "use_global_stats": "False"
      }, 
      "inputs": [[120, 0, 0], [121, 0, 0], [122, 0, 0], [123, 0, 1], [124, 0, 1]]
    }, 
    {
      "op": "Activation", 
      "name": "resnetv22_stage4_activation0", 
      "attrs": {"act_type": "relu"}, 
      "inputs": [[125, 0, 0]]
    }, 
    {
      "op": "null", 
      "name": "resnetv22_stage4_conv0_weight", 
      "attrs": {
        "__dtype__": "0", 
        "__lr_mult__": "1.0", 
        "__shape__": "(512, 256, 3, 3)", 
        "__storage_type__": "0", 
        "__wd_mult__": "1.0"
      }, 
      "inputs": []
    }, 
    {
      "op": "Convolution", 
      "name": "resnetv22_stage4_conv0_fwd", 
      "attrs": {
        "dilate": "(1, 1)", 
        "kernel": "(3, 3)", 
        "layout": "NCHW", 
        "no_bias": "True", 
        "num_filter": "512", 
        "num_group": "1", 
        "pad": "(1, 1)", 
        "stride": "(2, 2)"
      }, 
      "inputs": [[126, 0, 0], [127, 0, 0]]
    }, 
    {
      "op": "null", 
      "name": "resnetv22_stage4_batchnorm1_gamma", 
      "attrs": {
        "__dtype__": "0", 
        "__init__": "ones", 
        "__lr_mult__": "1.0", 
        "__shape__": "(512,)", 
        "__storage_type__": "0", 
        "__wd_mult__": "1.0"
      }, 
      "inputs": []
    }, 
    {
      "op": "null", 
      "name": "resnetv22_stage4_batchnorm1_beta", 
      "attrs": {
        "__dtype__": "0", 
        "__init__": "zeros", 
        "__lr_mult__": "1.0", 
        "__shape__": "(512,)", 
        "__storage_type__": "0", 
        "__wd_mult__": "1.0"
      }, 
      "inputs": []
    }, 
    {
      "op": "null", 
      "name": "resnetv22_stage4_batchnorm1_running_mean", 
      "attrs": {
        "__dtype__": "0", 
        "__init__": "zeros", 
        "__lr_mult__": "1.0", 
        "__shape__": "(512,)", 
        "__storage_type__": "0", 
        "__wd_mult__": "1.0"
      }, 
      "inputs": []
    }, 
    {
      "op": "null", 
      "name": "resnetv22_stage4_batchnorm1_running_var", 
      "attrs": {
        "__dtype__": "0", 
        "__init__": "ones", 
        "__lr_mult__": "1.0", 
        "__shape__": "(512,)", 
        "__storage_type__": "0", 
        "__wd_mult__": "1.0"
      }, 
      "inputs": []
    }, 
    {
      "op": "BatchNorm", 
      "name": "resnetv22_stage4_batchnorm1_fwd", 
      "attrs": {
        "axis": "1", 
        "eps": "1e-05", 
        "fix_gamma": "False", 
        "momentum": "0.9", 
        "use_global_stats": "False"
      }, 
      "inputs": [[128, 0, 0], [129, 0, 0], [130, 0, 0], [131, 0, 1], [132, 0, 1]]
    }, 
    {
      "op": "Activation", 
      "name": "resnetv22_stage4_activation1", 
      "attrs": {"act_type": "relu"}, 
      "inputs": [[133, 0, 0]]
    }, 
    {
      "op": "null", 
      "name": "resnetv22_stage4_conv1_weight", 
      "attrs": {
        "__dtype__": "0", 
        "__lr_mult__": "1.0", 
        "__shape__": "(512, 512, 3, 3)", 
        "__storage_type__": "0", 
        "__wd_mult__": "1.0"
      }, 
      "inputs": []
    }, 
    {
      "op": "Convolution", 
      "name": "resnetv22_stage4_conv1_fwd", 
      "attrs": {
        "dilate": "(1, 1)", 
        "kernel": "(3, 3)", 
        "layout": "NCHW", 
        "no_bias": "True", 
        "num_filter": "512", 
        "num_group": "1", 
        "pad": "(1, 1)", 
        "stride": "(1, 1)"
      }, 
      "inputs": [[134, 0, 0], [135, 0, 0]]
    }, 
    {
      "op": "null", 
      "name": "resnetv22_stage4_conv2_weight", 
      "attrs": {
        "__dtype__": "0", 
        "__lr_mult__": "1.0", 
        "__shape__": "(512, 256, 1, 1)", 
        "__storage_type__": "0", 
        "__wd_mult__": "1.0"
      }, 
      "inputs": []
    }, 
    {
      "op": "Convolution", 
      "name": "resnetv22_stage4_conv2_fwd", 
      "attrs": {
        "dilate": "(1, 1)", 
        "kernel": "(1, 1)", 
        "layout": "NCHW", 
        "no_bias": "True", 
        "num_filter": "512", 
        "num_group": "1", 
        "pad": "(0, 0)", 
        "stride": "(2, 2)"
      }, 
      "inputs": [[126, 0, 0], [137, 0, 0]]
    }, 
    {
      "op": "elemwise_add", 
      "name": "resnetv22_stage4__plus0", 
      "inputs": [[136, 0, 0], [138, 0, 0]]
    }, 
    {
      "op": "null", 
      "name": "resnetv22_stage4_batchnorm2_gamma", 
      "attrs": {
        "__dtype__": "0", 
        "__init__": "ones", 
        "__lr_mult__": "1.0", 
        "__shape__": "(512,)", 
        "__storage_type__": "0", 
        "__wd_mult__": "1.0"
      }, 
      "inputs": []
    }, 
    {
      "op": "null", 
      "name": "resnetv22_stage4_batchnorm2_beta", 
      "attrs": {
        "__dtype__": "0", 
        "__init__": "zeros", 
        "__lr_mult__": "1.0", 
        "__shape__": "(512,)", 
        "__storage_type__": "0", 
        "__wd_mult__": "1.0"
      }, 
      "inputs": []
    }, 
    {
      "op": "null", 
      "name": "resnetv22_stage4_batchnorm2_running_mean", 
      "attrs": {
        "__dtype__": "0", 
        "__init__": "zeros", 
        "__lr_mult__": "1.0", 
        "__shape__": "(512,)", 
        "__storage_type__": "0", 
        "__wd_mult__": "1.0"
      }, 
      "inputs": []
    }, 
    {
      "op": "null", 
      "name": "resnetv22_stage4_batchnorm2_running_var", 
      "attrs": {
        "__dtype__": "0", 
        "__init__": "ones", 
        "__lr_mult__": "1.0", 
        "__shape__": "(512,)", 
        "__storage_type__": "0", 
        "__wd_mult__": "1.0"
      }, 
      "inputs": []
    }, 
    {
      "op": "BatchNorm", 
      "name": "resnetv22_stage4_batchnorm2_fwd", 
      "attrs": {
        "axis": "1", 
        "eps": "1e-05", 
        "fix_gamma": "False", 
        "momentum": "0.9", 
        "use_global_stats": "False"
      }, 
      "inputs": [[139, 0, 0], [140, 0, 0], [141, 0, 0], [142, 0, 1], [143, 0, 1]]
    }, 
    {
      "op": "Activation", 
      "name": "resnetv22_stage4_activation2", 
      "attrs": {"act_type": "relu"}, 
      "inputs": [[144, 0, 0]]
    }, 
    {
      "op": "null", 
      "name": "resnetv22_stage4_conv3_weight", 
      "attrs": {
        "__dtype__": "0", 
        "__lr_mult__": "1.0", 
        "__shape__": "(512, 512, 3, 3)", 
        "__storage_type__": "0", 
        "__wd_mult__": "1.0"
      }, 
      "inputs": []
    }, 
    {
      "op": "Convolution", 
      "name": "resnetv22_stage4_conv3_fwd", 
      "attrs": {
        "dilate": "(1, 1)", 
        "kernel": "(3, 3)", 
        "layout": "NCHW", 
        "no_bias": "True", 
        "num_filter": "512", 
        "num_group": "1", 
        "pad": "(1, 1)", 
        "stride": "(1, 1)"
      }, 
      "inputs": [[145, 0, 0], [146, 0, 0]]
    }, 
    {
      "op": "null", 
      "name": "resnetv22_stage4_batchnorm3_gamma", 
      "attrs": {
        "__dtype__": "0", 
        "__init__": "ones", 
        "__lr_mult__": "1.0", 
        "__shape__": "(512,)", 
        "__storage_type__": "0", 
        "__wd_mult__": "1.0"
      }, 
      "inputs": []
    }, 
    {
      "op": "null", 
      "name": "resnetv22_stage4_batchnorm3_beta", 
      "attrs": {
        "__dtype__": "0", 
        "__init__": "zeros", 
        "__lr_mult__": "1.0", 
        "__shape__": "(512,)", 
        "__storage_type__": "0", 
        "__wd_mult__": "1.0"
      }, 
      "inputs": []
    }, 
    {
      "op": "null", 
      "name": "resnetv22_stage4_batchnorm3_running_mean", 
      "attrs": {
        "__dtype__": "0", 
        "__init__": "zeros", 
        "__lr_mult__": "1.0", 
        "__shape__": "(512,)", 
        "__storage_type__": "0", 
        "__wd_mult__": "1.0"
      }, 
      "inputs": []
    }, 
    {
      "op": "null", 
      "name": "resnetv22_stage4_batchnorm3_running_var", 
      "attrs": {
        "__dtype__": "0", 
        "__init__": "ones", 
        "__lr_mult__": "1.0", 
        "__shape__": "(512,)", 
        "__storage_type__": "0", 
        "__wd_mult__": "1.0"
      }, 
      "inputs": []
    }, 
    {
      "op": "BatchNorm", 
      "name": "resnetv22_stage4_batchnorm3_fwd", 
      "attrs": {
        "axis": "1", 
        "eps": "1e-05", 
        "fix_gamma": "False", 
        "momentum": "0.9", 
        "use_global_stats": "False"
      }, 
      "inputs": [[147, 0, 0], [148, 0, 0], [149, 0, 0], [150, 0, 1], [151, 0, 1]]
    }, 
    {
      "op": "Activation", 
      "name": "resnetv22_stage4_activation3", 
      "attrs": {"act_type": "relu"}, 
      "inputs": [[152, 0, 0]]
    }, 
    {
      "op": "null", 
      "name": "resnetv22_stage4_conv4_weight", 
      "attrs": {
        "__dtype__": "0", 
        "__lr_mult__": "1.0", 
        "__shape__": "(512, 512, 3, 3)", 
        "__storage_type__": "0", 
        "__wd_mult__": "1.0"
      }, 
      "inputs": []
    }, 
    {
      "op": "Convolution", 
      "name": "resnetv22_stage4_conv4_fwd", 
      "attrs": {
        "dilate": "(1, 1)", 
        "kernel": "(3, 3)", 
        "layout": "NCHW", 
        "no_bias": "True", 
        "num_filter": "512", 
        "num_group": "1", 
        "pad": "(1, 1)", 
        "stride": "(1, 1)"
      }, 
      "inputs": [[153, 0, 0], [154, 0, 0]]
    }, 
    {
      "op": "elemwise_add", 
      "name": "resnetv22_stage4__plus1", 
      "inputs": [[155, 0, 0], [139, 0, 0]]
    }, 
    {
      "op": "null", 
      "name": "resnetv22_batchnorm2_gamma", 
      "attrs": {
        "__dtype__": "0", 
        "__init__": "ones", 
        "__lr_mult__": "1.0", 
        "__shape__": "(512,)", 
        "__storage_type__": "0", 
        "__wd_mult__": "1.0"
      }, 
      "inputs": []
    }, 
    {
      "op": "null", 
      "name": "resnetv22_batchnorm2_beta", 
      "attrs": {
        "__dtype__": "0", 
        "__init__": "zeros", 
        "__lr_mult__": "1.0", 
        "__shape__": "(512,)", 
        "__storage_type__": "0", 
        "__wd_mult__": "1.0"
      }, 
      "inputs": []
    }, 
    {
      "op": "null", 
      "name": "resnetv22_batchnorm2_running_mean", 
      "attrs": {
        "__dtype__": "0", 
        "__init__": "zeros", 
        "__lr_mult__": "1.0", 
        "__shape__": "(512,)", 
        "__storage_type__": "0", 
        "__wd_mult__": "1.0"
      }, 
      "inputs": []
    }, 
    {
      "op": "null", 
      "name": "resnetv22_batchnorm2_running_var", 
      "attrs": {
        "__dtype__": "0", 
        "__init__": "ones", 
        "__lr_mult__": "1.0", 
        "__shape__": "(512,)", 
        "__storage_type__": "0", 
        "__wd_mult__": "1.0"
      }, 
      "inputs": []
    }, 
    {
      "op": "BatchNorm", 
      "name": "resnetv22_batchnorm2_fwd", 
      "attrs": {
        "axis": "1", 
        "eps": "1e-05", 
        "fix_gamma": "False", 
        "momentum": "0.9", 
        "use_global_stats": "False"
      }, 
      "inputs": [[156, 0, 0], [157, 0, 0], [158, 0, 0], [159, 0, 1], [160, 0, 1]]
    }, 
    {
      "op": "Activation", 
      "name": "resnetv22_relu1_fwd", 
      "attrs": {"act_type": "relu"}, 
      "inputs": [[161, 0, 0]]
    }, 
    {
      "op": "null", 
      "name": "resnetv22_lateral5weight", 
      "attrs": {
        "__dtype__": "0", 
        "__lr_mult__": "1.0", 
        "__shape__": "(256, 0, 1, 1)", 
        "__storage_type__": "0", 
        "__wd_mult__": "1.0"
      }, 
      "inputs": []
    }, 
    {
      "op": "Convolution", 
      "name": "resnetv22_lateral5fwd", 
      "attrs": {
        "dilate": "(1, 1)", 
        "kernel": "(1, 1)", 
        "layout": "NCHW", 
        "no_bias": "True", 
        "num_filter": "256", 
        "num_group": "1", 
        "pad": "(0, 0)", 
        "stride": "(1, 1)"
      }, 
      "inputs": [[162, 0, 0], [163, 0, 0]]
    }, 
    {
      "op": "UpSampling", 
      "name": "resnetv22_upsampling0", 
      "attrs": {
        "num_args": "1", 
        "sample_type": "nearest", 
        "scale": "2"
      }, 
      "inputs": [[164, 0, 0]]
    }, 
    {
      "op": "null", 
      "name": "resnetv22_lateral4weight", 
      "attrs": {
        "__dtype__": "0", 
        "__lr_mult__": "1.0", 
        "__shape__": "(256, 0, 1, 1)", 
        "__storage_type__": "0", 
        "__wd_mult__": "1.0"
      }, 
      "inputs": []
    }, 
    {
      "op": "Convolution", 
      "name": "resnetv22_lateral4fwd", 
      "attrs": {
        "dilate": "(1, 1)", 
        "kernel": "(1, 1)", 
        "layout": "NCHW", 
        "no_bias": "True", 
        "num_filter": "256", 
        "num_group": "1", 
        "pad": "(0, 0)", 
        "stride": "(1, 1)"
      }, 
      "inputs": [[120, 0, 0], [166, 0, 0]]
    }, 
    {
      "op": "elemwise_add", 
      "name": "resnetv22__plus0", 
      "inputs": [[165, 0, 0], [167, 0, 0]]
    }, 
    {
      "op": "UpSampling", 
      "name": "resnetv22_upsampling1", 
      "attrs": {
        "num_args": "1", 
        "sample_type": "nearest", 
        "scale": "2"
      }, 
      "inputs": [[168, 0, 0]]
    }, 
    {
      "op": "null", 
      "name": "resnetv22_lateral3weight", 
      "attrs": {
        "__dtype__": "0", 
        "__lr_mult__": "1.0", 
        "__shape__": "(256, 0, 1, 1)", 
        "__storage_type__": "0", 
        "__wd_mult__": "1.0"
      }, 
      "inputs": []
    }, 
    {
      "op": "Convolution", 
      "name": "resnetv22_lateral3fwd", 
      "attrs": {
        "dilate": "(1, 1)", 
        "kernel": "(1, 1)", 
        "layout": "NCHW", 
        "no_bias": "True", 
        "num_filter": "256", 
        "num_group": "1", 
        "pad": "(0, 0)", 
        "stride": "(1, 1)"
      }, 
      "inputs": [[84, 0, 0], [170, 0, 0]]
    }, 
    {
      "op": "elemwise_add", 
      "name": "resnetv22__plus1", 
      "inputs": [[169, 0, 0], [171, 0, 0]]
    }, 
    {
      "op": "null", 
      "name": "retinanet0_convpredictor0_conv0_weight", 
      "attrs": {
        "__dtype__": "0", 
        "__init__": "[\"normal\", {\"sigma\": 0.01}]", 
        "__lr_mult__": "1.0", 
        "__shape__": "(256, 0, 3, 3)", 
        "__storage_type__": "0", 
        "__wd_mult__": "1.0"
      }, 
      "inputs": []
    }, 
    {
      "op": "null", 
      "name": "retinanet0_convpredictor0_conv0_bias", 
      "attrs": {
        "__dtype__": "0", 
        "__init__": "zeros", 
        "__lr_mult__": "1.0", 
        "__shape__": "(256,)", 
        "__storage_type__": "0", 
        "__wd_mult__": "1.0"
      }, 
      "inputs": []
    }, 
    {
      "op": "Convolution", 
      "name": "retinanet0_convpredictor0_conv0_fwd", 
      "attrs": {
        "dilate": "(1, 1)", 
        "kernel": "(3, 3)", 
        "layout": "NCHW", 
        "no_bias": "False", 
        "num_filter": "256", 
        "num_group": "1", 
        "pad": "(1, 1)", 
        "stride": "(1, 1)"
      }, 
      "inputs": [[172, 0, 0], [173, 0, 0], [174, 0, 0]]
    }, 
    {
      "op": "Activation", 
      "name": "retinanet0_convpredictor0_conv0_relu_fwd", 
      "attrs": {"act_type": "relu"}, 
      "inputs": [[175, 0, 0]]
    }, 
    {
      "op": "null", 
      "name": "retinanet0_convpredictor2_conv0_weight", 
      "attrs": {
        "__dtype__": "0", 
        "__init__": "[\"normal\", {\"sigma\": 0.01}]", 
        "__lr_mult__": "1.0", 
        "__shape__": "(256, 0, 3, 3)", 
        "__storage_type__": "0", 
        "__wd_mult__": "1.0"
      }, 
      "inputs": []
    }, 
    {
      "op": "null", 
      "name": "retinanet0_convpredictor2_conv0_bias", 
      "attrs": {
        "__dtype__": "0", 
        "__init__": "zeros", 
        "__lr_mult__": "1.0", 
        "__shape__": "(256,)", 
        "__storage_type__": "0", 
        "__wd_mult__": "1.0"
      }, 
      "inputs": []
    }, 
    {
      "op": "Convolution", 
      "name": "retinanet0_convpredictor2_conv0_fwd", 
      "attrs": {
        "dilate": "(1, 1)", 
        "kernel": "(3, 3)", 
        "layout": "NCHW", 
        "no_bias": "False", 
        "num_filter": "256", 
        "num_group": "1", 
        "pad": "(1, 1)", 
        "stride": "(1, 1)"
      }, 
      "inputs": [[176, 0, 0], [177, 0, 0], [178, 0, 0]]
    }, 
    {
      "op": "Activation", 
      "name": "retinanet0_convpredictor2_conv0_relu_fwd", 
      "attrs": {"act_type": "relu"}, 
      "inputs": [[179, 0, 0]]
    }, 
    {
      "op": "null", 
      "name": "retinanet0_convpredictor4_conv0_weight", 
      "attrs": {
        "__dtype__": "0", 
        "__init__": "[\"normal\", {\"sigma\": 0.01}]", 
        "__lr_mult__": "1.0", 
        "__shape__": "(256, 0, 3, 3)", 
        "__storage_type__": "0", 
        "__wd_mult__": "1.0"
      }, 
      "inputs": []
    }, 
    {
      "op": "null", 
      "name": "retinanet0_convpredictor4_conv0_bias", 
      "attrs": {
        "__dtype__": "0", 
        "__init__": "zeros", 
        "__lr_mult__": "1.0", 
        "__shape__": "(256,)", 
        "__storage_type__": "0", 
        "__wd_mult__": "1.0"
      }, 
      "inputs": []
    }, 
    {
      "op": "Convolution", 
      "name": "retinanet0_convpredictor4_conv0_fwd", 
      "attrs": {
        "dilate": "(1, 1)", 
        "kernel": "(3, 3)", 
        "layout": "NCHW", 
        "no_bias": "False", 
        "num_filter": "256", 
        "num_group": "1", 
        "pad": "(1, 1)", 
        "stride": "(1, 1)"
      }, 
      "inputs": [[180, 0, 0], [181, 0, 0], [182, 0, 0]]
    }, 
    {
      "op": "Activation", 
      "name": "retinanet0_convpredictor4_conv0_relu_fwd", 
      "attrs": {"act_type": "relu"}, 
      "inputs": [[183, 0, 0]]
    }, 
    {
      "op": "null", 
      "name": "retinanet0_convpredictor6_conv0_weight", 
      "attrs": {
        "__dtype__": "0", 
        "__init__": "[\"normal\", {\"sigma\": 0.01}]", 
        "__lr_mult__": "1.0", 
        "__shape__": "(45, 0, 3, 3)", 
        "__storage_type__": "0", 
        "__wd_mult__": "1.0"
      }, 
      "inputs": []
    }, 
    {
      "op": "null", 
      "name": "retinanet0_convpredictor6_conv0_bias", 
      "attrs": {
        "__dtype__": "0", 
        "__init__": "[\"constant\", {\"value\": -4.59511985013459}]", 
        "__lr_mult__": "1.0", 
        "__shape__": "(45,)", 
        "__storage_type__": "0", 
        "__wd_mult__": "1.0"
      }, 
      "inputs": []
    }, 
    {
      "op": "Convolution", 
      "name": "retinanet0_convpredictor6_conv0_fwd", 
      "attrs": {
        "dilate": "(1, 1)", 
        "kernel": "(3, 3)", 
        "layout": "NCHW", 
        "no_bias": "False", 
        "num_filter": "45", 
        "num_group": "1", 
        "pad": "(1, 1)", 
        "stride": "(1, 1)"
      }, 
      "inputs": [[184, 0, 0], [185, 0, 0], [186, 0, 0]]
    }, 
    {
      "op": "transpose", 
      "name": "retinanet0_transpose0", 
      "attrs": {"axes": "(0, 2, 3, 1)"}, 
      "inputs": [[187, 0, 0]]
    }, 
    {
      "op": "Flatten", 
      "name": "retinanet0_flatten0", 
      "inputs": [[188, 0, 0]]
    }, 
    {
      "op": "Convolution", 
      "name": "retinanet0_convpredictor0_conv0_fwd", 
      "attrs": {
        "dilate": "(1, 1)", 
        "kernel": "(3, 3)", 
        "layout": "NCHW", 
        "no_bias": "False", 
        "num_filter": "256", 
        "num_group": "1", 
        "pad": "(1, 1)", 
        "stride": "(1, 1)"
      }, 
      "inputs": [[168, 0, 0], [173, 0, 0], [174, 0, 0]]
    }, 
    {
      "op": "Activation", 
      "name": "retinanet0_convpredictor0_conv0_relu_fwd", 
      "attrs": {"act_type": "relu"}, 
      "inputs": [[190, 0, 0]]
    }, 
    {
      "op": "Convolution", 
      "name": "retinanet0_convpredictor2_conv0_fwd", 
      "attrs": {
        "dilate": "(1, 1)", 
        "kernel": "(3, 3)", 
        "layout": "NCHW", 
        "no_bias": "False", 
        "num_filter": "256", 
        "num_group": "1", 
        "pad": "(1, 1)", 
        "stride": "(1, 1)"
      }, 
      "inputs": [[191, 0, 0], [177, 0, 0], [178, 0, 0]]
    }, 
    {
      "op": "Activation", 
      "name": "retinanet0_convpredictor2_conv0_relu_fwd", 
      "attrs": {"act_type": "relu"}, 
      "inputs": [[192, 0, 0]]
    }, 
    {
      "op": "Convolution", 
      "name": "retinanet0_convpredictor4_conv0_fwd", 
      "attrs": {
        "dilate": "(1, 1)", 
        "kernel": "(3, 3)", 
        "layout": "NCHW", 
        "no_bias": "False", 
        "num_filter": "256", 
        "num_group": "1", 
        "pad": "(1, 1)", 
        "stride": "(1, 1)"
      }, 
      "inputs": [[193, 0, 0], [181, 0, 0], [182, 0, 0]]
    }, 
    {
      "op": "Activation", 
      "name": "retinanet0_convpredictor4_conv0_relu_fwd", 
      "attrs": {"act_type": "relu"}, 
      "inputs": [[194, 0, 0]]
    }, 
    {
      "op": "Convolution", 
      "name": "retinanet0_convpredictor6_conv0_fwd", 
      "attrs": {
        "dilate": "(1, 1)", 
        "kernel": "(3, 3)", 
        "layout": "NCHW", 
        "no_bias": "False", 
        "num_filter": "45", 
        "num_group": "1", 
        "pad": "(1, 1)", 
        "stride": "(1, 1)"
      }, 
      "inputs": [[195, 0, 0], [185, 0, 0], [186, 0, 0]]
    }, 
    {
      "op": "transpose", 
      "name": "retinanet0_transpose1", 
      "attrs": {"axes": "(0, 2, 3, 1)"}, 
      "inputs": [[196, 0, 0]]
    }, 
    {
      "op": "Flatten", 
      "name": "retinanet0_flatten1", 
      "inputs": [[197, 0, 0]]
    }, 
    {
      "op": "Convolution", 
      "name": "retinanet0_convpredictor0_conv0_fwd", 
      "attrs": {
        "dilate": "(1, 1)", 
        "kernel": "(3, 3)", 
        "layout": "NCHW", 
        "no_bias": "False", 
        "num_filter": "256", 
        "num_group": "1", 
        "pad": "(1, 1)", 
        "stride": "(1, 1)"
      }, 
      "inputs": [[164, 0, 0], [173, 0, 0], [174, 0, 0]]
    }, 
    {
      "op": "Activation", 
      "name": "retinanet0_convpredictor0_conv0_relu_fwd", 
      "attrs": {"act_type": "relu"}, 
      "inputs": [[199, 0, 0]]
    }, 
    {
      "op": "Convolution", 
      "name": "retinanet0_convpredictor2_conv0_fwd", 
      "attrs": {
        "dilate": "(1, 1)", 
        "kernel": "(3, 3)", 
        "layout": "NCHW", 
        "no_bias": "False", 
        "num_filter": "256", 
        "num_group": "1", 
        "pad": "(1, 1)", 
        "stride": "(1, 1)"
      }, 
      "inputs": [[200, 0, 0], [177, 0, 0], [178, 0, 0]]
    }, 
    {
      "op": "Activation", 
      "name": "retinanet0_convpredictor2_conv0_relu_fwd", 
      "attrs": {"act_type": "relu"}, 
      "inputs": [[201, 0, 0]]
    }, 
    {
      "op": "Convolution", 
      "name": "retinanet0_convpredictor4_conv0_fwd", 
      "attrs": {
        "dilate": "(1, 1)", 
        "kernel": "(3, 3)", 
        "layout": "NCHW", 
        "no_bias": "False", 
        "num_filter": "256", 
        "num_group": "1", 
        "pad": "(1, 1)", 
        "stride": "(1, 1)"
      }, 
      "inputs": [[202, 0, 0], [181, 0, 0], [182, 0, 0]]
    }, 
    {
      "op": "Activation", 
      "name": "retinanet0_convpredictor4_conv0_relu_fwd", 
      "attrs": {"act_type": "relu"}, 
      "inputs": [[203, 0, 0]]
    }, 
    {
      "op": "Convolution", 
      "name": "retinanet0_convpredictor6_conv0_fwd", 
      "attrs": {
        "dilate": "(1, 1)", 
        "kernel": "(3, 3)", 
        "layout": "NCHW", 
        "no_bias": "False", 
        "num_filter": "45", 
        "num_group": "1", 
        "pad": "(1, 1)", 
        "stride": "(1, 1)"
      }, 
      "inputs": [[204, 0, 0], [185, 0, 0], [186, 0, 0]]
    }, 
    {
      "op": "transpose", 
      "name": "retinanet0_transpose2", 
      "attrs": {"axes": "(0, 2, 3, 1)"}, 
      "inputs": [[205, 0, 0]]
    }, 
    {
      "op": "Flatten", 
      "name": "retinanet0_flatten2", 
      "inputs": [[206, 0, 0]]
    }, 
    {
      "op": "null", 
      "name": "resnetv22_extraconv1weight", 
      "attrs": {
        "__dtype__": "0", 
        "__lr_mult__": "1.0", 
        "__shape__": "(256, 0, 3, 3)", 
        "__storage_type__": "0", 
        "__wd_mult__": "1.0"
      }, 
      "inputs": []
    }, 
    {
      "op": "Convolution", 
      "name": "resnetv22_extraconv1fwd", 
      "attrs": {
        "dilate": "(1, 1)", 
        "kernel": "(3, 3)", 
        "layout": "NCHW", 
        "no_bias": "True", 
        "num_filter": "256", 
        "num_group": "1", 
        "pad": "(1, 1)", 
        "stride": "(2, 2)"
      }, 
      "inputs": [[162, 0, 0], [208, 0, 0]]
    }, 
    {
      "op": "Convolution", 
      "name": "retinanet0_convpredictor0_conv0_fwd", 
      "attrs": {
        "dilate": "(1, 1)", 
        "kernel": "(3, 3)", 
        "layout": "NCHW", 
        "no_bias": "False", 
        "num_filter": "256", 
        "num_group": "1", 
        "pad": "(1, 1)", 
        "stride": "(1, 1)"
      }, 
      "inputs": [[209, 0, 0], [173, 0, 0], [174, 0, 0]]
    }, 
    {
      "op": "Activation", 
      "name": "retinanet0_convpredictor0_conv0_relu_fwd", 
      "attrs": {"act_type": "relu"}, 
      "inputs": [[210, 0, 0]]
    }, 
    {
      "op": "Convolution", 
      "name": "retinanet0_convpredictor2_conv0_fwd", 
      "attrs": {
        "dilate": "(1, 1)", 
        "kernel": "(3, 3)", 
        "layout": "NCHW", 
        "no_bias": "False", 
        "num_filter": "256", 
        "num_group": "1", 
        "pad": "(1, 1)", 
        "stride": "(1, 1)"
      }, 
      "inputs": [[211, 0, 0], [177, 0, 0], [178, 0, 0]]
    }, 
    {
      "op": "Activation", 
      "name": "retinanet0_convpredictor2_conv0_relu_fwd", 
      "attrs": {"act_type": "relu"}, 
      "inputs": [[212, 0, 0]]
    }, 
    {
      "op": "Convolution", 
      "name": "retinanet0_convpredictor4_conv0_fwd", 
      "attrs": {
        "dilate": "(1, 1)", 
        "kernel": "(3, 3)", 
        "layout": "NCHW", 
        "no_bias": "False", 
        "num_filter": "256", 
        "num_group": "1", 
        "pad": "(1, 1)", 
        "stride": "(1, 1)"
      }, 
      "inputs": [[213, 0, 0], [181, 0, 0], [182, 0, 0]]
    }, 
    {
      "op": "Activation", 
      "name": "retinanet0_convpredictor4_conv0_relu_fwd", 
      "attrs": {"act_type": "relu"}, 
      "inputs": [[214, 0, 0]]
    }, 
    {
      "op": "Convolution", 
      "name": "retinanet0_convpredictor6_conv0_fwd", 
      "attrs": {
        "dilate": "(1, 1)", 
        "kernel": "(3, 3)", 
        "layout": "NCHW", 
        "no_bias": "False", 
        "num_filter": "45", 
        "num_group": "1", 
        "pad": "(1, 1)", 
        "stride": "(1, 1)"
      }, 
      "inputs": [[215, 0, 0], [185, 0, 0], [186, 0, 0]]
    }, 
    {
      "op": "transpose", 
      "name": "retinanet0_transpose3", 
      "attrs": {"axes": "(0, 2, 3, 1)"}, 
      "inputs": [[216, 0, 0]]
    }, 
    {
      "op": "Flatten", 
      "name": "retinanet0_flatten3", 
      "inputs": [[217, 0, 0]]
    }, 
    {
      "op": "Activation", 
      "name": "resnetv22_relu2_fwd", 
      "attrs": {"act_type": "relu"}, 
      "inputs": [[209, 0, 0]]
    }, 
    {
      "op": "null", 
      "name": "resnetv22_extraconv2weight", 
      "attrs": {
        "__dtype__": "0", 
        "__lr_mult__": "1.0", 
        "__shape__": "(256, 0, 3, 3)", 
        "__storage_type__": "0", 
        "__wd_mult__": "1.0"
      }, 
      "inputs": []
    }, 
    {
      "op": "Convolution", 
      "name": "resnetv22_extraconv2fwd", 
      "attrs": {
        "dilate": "(1, 1)", 
        "kernel": "(3, 3)", 
        "layout": "NCHW", 
        "no_bias": "True", 
        "num_filter": "256", 
        "num_group": "1", 
        "pad": "(1, 1)", 
        "stride": "(2, 2)"
      }, 
      "inputs": [[219, 0, 0], [220, 0, 0]]
    }, 
    {
      "op": "Activation", 
      "name": "resnetv22_extraconv2relu_fwd", 
      "attrs": {"act_type": "relu"}, 
      "inputs": [[221, 0, 0]]
    }, 
    {
      "op": "Convolution", 
      "name": "retinanet0_convpredictor0_conv0_fwd", 
      "attrs": {
        "dilate": "(1, 1)", 
        "kernel": "(3, 3)", 
        "layout": "NCHW", 
        "no_bias": "False", 
        "num_filter": "256", 
        "num_group": "1", 
        "pad": "(1, 1)", 
        "stride": "(1, 1)"
      }, 
      "inputs": [[222, 0, 0], [173, 0, 0], [174, 0, 0]]
    }, 
    {
      "op": "Activation", 
      "name": "retinanet0_convpredictor0_conv0_relu_fwd", 
      "attrs": {"act_type": "relu"}, 
      "inputs": [[223, 0, 0]]
    }, 
    {
      "op": "Convolution", 
      "name": "retinanet0_convpredictor2_conv0_fwd", 
      "attrs": {
        "dilate": "(1, 1)", 
        "kernel": "(3, 3)", 
        "layout": "NCHW", 
        "no_bias": "False", 
        "num_filter": "256", 
        "num_group": "1", 
        "pad": "(1, 1)", 
        "stride": "(1, 1)"
      }, 
      "inputs": [[224, 0, 0], [177, 0, 0], [178, 0, 0]]
    }, 
    {
      "op": "Activation", 
      "name": "retinanet0_convpredictor2_conv0_relu_fwd", 
      "attrs": {"act_type": "relu"}, 
      "inputs": [[225, 0, 0]]
    }, 
    {
      "op": "Convolution", 
      "name": "retinanet0_convpredictor4_conv0_fwd", 
      "attrs": {
        "dilate": "(1, 1)", 
        "kernel": "(3, 3)", 
        "layout": "NCHW", 
        "no_bias": "False", 
        "num_filter": "256", 
        "num_group": "1", 
        "pad": "(1, 1)", 
        "stride": "(1, 1)"
      }, 
      "inputs": [[226, 0, 0], [181, 0, 0], [182, 0, 0]]
    }, 
    {
      "op": "Activation", 
      "name": "retinanet0_convpredictor4_conv0_relu_fwd", 
      "attrs": {"act_type": "relu"}, 
      "inputs": [[227, 0, 0]]
    }, 
    {
      "op": "Convolution", 
      "name": "retinanet0_convpredictor6_conv0_fwd", 
      "attrs": {
        "dilate": "(1, 1)", 
        "kernel": "(3, 3)", 
        "layout": "NCHW", 
        "no_bias": "False", 
        "num_filter": "45", 
        "num_group": "1", 
        "pad": "(1, 1)", 
        "stride": "(1, 1)"
      }, 
      "inputs": [[228, 0, 0], [185, 0, 0], [186, 0, 0]]
    }, 
    {
      "op": "transpose", 
      "name": "retinanet0_transpose4", 
      "attrs": {"axes": "(0, 2, 3, 1)"}, 
      "inputs": [[229, 0, 0]]
    }, 
    {
      "op": "Flatten", 
      "name": "retinanet0_flatten4", 
      "inputs": [[230, 0, 0]]
    }, 
    {
      "op": "Concat", 
      "name": "retinanet0_concat0", 
      "attrs": {
        "dim": "-1", 
        "num_args": "5"
      }, 
      "inputs": [[189, 0, 0], [198, 0, 0], [207, 0, 0], [218, 0, 0], [231, 0, 0]]
    }, 
    {
      "op": "Reshape", 
      "name": "retinanet0_reshape0", 
      "attrs": {"shape": "(0, -1, 5)"}, 
      "inputs": [[232, 0, 0]]
    }, 
    {
      "op": "BatchNorm", 
      "name": "resnetv22_batchnorm0_fwd", 
      "attrs": {
        "axis": "1", 
        "eps": "1e-05", 
        "fix_gamma": "True", 
        "momentum": "0.9", 
        "use_global_stats": "False"
      }, 
      "inputs": [[0, 0, 0], [1, 0, 0], [2, 0, 0], [3, 0, 2], [4, 0, 2]]
    }, 
    {
      "op": "Convolution", 
      "name": "resnetv22_conv0_fwd", 
      "attrs": {
        "dilate": "(1, 1)", 
        "kernel": "(7, 7)", 
        "layout": "NCHW", 
        "no_bias": "True", 
        "num_filter": "64", 
        "num_group": "1", 
        "pad": "(3, 3)", 
        "stride": "(2, 2)"
      }, 
      "inputs": [[234, 0, 0], [6, 0, 0]]
    }, 
    {
      "op": "BatchNorm", 
      "name": "resnetv22_batchnorm1_fwd", 
      "attrs": {
        "axis": "1", 
        "eps": "1e-05", 
        "fix_gamma": "False", 
        "momentum": "0.9", 
        "use_global_stats": "False"
      }, 
      "inputs": [[235, 0, 0], [8, 0, 0], [9, 0, 0], [10, 0, 2], [11, 0, 2]]
    }, 
    {
      "op": "Activation", 
      "name": "resnetv22_relu0_fwd", 
      "attrs": {"act_type": "relu"}, 
      "inputs": [[236, 0, 0]]
    }, 
    {
      "op": "Pooling", 
      "name": "resnetv22_pool0_fwd", 
      "attrs": {
        "global_pool": "False", 
        "kernel": "(3, 3)", 
        "layout": "NCHW", 
        "pad": "(1, 1)", 
        "pool_type": "max", 
        "pooling_convention": "valid", 
        "stride": "(2, 2)"
      }, 
      "inputs": [[237, 0, 0]]
    }, 
    {
      "op": "BatchNorm", 
      "name": "resnetv22_stage1_batchnorm0_fwd", 
      "attrs": {
        "axis": "1", 
        "eps": "1e-05", 
        "fix_gamma": "False", 
        "momentum": "0.9", 
        "use_global_stats": "False"
      }, 
      "inputs": [[238, 0, 0], [15, 0, 0], [16, 0, 0], [17, 0, 2], [18, 0, 2]]
    }, 
    {
      "op": "Activation", 
      "name": "resnetv22_stage1_activation0", 
      "attrs": {"act_type": "relu"}, 
      "inputs": [[239, 0, 0]]
    }, 
    {
      "op": "Convolution", 
      "name": "resnetv22_stage1_conv0_fwd", 
      "attrs": {
        "dilate": "(1, 1)", 
        "kernel": "(3, 3)", 
        "layout": "NCHW", 
        "no_bias": "True", 
        "num_filter": "64", 
        "num_group": "1", 
        "pad": "(1, 1)", 
        "stride": "(1, 1)"
      }, 
      "inputs": [[240, 0, 0], [21, 0, 0]]
    }, 
    {
      "op": "BatchNorm", 
      "name": "resnetv22_stage1_batchnorm1_fwd", 
      "attrs": {
        "axis": "1", 
        "eps": "1e-05", 
        "fix_gamma": "False", 
        "momentum": "0.9", 
        "use_global_stats": "False"
      }, 
      "inputs": [[241, 0, 0], [23, 0, 0], [24, 0, 0], [25, 0, 2], [26, 0, 2]]
    }, 
    {
      "op": "Activation", 
      "name": "resnetv22_stage1_activation1", 
      "attrs": {"act_type": "relu"}, 
      "inputs": [[242, 0, 0]]
    }, 
    {
      "op": "Convolution", 
      "name": "resnetv22_stage1_conv1_fwd", 
      "attrs": {
        "dilate": "(1, 1)", 
        "kernel": "(3, 3)", 
        "layout": "NCHW", 
        "no_bias": "True", 
        "num_filter": "64", 
        "num_group": "1", 
        "pad": "(1, 1)", 
        "stride": "(1, 1)"
      }, 
      "inputs": [[243, 0, 0], [29, 0, 0]]
    }, 
    {
      "op": "elemwise_add", 
      "name": "resnetv22_stage1__plus0", 
      "inputs": [[244, 0, 0], [238, 0, 0]]
    }, 
    {
      "op": "BatchNorm", 
      "name": "resnetv22_stage1_batchnorm2_fwd", 
      "attrs": {
        "axis": "1", 
        "eps": "1e-05", 
        "fix_gamma": "False", 
        "momentum": "0.9", 
        "use_global_stats": "False"
      }, 
      "inputs": [[245, 0, 0], [32, 0, 0], [33, 0, 0], [34, 0, 2], [35, 0, 2]]
    }, 
    {
      "op": "Activation", 
      "name": "resnetv22_stage1_activation2", 
      "attrs": {"act_type": "relu"}, 
      "inputs": [[246, 0, 0]]
    }, 
    {
      "op": "Convolution", 
      "name": "resnetv22_stage1_conv2_fwd", 
      "attrs": {
        "dilate": "(1, 1)", 
        "kernel": "(3, 3)", 
        "layout": "NCHW", 
        "no_bias": "True", 
        "num_filter": "64", 
        "num_group": "1", 
        "pad": "(1, 1)", 
        "stride": "(1, 1)"
      }, 
      "inputs": [[247, 0, 0], [38, 0, 0]]
    }, 
    {
      "op": "BatchNorm", 
      "name": "resnetv22_stage1_batchnorm3_fwd", 
      "attrs": {
        "axis": "1", 
        "eps": "1e-05", 
        "fix_gamma": "False", 
        "momentum": "0.9", 
        "use_global_stats": "False"
      }, 
      "inputs": [[248, 0, 0], [40, 0, 0], [41, 0, 0], [42, 0, 2], [43, 0, 2]]
    }, 
    {
      "op": "Activation", 
      "name": "resnetv22_stage1_activation3", 
      "attrs": {"act_type": "relu"}, 
      "inputs": [[249, 0, 0]]
    }, 
    {
      "op": "Convolution", 
      "name": "resnetv22_stage1_conv3_fwd", 
      "attrs": {
        "dilate": "(1, 1)", 
        "kernel": "(3, 3)", 
        "layout": "NCHW", 
        "no_bias": "True", 
        "num_filter": "64", 
        "num_group": "1", 
        "pad": "(1, 1)", 
        "stride": "(1, 1)"
      }, 
      "inputs": [[250, 0, 0], [46, 0, 0]]
    }, 
    {
      "op": "elemwise_add", 
      "name": "resnetv22_stage1__plus1", 
      "inputs": [[251, 0, 0], [245, 0, 0]]
    }, 
    {
      "op": "BatchNorm", 
      "name": "resnetv22_stage2_batchnorm0_fwd", 
      "attrs": {
        "axis": "1", 
        "eps": "1e-05", 
        "fix_gamma": "False", 
        "momentum": "0.9", 
        "use_global_stats": "False"
      }, 
      "inputs": [[252, 0, 0], [49, 0, 0], [50, 0, 0], [51, 0, 2], [52, 0, 2]]
    }, 
    {
      "op": "Activation", 
      "name": "resnetv22_stage2_activation0", 
      "attrs": {"act_type": "relu"}, 
      "inputs": [[253, 0, 0]]
    }, 
    {
      "op": "Convolution", 
      "name": "resnetv22_stage2_conv0_fwd", 
      "attrs": {
        "dilate": "(1, 1)", 
        "kernel": "(3, 3)", 
        "layout": "NCHW", 
        "no_bias": "True", 
        "num_filter": "128", 
        "num_group": "1", 
        "pad": "(1, 1)", 
        "stride": "(2, 2)"
      }, 
      "inputs": [[254, 0, 0], [55, 0, 0]]
    }, 
    {
      "op": "BatchNorm", 
      "name": "resnetv22_stage2_batchnorm1_fwd", 
      "attrs": {
        "axis": "1", 
        "eps": "1e-05", 
        "fix_gamma": "False", 
        "momentum": "0.9", 
        "use_global_stats": "False"
      }, 
      "inputs": [[255, 0, 0], [57, 0, 0], [58, 0, 0], [59, 0, 2], [60, 0, 2]]
    }, 
    {
      "op": "Activation", 
      "name": "resnetv22_stage2_activation1", 
      "attrs": {"act_type": "relu"}, 
      "inputs": [[256, 0, 0]]
    }, 
    {
      "op": "Convolution", 
      "name": "resnetv22_stage2_conv1_fwd", 
      "attrs": {
        "dilate": "(1, 1)", 
        "kernel": "(3, 3)", 
        "layout": "NCHW", 
        "no_bias": "True", 
        "num_filter": "128", 
        "num_group": "1", 
        "pad": "(1, 1)", 
        "stride": "(1, 1)"
      }, 
      "inputs": [[257, 0, 0], [63, 0, 0]]
    }, 
    {
      "op": "Convolution", 
      "name": "resnetv22_stage2_conv2_fwd", 
      "attrs": {
        "dilate": "(1, 1)", 
        "kernel": "(1, 1)", 
        "layout": "NCHW", 
        "no_bias": "True", 
        "num_filter": "128", 
        "num_group": "1", 
        "pad": "(0, 0)", 
        "stride": "(2, 2)"
      }, 
      "inputs": [[254, 0, 0], [65, 0, 0]]
    }, 
    {
      "op": "elemwise_add", 
      "name": "resnetv22_stage2__plus0", 
      "inputs": [[258, 0, 0], [259, 0, 0]]
    }, 
    {
      "op": "BatchNorm", 
      "name": "resnetv22_stage2_batchnorm2_fwd", 
      "attrs": {
        "axis": "1", 
        "eps": "1e-05", 
        "fix_gamma": "False", 
        "momentum": "0.9", 
        "use_global_stats": "False"
      }, 
      "inputs": [[260, 0, 0], [68, 0, 0], [69, 0, 0], [70, 0, 2], [71, 0, 2]]
    }, 
    {
      "op": "Activation", 
      "name": "resnetv22_stage2_activation2", 
      "attrs": {"act_type": "relu"}, 
      "inputs": [[261, 0, 0]]
    }, 
    {
      "op": "Convolution", 
      "name": "resnetv22_stage2_conv3_fwd", 
      "attrs": {
        "dilate": "(1, 1)", 
        "kernel": "(3, 3)", 
        "layout": "NCHW", 
        "no_bias": "True", 
        "num_filter": "128", 
        "num_group": "1", 
        "pad": "(1, 1)", 
        "stride": "(1, 1)"
      }, 
      "inputs": [[262, 0, 0], [74, 0, 0]]
    }, 
    {
      "op": "BatchNorm", 
      "name": "resnetv22_stage2_batchnorm3_fwd", 
      "attrs": {
        "axis": "1", 
        "eps": "1e-05", 
        "fix_gamma": "False", 
        "momentum": "0.9", 
        "use_global_stats": "False"
      }, 
      "inputs": [[263, 0, 0], [76, 0, 0], [77, 0, 0], [78, 0, 2], [79, 0, 2]]
    }, 
    {
      "op": "Activation", 
      "name": "resnetv22_stage2_activation3", 
      "attrs": {"act_type": "relu"}, 
      "inputs": [[264, 0, 0]]
    }, 
    {
      "op": "Convolution", 
      "name": "resnetv22_stage2_conv4_fwd", 
      "attrs": {
        "dilate": "(1, 1)", 
        "kernel": "(3, 3)", 
        "layout": "NCHW", 
        "no_bias": "True", 
        "num_filter": "128", 
        "num_group": "1", 
        "pad": "(1, 1)", 
        "stride": "(1, 1)"
      }, 
      "inputs": [[265, 0, 0], [82, 0, 0]]
    }, 
    {
      "op": "elemwise_add", 
      "name": "resnetv22_stage2__plus1", 
      "inputs": [[266, 0, 0], [260, 0, 0]]
    }, 
    {
      "op": "BatchNorm", 
      "name": "resnetv22_stage3_batchnorm0_fwd", 
      "attrs": {
        "axis": "1", 
        "eps": "1e-05", 
        "fix_gamma": "False", 
        "momentum": "0.9", 
        "use_global_stats": "False"
      }, 
      "inputs": [[267, 0, 0], [85, 0, 0], [86, 0, 0], [87, 0, 2], [88, 0, 2]]
    }, 
    {
      "op": "Activation", 
      "name": "resnetv22_stage3_activation0", 
      "attrs": {"act_type": "relu"}, 
      "inputs": [[268, 0, 0]]
    }, 
    {
      "op": "Convolution", 
      "name": "resnetv22_stage3_conv0_fwd", 
      "attrs": {
        "dilate": "(1, 1)", 
        "kernel": "(3, 3)", 
        "layout": "NCHW", 
        "no_bias": "True", 
        "num_filter": "256", 
        "num_group": "1", 
        "pad": "(1, 1)", 
        "stride": "(2, 2)"
      }, 
      "inputs": [[269, 0, 0], [91, 0, 0]]
    }, 
    {
      "op": "BatchNorm", 
      "name": "resnetv22_stage3_batchnorm1_fwd", 
      "attrs": {
        "axis": "1", 
        "eps": "1e-05", 
        "fix_gamma": "False", 
        "momentum": "0.9", 
        "use_global_stats": "False"
      }, 
      "inputs": [[270, 0, 0], [93, 0, 0], [94, 0, 0], [95, 0, 2], [96, 0, 2]]
    }, 
    {
      "op": "Activation", 
      "name": "resnetv22_stage3_activation1", 
      "attrs": {"act_type": "relu"}, 
      "inputs": [[271, 0, 0]]
    }, 
    {
      "op": "Convolution", 
      "name": "resnetv22_stage3_conv1_fwd", 
      "attrs": {
        "dilate": "(1, 1)", 
        "kernel": "(3, 3)", 
        "layout": "NCHW", 
        "no_bias": "True", 
        "num_filter": "256", 
        "num_group": "1", 
        "pad": "(1, 1)", 
        "stride": "(1, 1)"
      }, 
      "inputs": [[272, 0, 0], [99, 0, 0]]
    }, 
    {
      "op": "Convolution", 
      "name": "resnetv22_stage3_conv2_fwd", 
      "attrs": {
        "dilate": "(1, 1)", 
        "kernel": "(1, 1)", 
        "layout": "NCHW", 
        "no_bias": "True", 
        "num_filter": "256", 
        "num_group": "1", 
        "pad": "(0, 0)", 
        "stride": "(2, 2)"
      }, 
      "inputs": [[269, 0, 0], [101, 0, 0]]
    }, 
    {
      "op": "elemwise_add", 
      "name": "resnetv22_stage3__plus0", 
      "inputs": [[273, 0, 0], [274, 0, 0]]
    }, 
    {
      "op": "BatchNorm", 
      "name": "resnetv22_stage3_batchnorm2_fwd", 
      "attrs": {
        "axis": "1", 
        "eps": "1e-05", 
        "fix_gamma": "False", 
        "momentum": "0.9", 
        "use_global_stats": "False"
      }, 
      "inputs": [[275, 0, 0], [104, 0, 0], [105, 0, 0], [106, 0, 2], [107, 0, 2]]
    }, 
    {
      "op": "Activation", 
      "name": "resnetv22_stage3_activation2", 
      "attrs": {"act_type": "relu"}, 
      "inputs": [[276, 0, 0]]
    }, 
    {
      "op": "Convolution", 
      "name": "resnetv22_stage3_conv3_fwd", 
      "attrs": {
        "dilate": "(1, 1)", 
        "kernel": "(3, 3)", 
        "layout": "NCHW", 
        "no_bias": "True", 
        "num_filter": "256", 
        "num_group": "1", 
        "pad": "(1, 1)", 
        "stride": "(1, 1)"
      }, 
      "inputs": [[277, 0, 0], [110, 0, 0]]
    }, 
    {
      "op": "BatchNorm", 
      "name": "resnetv22_stage3_batchnorm3_fwd", 
      "attrs": {
        "axis": "1", 
        "eps": "1e-05", 
        "fix_gamma": "False", 
        "momentum": "0.9", 
        "use_global_stats": "False"
      }, 
      "inputs": [[278, 0, 0], [112, 0, 0], [113, 0, 0], [114, 0, 2], [115, 0, 2]]
    }, 
    {
      "op": "Activation", 
      "name": "resnetv22_stage3_activation3", 
      "attrs": {"act_type": "relu"}, 
      "inputs": [[279, 0, 0]]
    }, 
    {
      "op": "Convolution", 
      "name": "resnetv22_stage3_conv4_fwd", 
      "attrs": {
        "dilate": "(1, 1)", 
        "kernel": "(3, 3)", 
        "layout": "NCHW", 
        "no_bias": "True", 
        "num_filter": "256", 
        "num_group": "1", 
        "pad": "(1, 1)", 
        "stride": "(1, 1)"
      }, 
      "inputs": [[280, 0, 0], [118, 0, 0]]
    }, 
    {
      "op": "elemwise_add", 
      "name": "resnetv22_stage3__plus1", 
      "inputs": [[281, 0, 0], [275, 0, 0]]
    }, 
    {
      "op": "BatchNorm", 
      "name": "resnetv22_stage4_batchnorm0_fwd", 
      "attrs": {
        "axis": "1", 
        "eps": "1e-05", 
        "fix_gamma": "False", 
        "momentum": "0.9", 
        "use_global_stats": "False"
      }, 
      "inputs": [[282, 0, 0], [121, 0, 0], [122, 0, 0], [123, 0, 2], [124, 0, 2]]
    }, 
    {
      "op": "Activation", 
      "name": "resnetv22_stage4_activation0", 
      "attrs": {"act_type": "relu"}, 
      "inputs": [[283, 0, 0]]
    }, 
    {
      "op": "Convolution", 
      "name": "resnetv22_stage4_conv0_fwd", 
      "attrs": {
        "dilate": "(1, 1)", 
        "kernel": "(3, 3)", 
        "layout": "NCHW", 
        "no_bias": "True", 
        "num_filter": "512", 
        "num_group": "1", 
        "pad": "(1, 1)", 
        "stride": "(2, 2)"
      }, 
      "inputs": [[284, 0, 0], [127, 0, 0]]
    }, 
    {
      "op": "BatchNorm", 
      "name": "resnetv22_stage4_batchnorm1_fwd", 
      "attrs": {
        "axis": "1", 
        "eps": "1e-05", 
        "fix_gamma": "False", 
        "momentum": "0.9", 
        "use_global_stats": "False"
      }, 
      "inputs": [[285, 0, 0], [129, 0, 0], [130, 0, 0], [131, 0, 2], [132, 0, 2]]
    }, 
    {
      "op": "Activation", 
      "name": "resnetv22_stage4_activation1", 
      "attrs": {"act_type": "relu"}, 
      "inputs": [[286, 0, 0]]
    }, 
    {
      "op": "Convolution", 
      "name": "resnetv22_stage4_conv1_fwd", 
      "attrs": {
        "dilate": "(1, 1)", 
        "kernel": "(3, 3)", 
        "layout": "NCHW", 
        "no_bias": "True", 
        "num_filter": "512", 
        "num_group": "1", 
        "pad": "(1, 1)", 
        "stride": "(1, 1)"
      }, 
      "inputs": [[287, 0, 0], [135, 0, 0]]
    }, 
    {
      "op": "Convolution", 
      "name": "resnetv22_stage4_conv2_fwd", 
      "attrs": {
        "dilate": "(1, 1)", 
        "kernel": "(1, 1)", 
        "layout": "NCHW", 
        "no_bias": "True", 
        "num_filter": "512", 
        "num_group": "1", 
        "pad": "(0, 0)", 
        "stride": "(2, 2)"
      }, 
      "inputs": [[284, 0, 0], [137, 0, 0]]
    }, 
    {
      "op": "elemwise_add", 
      "name": "resnetv22_stage4__plus0", 
      "inputs": [[288, 0, 0], [289, 0, 0]]
    }, 
    {
      "op": "BatchNorm", 
      "name": "resnetv22_stage4_batchnorm2_fwd", 
      "attrs": {
        "axis": "1", 
        "eps": "1e-05", 
        "fix_gamma": "False", 
        "momentum": "0.9", 
        "use_global_stats": "False"
      }, 
      "inputs": [[290, 0, 0], [140, 0, 0], [141, 0, 0], [142, 0, 2], [143, 0, 2]]
    }, 
    {
      "op": "Activation", 
      "name": "resnetv22_stage4_activation2", 
      "attrs": {"act_type": "relu"}, 
      "inputs": [[291, 0, 0]]
    }, 
    {
      "op": "Convolution", 
      "name": "resnetv22_stage4_conv3_fwd", 
      "attrs": {
        "dilate": "(1, 1)", 
        "kernel": "(3, 3)", 
        "layout": "NCHW", 
        "no_bias": "True", 
        "num_filter": "512", 
        "num_group": "1", 
        "pad": "(1, 1)", 
        "stride": "(1, 1)"
      }, 
      "inputs": [[292, 0, 0], [146, 0, 0]]
    }, 
    {
      "op": "BatchNorm", 
      "name": "resnetv22_stage4_batchnorm3_fwd", 
      "attrs": {
        "axis": "1", 
        "eps": "1e-05", 
        "fix_gamma": "False", 
        "momentum": "0.9", 
        "use_global_stats": "False"
      }, 
      "inputs": [[293, 0, 0], [148, 0, 0], [149, 0, 0], [150, 0, 2], [151, 0, 2]]
    }, 
    {
      "op": "Activation", 
      "name": "resnetv22_stage4_activation3", 
      "attrs": {"act_type": "relu"}, 
      "inputs": [[294, 0, 0]]
    }, 
    {
      "op": "Convolution", 
      "name": "resnetv22_stage4_conv4_fwd", 
      "attrs": {
        "dilate": "(1, 1)", 
        "kernel": "(3, 3)", 
        "layout": "NCHW", 
        "no_bias": "True", 
        "num_filter": "512", 
        "num_group": "1", 
        "pad": "(1, 1)", 
        "stride": "(1, 1)"
      }, 
      "inputs": [[295, 0, 0], [154, 0, 0]]
    }, 
    {
      "op": "elemwise_add", 
      "name": "resnetv22_stage4__plus1", 
      "inputs": [[296, 0, 0], [290, 0, 0]]
    }, 
    {
      "op": "BatchNorm", 
      "name": "resnetv22_batchnorm2_fwd", 
      "attrs": {
        "axis": "1", 
        "eps": "1e-05", 
        "fix_gamma": "False", 
        "momentum": "0.9", 
        "use_global_stats": "False"
      }, 
      "inputs": [[297, 0, 0], [157, 0, 0], [158, 0, 0], [159, 0, 2], [160, 0, 2]]
    }, 
    {
      "op": "Activation", 
      "name": "resnetv22_relu1_fwd", 
      "attrs": {"act_type": "relu"}, 
      "inputs": [[298, 0, 0]]
    }, 
    {
      "op": "Convolution", 
      "name": "resnetv22_lateral5fwd", 
      "attrs": {
        "dilate": "(1, 1)", 
        "kernel": "(1, 1)", 
        "layout": "NCHW", 
        "no_bias": "True", 
        "num_filter": "256", 
        "num_group": "1", 
        "pad": "(0, 0)", 
        "stride": "(1, 1)"
      }, 
      "inputs": [[299, 0, 0], [163, 0, 0]]
    }, 
    {
      "op": "UpSampling", 
      "name": "resnetv22_upsampling0", 
      "attrs": {
        "num_args": "1", 
        "sample_type": "nearest", 
        "scale": "2"
      }, 
      "inputs": [[300, 0, 0]]
    }, 
    {
      "op": "Convolution", 
      "name": "resnetv22_lateral4fwd", 
      "attrs": {
        "dilate": "(1, 1)", 
        "kernel": "(1, 1)", 
        "layout": "NCHW", 
        "no_bias": "True", 
        "num_filter": "256", 
        "num_group": "1", 
        "pad": "(0, 0)", 
        "stride": "(1, 1)"
      }, 
      "inputs": [[282, 0, 0], [166, 0, 0]]
    }, 
    {
      "op": "elemwise_add", 
      "name": "resnetv22__plus0", 
      "inputs": [[301, 0, 0], [302, 0, 0]]
    }, 
    {
      "op": "UpSampling", 
      "name": "resnetv22_upsampling1", 
      "attrs": {
        "num_args": "1", 
        "sample_type": "nearest", 
        "scale": "2"
      }, 
      "inputs": [[303, 0, 0]]
    }, 
    {
      "op": "Convolution", 
      "name": "resnetv22_lateral3fwd", 
      "attrs": {
        "dilate": "(1, 1)", 
        "kernel": "(1, 1)", 
        "layout": "NCHW", 
        "no_bias": "True", 
        "num_filter": "256", 
        "num_group": "1", 
        "pad": "(0, 0)", 
        "stride": "(1, 1)"
      }, 
      "inputs": [[267, 0, 0], [170, 0, 0]]
    }, 
    {
      "op": "elemwise_add", 
      "name": "resnetv22__plus1", 
      "inputs": [[304, 0, 0], [305, 0, 0]]
    }, 
    {
      "op": "null", 
      "name": "retinanet0_convpredictor1_conv0_weight", 
      "attrs": {
        "__dtype__": "0", 
        "__init__": "[\"normal\", {\"sigma\": 0.01}]", 
        "__lr_mult__": "1.0", 
        "__shape__": "(256, 0, 3, 3)", 
        "__storage_type__": "0", 
        "__wd_mult__": "1.0"
      }, 
      "inputs": []
    }, 
    {
      "op": "null", 
      "name": "retinanet0_convpredictor1_conv0_bias", 
      "attrs": {
        "__dtype__": "0", 
        "__init__": "zeros", 
        "__lr_mult__": "1.0", 
        "__shape__": "(256,)", 
        "__storage_type__": "0", 
        "__wd_mult__": "1.0"
      }, 
      "inputs": []
    }, 
    {
      "op": "Convolution", 
      "name": "retinanet0_convpredictor1_conv0_fwd", 
      "attrs": {
        "dilate": "(1, 1)", 
        "kernel": "(3, 3)", 
        "layout": "NCHW", 
        "no_bias": "False", 
        "num_filter": "256", 
        "num_group": "1", 
        "pad": "(1, 1)", 
        "stride": "(1, 1)"
      }, 
      "inputs": [[306, 0, 0], [307, 0, 0], [308, 0, 0]]
    }, 
    {
      "op": "Activation", 
      "name": "retinanet0_convpredictor1_conv0_relu_fwd", 
      "attrs": {"act_type": "relu"}, 
      "inputs": [[309, 0, 0]]
    }, 
    {
      "op": "null", 
      "name": "retinanet0_convpredictor3_conv0_weight", 
      "attrs": {
        "__dtype__": "0", 
        "__init__": "[\"normal\", {\"sigma\": 0.01}]", 
        "__lr_mult__": "1.0", 
        "__shape__": "(256, 0, 3, 3)", 
        "__storage_type__": "0", 
        "__wd_mult__": "1.0"
      }, 
      "inputs": []
    }, 
    {
      "op": "null", 
      "name": "retinanet0_convpredictor3_conv0_bias", 
      "attrs": {
        "__dtype__": "0", 
        "__init__": "zeros", 
        "__lr_mult__": "1.0", 
        "__shape__": "(256,)", 
        "__storage_type__": "0", 
        "__wd_mult__": "1.0"
      }, 
      "inputs": []
    }, 
    {
      "op": "Convolution", 
      "name": "retinanet0_convpredictor3_conv0_fwd", 
      "attrs": {
        "dilate": "(1, 1)", 
        "kernel": "(3, 3)", 
        "layout": "NCHW", 
        "no_bias": "False", 
        "num_filter": "256", 
        "num_group": "1", 
        "pad": "(1, 1)", 
        "stride": "(1, 1)"
      }, 
      "inputs": [[310, 0, 0], [311, 0, 0], [312, 0, 0]]
    }, 
    {
      "op": "Activation", 
      "name": "retinanet0_convpredictor3_conv0_relu_fwd", 
      "attrs": {"act_type": "relu"}, 
      "inputs": [[313, 0, 0]]
    }, 
    {
      "op": "null", 
      "name": "retinanet0_convpredictor5_conv0_weight", 
      "attrs": {
        "__dtype__": "0", 
        "__init__": "[\"normal\", {\"sigma\": 0.01}]", 
        "__lr_mult__": "1.0", 
        "__shape__": "(256, 0, 3, 3)", 
        "__storage_type__": "0", 
        "__wd_mult__": "1.0"
      }, 
      "inputs": []
    }, 
    {
      "op": "null", 
      "name": "retinanet0_convpredictor5_conv0_bias", 
      "attrs": {
        "__dtype__": "0", 
        "__init__": "zeros", 
        "__lr_mult__": "1.0", 
        "__shape__": "(256,)", 
        "__storage_type__": "0", 
        "__wd_mult__": "1.0"
      }, 
      "inputs": []
    }, 
    {
      "op": "Convolution", 
      "name": "retinanet0_convpredictor5_conv0_fwd", 
      "attrs": {
        "dilate": "(1, 1)", 
        "kernel": "(3, 3)", 
        "layout": "NCHW", 
        "no_bias": "False", 
        "num_filter": "256", 
        "num_group": "1", 
        "pad": "(1, 1)", 
        "stride": "(1, 1)"
      }, 
      "inputs": [[314, 0, 0], [315, 0, 0], [316, 0, 0]]
    }, 
    {
      "op": "Activation", 
      "name": "retinanet0_convpredictor5_conv0_relu_fwd", 
      "attrs": {"act_type": "relu"}, 
      "inputs": [[317, 0, 0]]
    }, 
    {
      "op": "null", 
      "name": "retinanet0_convpredictor7_conv0_weight", 
      "attrs": {
        "__dtype__": "0", 
        "__init__": "[\"normal\", {\"sigma\": 0.01}]", 
        "__lr_mult__": "1.0", 
        "__shape__": "(36, 0, 3, 3)", 
        "__storage_type__": "0", 
        "__wd_mult__": "1.0"
      }, 
      "inputs": []
    }, 
    {
      "op": "null", 
      "name": "retinanet0_convpredictor7_conv0_bias", 
      "attrs": {
        "__dtype__": "0", 
        "__init__": "zeros", 
        "__lr_mult__": "1.0", 
        "__shape__": "(36,)", 
        "__storage_type__": "0", 
        "__wd_mult__": "1.0"
      }, 
      "inputs": []
    }, 
    {
      "op": "Convolution", 
      "name": "retinanet0_convpredictor7_conv0_fwd", 
      "attrs": {
        "dilate": "(1, 1)", 
        "kernel": "(3, 3)", 
        "layout": "NCHW", 
        "no_bias": "False", 
        "num_filter": "36", 
        "num_group": "1", 
        "pad": "(1, 1)", 
        "stride": "(1, 1)"
      }, 
      "inputs": [[318, 0, 0], [319, 0, 0], [320, 0, 0]]
    }, 
    {
      "op": "transpose", 
      "name": "retinanet0_transpose5", 
      "attrs": {"axes": "(0, 2, 3, 1)"}, 
      "inputs": [[321, 0, 0]]
    }, 
    {
      "op": "Flatten", 
      "name": "retinanet0_flatten5", 
      "inputs": [[322, 0, 0]]
    }, 
    {
      "op": "Convolution", 
      "name": "retinanet0_convpredictor1_conv0_fwd", 
      "attrs": {
        "dilate": "(1, 1)", 
        "kernel": "(3, 3)", 
        "layout": "NCHW", 
        "no_bias": "False", 
        "num_filter": "256", 
        "num_group": "1", 
        "pad": "(1, 1)", 
        "stride": "(1, 1)"
      }, 
      "inputs": [[303, 0, 0], [307, 0, 0], [308, 0, 0]]
    }, 
    {
      "op": "Activation", 
      "name": "retinanet0_convpredictor1_conv0_relu_fwd", 
      "attrs": {"act_type": "relu"}, 
      "inputs": [[324, 0, 0]]
    }, 
    {
      "op": "Convolution", 
      "name": "retinanet0_convpredictor3_conv0_fwd", 
      "attrs": {
        "dilate": "(1, 1)", 
        "kernel": "(3, 3)", 
        "layout": "NCHW", 
        "no_bias": "False", 
        "num_filter": "256", 
        "num_group": "1", 
        "pad": "(1, 1)", 
        "stride": "(1, 1)"
      }, 
      "inputs": [[325, 0, 0], [311, 0, 0], [312, 0, 0]]
    }, 
    {
      "op": "Activation", 
      "name": "retinanet0_convpredictor3_conv0_relu_fwd", 
      "attrs": {"act_type": "relu"}, 
      "inputs": [[326, 0, 0]]
    }, 
    {
      "op": "Convolution", 
      "name": "retinanet0_convpredictor5_conv0_fwd", 
      "attrs": {
        "dilate": "(1, 1)", 
        "kernel": "(3, 3)", 
        "layout": "NCHW", 
        "no_bias": "False", 
        "num_filter": "256", 
        "num_group": "1", 
        "pad": "(1, 1)", 
        "stride": "(1, 1)"
      }, 
      "inputs": [[327, 0, 0], [315, 0, 0], [316, 0, 0]]
    }, 
    {
      "op": "Activation", 
      "name": "retinanet0_convpredictor5_conv0_relu_fwd", 
      "attrs": {"act_type": "relu"}, 
      "inputs": [[328, 0, 0]]
    }, 
    {
      "op": "Convolution", 
      "name": "retinanet0_convpredictor7_conv0_fwd", 
      "attrs": {
        "dilate": "(1, 1)", 
        "kernel": "(3, 3)", 
        "layout": "NCHW", 
        "no_bias": "False", 
        "num_filter": "36", 
        "num_group": "1", 
        "pad": "(1, 1)", 
        "stride": "(1, 1)"
      }, 
      "inputs": [[329, 0, 0], [319, 0, 0], [320, 0, 0]]
    }, 
    {
      "op": "transpose", 
      "name": "retinanet0_transpose6", 
      "attrs": {"axes": "(0, 2, 3, 1)"}, 
      "inputs": [[330, 0, 0]]
    }, 
    {
      "op": "Flatten", 
      "name": "retinanet0_flatten6", 
      "inputs": [[331, 0, 0]]
    }, 
    {
      "op": "Convolution", 
      "name": "retinanet0_convpredictor1_conv0_fwd", 
      "attrs": {
        "dilate": "(1, 1)", 
        "kernel": "(3, 3)", 
        "layout": "NCHW", 
        "no_bias": "False", 
        "num_filter": "256", 
        "num_group": "1", 
        "pad": "(1, 1)", 
        "stride": "(1, 1)"
      }, 
      "inputs": [[300, 0, 0], [307, 0, 0], [308, 0, 0]]
    }, 
    {
      "op": "Activation", 
      "name": "retinanet0_convpredictor1_conv0_relu_fwd", 
      "attrs": {"act_type": "relu"}, 
      "inputs": [[333, 0, 0]]
    }, 
    {
      "op": "Convolution", 
      "name": "retinanet0_convpredictor3_conv0_fwd", 
      "attrs": {
        "dilate": "(1, 1)", 
        "kernel": "(3, 3)", 
        "layout": "NCHW", 
        "no_bias": "False", 
        "num_filter": "256", 
        "num_group": "1", 
        "pad": "(1, 1)", 
        "stride": "(1, 1)"
      }, 
      "inputs": [[334, 0, 0], [311, 0, 0], [312, 0, 0]]
    }, 
    {
      "op": "Activation", 
      "name": "retinanet0_convpredictor3_conv0_relu_fwd", 
      "attrs": {"act_type": "relu"}, 
      "inputs": [[335, 0, 0]]
    }, 
    {
      "op": "Convolution", 
      "name": "retinanet0_convpredictor5_conv0_fwd", 
      "attrs": {
        "dilate": "(1, 1)", 
        "kernel": "(3, 3)", 
        "layout": "NCHW", 
        "no_bias": "False", 
        "num_filter": "256", 
        "num_group": "1", 
        "pad": "(1, 1)", 
        "stride": "(1, 1)"
      }, 
      "inputs": [[336, 0, 0], [315, 0, 0], [316, 0, 0]]
    }, 
    {
      "op": "Activation", 
      "name": "retinanet0_convpredictor5_conv0_relu_fwd", 
      "attrs": {"act_type": "relu"}, 
      "inputs": [[337, 0, 0]]
    }, 
    {
      "op": "Convolution", 
      "name": "retinanet0_convpredictor7_conv0_fwd", 
      "attrs": {
        "dilate": "(1, 1)", 
        "kernel": "(3, 3)", 
        "layout": "NCHW", 
        "no_bias": "False", 
        "num_filter": "36", 
        "num_group": "1", 
        "pad": "(1, 1)", 
        "stride": "(1, 1)"
      }, 
      "inputs": [[338, 0, 0], [319, 0, 0], [320, 0, 0]]
    }, 
    {
      "op": "transpose", 
      "name": "retinanet0_transpose7", 
      "attrs": {"axes": "(0, 2, 3, 1)"}, 
      "inputs": [[339, 0, 0]]
    }, 
    {
      "op": "Flatten", 
      "name": "retinanet0_flatten7", 
      "inputs": [[340, 0, 0]]
    }, 
    {
      "op": "Convolution", 
      "name": "resnetv22_extraconv1fwd", 
      "attrs": {
        "dilate": "(1, 1)", 
        "kernel": "(3, 3)", 
        "layout": "NCHW", 
        "no_bias": "True", 
        "num_filter": "256", 
        "num_group": "1", 
        "pad": "(1, 1)", 
        "stride": "(2, 2)"
      }, 
      "inputs": [[299, 0, 0], [208, 0, 0]]
    }, 
    {
      "op": "Convolution", 
      "name": "retinanet0_convpredictor1_conv0_fwd", 
      "attrs": {
        "dilate": "(1, 1)", 
        "kernel": "(3, 3)", 
        "layout": "NCHW", 
        "no_bias": "False", 
        "num_filter": "256", 
        "num_group": "1", 
        "pad": "(1, 1)", 
        "stride": "(1, 1)"
      }, 
      "inputs": [[342, 0, 0], [307, 0, 0], [308, 0, 0]]
    }, 
    {
      "op": "Activation", 
      "name": "retinanet0_convpredictor1_conv0_relu_fwd", 
      "attrs": {"act_type": "relu"}, 
      "inputs": [[343, 0, 0]]
    }, 
    {
      "op": "Convolution", 
      "name": "retinanet0_convpredictor3_conv0_fwd", 
      "attrs": {
        "dilate": "(1, 1)", 
        "kernel": "(3, 3)", 
        "layout": "NCHW", 
        "no_bias": "False", 
        "num_filter": "256", 
        "num_group": "1", 
        "pad": "(1, 1)", 
        "stride": "(1, 1)"
      }, 
      "inputs": [[344, 0, 0], [311, 0, 0], [312, 0, 0]]
    }, 
    {
      "op": "Activation", 
      "name": "retinanet0_convpredictor3_conv0_relu_fwd", 
      "attrs": {"act_type": "relu"}, 
      "inputs": [[345, 0, 0]]
    }, 
    {
      "op": "Convolution", 
      "name": "retinanet0_convpredictor5_conv0_fwd", 
      "attrs": {
        "dilate": "(1, 1)", 
        "kernel": "(3, 3)", 
        "layout": "NCHW", 
        "no_bias": "False", 
        "num_filter": "256", 
        "num_group": "1", 
        "pad": "(1, 1)", 
        "stride": "(1, 1)"
      }, 
      "inputs": [[346, 0, 0], [315, 0, 0], [316, 0, 0]]
    }, 
    {
      "op": "Activation", 
      "name": "retinanet0_convpredictor5_conv0_relu_fwd", 
      "attrs": {"act_type": "relu"}, 
      "inputs": [[347, 0, 0]]
    }, 
    {
      "op": "Convolution", 
      "name": "retinanet0_convpredictor7_conv0_fwd", 
      "attrs": {
        "dilate": "(1, 1)", 
        "kernel": "(3, 3)", 
        "layout": "NCHW", 
        "no_bias": "False", 
        "num_filter": "36", 
        "num_group": "1", 
        "pad": "(1, 1)", 
        "stride": "(1, 1)"
      }, 
      "inputs": [[348, 0, 0], [319, 0, 0], [320, 0, 0]]
    }, 
    {
      "op": "transpose", 
      "name": "retinanet0_transpose8", 
      "attrs": {"axes": "(0, 2, 3, 1)"}, 
      "inputs": [[349, 0, 0]]
    }, 
    {
      "op": "Flatten", 
      "name": "retinanet0_flatten8", 
      "inputs": [[350, 0, 0]]
    }, 
    {
      "op": "Activation", 
      "name": "resnetv22_relu2_fwd", 
      "attrs": {"act_type": "relu"}, 
      "inputs": [[342, 0, 0]]
    }, 
    {
      "op": "Convolution", 
      "name": "resnetv22_extraconv2fwd", 
      "attrs": {
        "dilate": "(1, 1)", 
        "kernel": "(3, 3)", 
        "layout": "NCHW", 
        "no_bias": "True", 
        "num_filter": "256", 
        "num_group": "1", 
        "pad": "(1, 1)", 
        "stride": "(2, 2)"
      }, 
      "inputs": [[352, 0, 0], [220, 0, 0]]
    }, 
    {
      "op": "Activation", 
      "name": "resnetv22_extraconv2relu_fwd", 
      "attrs": {"act_type": "relu"}, 
      "inputs": [[353, 0, 0]]
    }, 
    {
      "op": "Convolution", 
      "name": "retinanet0_convpredictor1_conv0_fwd", 
      "attrs": {
        "dilate": "(1, 1)", 
        "kernel": "(3, 3)", 
        "layout": "NCHW", 
        "no_bias": "False", 
        "num_filter": "256", 
        "num_group": "1", 
        "pad": "(1, 1)", 
        "stride": "(1, 1)"
      }, 
      "inputs": [[354, 0, 0], [307, 0, 0], [308, 0, 0]]
    }, 
    {
      "op": "Activation", 
      "name": "retinanet0_convpredictor1_conv0_relu_fwd", 
      "attrs": {"act_type": "relu"}, 
      "inputs": [[355, 0, 0]]
    }, 
    {
      "op": "Convolution", 
      "name": "retinanet0_convpredictor3_conv0_fwd", 
      "attrs": {
        "dilate": "(1, 1)", 
        "kernel": "(3, 3)", 
        "layout": "NCHW", 
        "no_bias": "False", 
        "num_filter": "256", 
        "num_group": "1", 
        "pad": "(1, 1)", 
        "stride": "(1, 1)"
      }, 
      "inputs": [[356, 0, 0], [311, 0, 0], [312, 0, 0]]
    }, 
    {
      "op": "Activation", 
      "name": "retinanet0_convpredictor3_conv0_relu_fwd", 
      "attrs": {"act_type": "relu"}, 
      "inputs": [[357, 0, 0]]
    }, 
    {
      "op": "Convolution", 
      "name": "retinanet0_convpredictor5_conv0_fwd", 
      "attrs": {
        "dilate": "(1, 1)", 
        "kernel": "(3, 3)", 
        "layout": "NCHW", 
        "no_bias": "False", 
        "num_filter": "256", 
        "num_group": "1", 
        "pad": "(1, 1)", 
        "stride": "(1, 1)"
      }, 
      "inputs": [[358, 0, 0], [315, 0, 0], [316, 0, 0]]
    }, 
    {
      "op": "Activation", 
      "name": "retinanet0_convpredictor5_conv0_relu_fwd", 
      "attrs": {"act_type": "relu"}, 
      "inputs": [[359, 0, 0]]
    }, 
    {
      "op": "Convolution", 
      "name": "retinanet0_convpredictor7_conv0_fwd", 
      "attrs": {
        "dilate": "(1, 1)", 
        "kernel": "(3, 3)", 
        "layout": "NCHW", 
        "no_bias": "False", 
        "num_filter": "36", 
        "num_group": "1", 
        "pad": "(1, 1)", 
        "stride": "(1, 1)"
      }, 
      "inputs": [[360, 0, 0], [319, 0, 0], [320, 0, 0]]
    }, 
    {
      "op": "transpose", 
      "name": "retinanet0_transpose9", 
      "attrs": {"axes": "(0, 2, 3, 1)"}, 
      "inputs": [[361, 0, 0]]
    }, 
    {
      "op": "Flatten", 
      "name": "retinanet0_flatten9", 
      "inputs": [[362, 0, 0]]
    }, 
    {
      "op": "Concat", 
      "name": "retinanet0_concat1", 
      "attrs": {
        "dim": "-1", 
        "num_args": "5"
      }, 
      "inputs": [[323, 0, 0], [332, 0, 0], [341, 0, 0], [351, 0, 0], [363, 0, 0]]
    }, 
    {
      "op": "Reshape", 
      "name": "retinanet0_reshape1", 
      "attrs": {"shape": "(0, -1, 4)"}, 
      "inputs": [[364, 0, 0]]
    }, 
    {
      "op": "null", 
      "name": "retinanet0_retinaanchorgenerator0_anchor_0", 
      "attrs": {
        "__dtype__": "0", 
        "__init__": "Constant_retinanet0_retinaanchorgenerator0_anchor_0_140237046223824", 
        "__lr_mult__": "1.0", 
        "__shape__": "(18432, 4)", 
        "__storage_type__": "0", 
        "__wd_mult__": "1.0"
      }, 
      "inputs": []
    }, 
    {
      "op": "null", 
      "name": "retinanet0_retinaanchorgenerator1_anchor_1", 
      "attrs": {
        "__dtype__": "0", 
        "__init__": "Constant_retinanet0_retinaanchorgenerator1_anchor_1_140237046055888", 
        "__lr_mult__": "1.0", 
        "__shape__": "(4608, 4)", 
        "__storage_type__": "0", 
        "__wd_mult__": "1.0"
      }, 
      "inputs": []
    }, 
    {
      "op": "null", 
      "name": "retinanet0_retinaanchorgenerator2_anchor_2", 
      "attrs": {
        "__dtype__": "0", 
        "__init__": "Constant_retinanet0_retinaanchorgenerator2_anchor_2_140237046059792", 
        "__lr_mult__": "1.0", 
        "__shape__": "(1152, 4)", 
        "__storage_type__": "0", 
        "__wd_mult__": "1.0"
      }, 
      "inputs": []
    }, 
    {
      "op": "null", 
      "name": "retinanet0_retinaanchorgenerator3_anchor_3", 
      "attrs": {
        "__dtype__": "0", 
        "__init__": "Constant_retinanet0_retinaanchorgenerator3_anchor_3_140237046060304", 
        "__lr_mult__": "1.0", 
        "__shape__": "(288, 4)", 
        "__storage_type__": "0", 
        "__wd_mult__": "1.0"
      }, 
      "inputs": []
    }, 
    {
      "op": "null", 
      "name": "retinanet0_retinaanchorgenerator4_anchor_4", 
      "attrs": {
        "__dtype__": "0", 
        "__init__": "Constant_retinanet0_retinaanchorgenerator4_anchor_4_140237046060688", 
        "__lr_mult__": "1.0", 
        "__shape__": "(72, 4)", 
        "__storage_type__": "0", 
        "__wd_mult__": "1.0"
      }, 
      "inputs": []
    }, 
    {
      "op": "Concat", 
      "name": "retinanet0_concat2", 
      "attrs": {
        "dim": "0", 
        "num_args": "5"
      }, 
      "inputs": [[366, 0, 0], [367, 0, 0], [368, 0, 0], [369, 0, 0], [370, 0, 0]]
    }, 
    {
      "op": "Reshape", 
      "name": "retinanet0_reshape2", 
      "attrs": {"shape": "(1, -1, 4)"}, 
      "inputs": [[371, 0, 0]]
    }
  ], 
  "arg_nodes": [
    0, 
    1, 
    2, 
    3, 
    4, 
    6, 
    8, 
    9, 
    10, 
    11, 
    15, 
    16, 
    17, 
    18, 
    21, 
    23, 
    24, 
    25, 
    26, 
    29, 
    32, 
    33, 
    34, 
    35, 
    38, 
    40, 
    41, 
    42, 
    43, 
    46, 
    49, 
    50, 
    51, 
    52, 
    55, 
    57, 
    58, 
    59, 
    60, 
    63, 
    65, 
    68, 
    69, 
    70, 
    71, 
    74, 
    76, 
    77, 
    78, 
    79, 
    82, 
    85, 
    86, 
    87, 
    88, 
    91, 
    93, 
    94, 
    95, 
    96, 
    99, 
    101, 
    104, 
    105, 
    106, 
    107, 
    110, 
    112, 
    113, 
    114, 
    115, 
    118, 
    121, 
    122, 
    123, 
    124, 
    127, 
    129, 
    130, 
    131, 
    132, 
    135, 
    137, 
    140, 
    141, 
    142, 
    143, 
    146, 
    148, 
    149, 
    150, 
    151, 
    154, 
    157, 
    158, 
    159, 
    160, 
    163, 
    166, 
    170, 
    173, 
    174, 
    177, 
    178, 
    181, 
    182, 
    185, 
    186, 
    208, 
    220, 
    307, 
    308, 
    311, 
    312, 
    315, 
    316, 
    319, 
    320, 
    366, 
    367, 
    368, 
    369, 
    370
  ], 
  "node_row_ptr": [
    0, 
    1, 
    2, 
    3, 
    4, 
    5, 
    8, 
    9, 
    10, 
    11, 
    12, 
    13, 
    14, 
    17, 
    18, 
    19, 
    20, 
    21, 
    22, 
    23, 
    26, 
    27, 
    28, 
    29, 
    30, 
    31, 
    32, 
    33, 
    36, 
    37, 
    38, 
    39, 
    40, 
    41, 
    42, 
    43, 
    44, 
    47, 
    48, 
    49, 
    50, 
    51, 
    52, 
    53, 
    54, 
    57, 
    58, 
    59, 
    60, 
    61, 
    62, 
    63, 
    64, 
    65, 
    68, 
    69, 
    70, 
    71, 
    72, 
    73, 
    74, 
    75, 
    78, 
    79, 
    80, 
    81, 
    82, 
    83, 
    84, 
    85, 
    86, 
    87, 
    88, 
    91, 
    92, 
    93, 
    94, 
    95, 
    96, 
    97, 
    98, 
    101, 
    102, 
    103, 
    104, 
    105, 
    106, 
    107, 
    108, 
    109, 
    112, 
    113, 
    114, 
    115, 
    116, 
    117, 
    118, 
    119, 
    122, 
    123, 
    124, 
    125, 
    126, 
    127, 
    128, 
    129, 
    130, 
    131, 
    132, 
    135, 
    136, 
    137, 
    138, 
    139, 
    140, 
    141, 
    142, 
    145, 
    146, 
    147, 
    148, 
    149, 
    150, 
    151, 
    152, 
    153, 
    156, 
    157, 
    158, 
    159, 
    160, 
    161, 
    162, 
    163, 
    166, 
    167, 
    168, 
    169, 
    170, 
    171, 
    172, 
    173, 
    174, 
    175, 
    176, 
    179, 
    180, 
    181, 
    182, 
    183, 
    184, 
    185, 
    186, 
    189, 
    190, 
    191, 
    192, 
    193, 
    194, 
    195, 
    196, 
    197, 
    200, 
    201, 
    202, 
    203, 
    204, 
    205, 
    206, 
    207, 
    208, 
    209, 
    210, 
    211, 
    212, 
    213, 
    214, 
    215, 
    216, 
    217, 
    218, 
    219, 
    220, 
    221, 
    222, 
    223, 
    224, 
    225, 
    226, 
    227, 
    228, 
    229, 
    230, 
    231, 
    232, 
    233, 
    234, 
    235, 
    236, 
    237, 
    238, 
    239, 
    240, 
    241, 
    242, 
    243, 
    244, 
    245, 
    246, 
    247, 
    248, 
    249, 
    250, 
    251, 
    252, 
    253, 
    254, 
    255, 
    256, 
    257, 
    258, 
    259, 
    260, 
    261, 
    262, 
    263, 
    264, 
    265, 
    266, 
    267, 
    268, 
    269, 
    270, 
    271, 
    272, 
    275, 
    276, 
    279, 
    280, 
    281, 
    284, 
    285, 
    286, 
    289, 
    290, 
    291, 
    292, 
    295, 
    296, 
    297, 
    300, 
    301, 
    302, 
    303, 
    306, 
    307, 
    308, 
    311, 
    312, 
    313, 
    314, 
    315, 
    318, 
    319, 
    320, 
    323, 
    324, 
    325, 
    326, 
    329, 
    330, 
    331, 
    334, 
    335, 
    336, 
    337, 
    338, 
    341, 
    342, 
    343, 
    346, 
    347, 
    348, 
    349, 
    352, 
    353, 
    354, 
    357, 
    358, 
    359, 
    360, 
    361, 
    364, 
    365, 
    366, 
    369, 
    370, 
    371, 
    372, 
    375, 
    376, 
    377, 
    378, 
    379, 
    380, 
    381, 
    382, 
    383, 
    384, 
    385, 
    386, 
    387, 
    388, 
    389, 
    390, 
    391, 
    392, 
    393, 
    394, 
    395, 
    396, 
    397, 
    398, 
    399, 
    400, 
    401, 
    402, 
    403, 
    404, 
    405, 
    406, 
    407, 
    408, 
    409, 
    410, 
    411, 
    412, 
    413, 
    414, 
    415, 
    416, 
    417, 
    418, 
    419, 
    420, 
    421, 
    422, 
    423, 
    424, 
    425, 
    426, 
    427, 
    428, 
    429, 
    430, 
    431, 
    432, 
    433, 
    434, 
    435, 
    436, 
    437, 
    438, 
    439, 
    440, 
    441, 
    442, 
    443, 
    444, 
    445, 
    446, 
    447, 
    448, 
    449
  ], 
  "heads": [[233, 0, 0], [365, 0, 0], [372, 0, 0]], 
  "attrs": {"mxnet_version": ["int", 10501]}
}