{
  "nodes": [
    {
      "op": "null", 
      "name": "data", 
      "inputs": []
    }, 
    {
      "op": "null", 
      "name": "vggatrousextractor2_init_scale", 
      "attrs": {
        "__dtype__": "0", 
        "__init__": "Constant_vggatrousextractor2_init_scale_140241085932752", 
        "__lr_mult__": "1.0", 
        "__shape__": "(1, 3, 1, 1)", 
        "__storage_type__": "0", 
        "__wd_mult__": "1.0"
      }, 
      "inputs": []
    }, 
    {
      "op": "amp_multicast", 
      "name": "vggatrousextractor2_amp_multicast0", 
      "attrs": {"num_outputs": "2"}, 
      "inputs": [[0, 0, 0], [1, 0, 0]]
    }, 
    {
      "op": "broadcast_mul", 
      "name": "vggatrousextractor2_broadcast_mul0", 
      "inputs": [[2, 0, 0], [2, 1, 0]]
    }, 
    {
      "op": "amp_cast", 
      "name": "vggatrousextractor2_conv0_amp_cast0", 
      "attrs": {"dtype": "float16"}, 
      "inputs": [[3, 0, 0]]
    }, 
    {
      "op": "null", 
      "name": "vggatrousextractor2_conv0_weight", 
      "attrs": {
        "__dtype__": "0", 
        "__init__": "[\"xavier\", {\"rnd_type\": \"gaussian\", \"factor_type\": \"out\", \"magnitude\": 3}]", 
        "__lr_mult__": "1.0", 
        "__shape__": "(64, 3, 3, 3)", 
        "__storage_type__": "0", 
        "__wd_mult__": "1.0"
      }, 
      "inputs": []
    }, 
    {
      "op": "amp_cast", 
      "name": "vggatrousextractor2_conv0_amp_cast1", 
      "attrs": {"dtype": "float16"}, 
      "inputs": [[5, 0, 0]]
    }, 
    {
      "op": "null", 
      "name": "vggatrousextractor2_conv0_bias", 
      "attrs": {
        "__dtype__": "0", 
        "__init__": "zeros", 
        "__lr_mult__": "1.0", 
        "__shape__": "(64,)", 
        "__storage_type__": "0", 
        "__wd_mult__": "1.0"
      }, 
      "inputs": []
    }, 
    {
      "op": "amp_cast", 
      "name": "vggatrousextractor2_conv0_amp_cast2", 
      "attrs": {"dtype": "float16"}, 
      "inputs": [[7, 0, 0]]
    }, 
    {
      "op": "Convolution", 
      "name": "vggatrousextractor2_conv0_fwd", 
      "attrs": {
        "dilate": "(1, 1)", 
        "kernel": "(3, 3)", 
        "layout": "NCHW", 
        "no_bias": "False", 
        "num_filter": "64", 
        "num_group": "1", 
        "pad": "(1, 1)", 
        "stride": "(1, 1)"
      }, 
      "inputs": [[4, 0, 0], [6, 0, 0], [8, 0, 0]]
    }, 
    {
      "op": "Activation", 
      "name": "vggatrousextractor2_relu0_fwd", 
      "attrs": {"act_type": "relu"}, 
      "inputs": [[9, 0, 0]]
    }, 
    {
      "op": "amp_cast", 
      "name": "vggatrousextractor2_conv1_amp_cast0", 
      "attrs": {"dtype": "float16"}, 
      "inputs": [[10, 0, 0]]
    }, 
    {
      "op": "null", 
      "name": "vggatrousextractor2_conv1_weight", 
      "attrs": {
        "__dtype__": "0", 
        "__init__": "[\"xavier\", {\"rnd_type\": \"gaussian\", \"factor_type\": \"out\", \"magnitude\": 3}]", 
        "__lr_mult__": "1.0", 
        "__shape__": "(64, 64, 3, 3)", 
        "__storage_type__": "0", 
        "__wd_mult__": "1.0"
      }, 
      "inputs": []
    }, 
    {
      "op": "amp_cast", 
      "name": "vggatrousextractor2_conv1_amp_cast1", 
      "attrs": {"dtype": "float16"}, 
      "inputs": [[12, 0, 0]]
    }, 
    {
      "op": "null", 
      "name": "vggatrousextractor2_conv1_bias", 
      "attrs": {
        "__dtype__": "0", 
        "__init__": "zeros", 
        "__lr_mult__": "1.0", 
        "__shape__": "(64,)", 
        "__storage_type__": "0", 
        "__wd_mult__": "1.0"
      }, 
      "inputs": []
    }, 
    {
      "op": "amp_cast", 
      "name": "vggatrousextractor2_conv1_amp_cast2", 
      "attrs": {"dtype": "float16"}, 
      "inputs": [[14, 0, 0]]
    }, 
    {
      "op": "Convolution", 
      "name": "vggatrousextractor2_conv1_fwd", 
      "attrs": {
        "dilate": "(1, 1)", 
        "kernel": "(3, 3)", 
        "layout": "NCHW", 
        "no_bias": "False", 
        "num_filter": "64", 
        "num_group": "1", 
        "pad": "(1, 1)", 
        "stride": "(1, 1)"
      }, 
      "inputs": [[11, 0, 0], [13, 0, 0], [15, 0, 0]]
    }, 
    {
      "op": "Activation", 
      "name": "vggatrousextractor2_relu1_fwd", 
      "attrs": {"act_type": "relu"}, 
      "inputs": [[16, 0, 0]]
    }, 
    {
      "op": "Pooling", 
      "name": "vggatrousextractor2_pooling0", 
      "attrs": {
        "kernel": "(2, 2)", 
        "pool_type": "max", 
        "pooling_convention": "valid", 
        "stride": "(2, 2)"
      }, 
      "inputs": [[17, 0, 0]]
    }, 
    {
      "op": "amp_cast", 
      "name": "vggatrousextractor2_conv2_amp_cast0", 
      "attrs": {"dtype": "float16"}, 
      "inputs": [[18, 0, 0]]
    }, 
    {
      "op": "null", 
      "name": "vggatrousextractor2_conv2_weight", 
      "attrs": {
        "__dtype__": "0", 
        "__init__": "[\"xavier\", {\"rnd_type\": \"gaussian\", \"factor_type\": \"out\", \"magnitude\": 3}]", 
        "__lr_mult__": "1.0", 
        "__shape__": "(128, 64, 3, 3)", 
        "__storage_type__": "0", 
        "__wd_mult__": "1.0"
      }, 
      "inputs": []
    }, 
    {
      "op": "amp_cast", 
      "name": "vggatrousextractor2_conv2_amp_cast1", 
      "attrs": {"dtype": "float16"}, 
      "inputs": [[20, 0, 0]]
    }, 
    {
      "op": "null", 
      "name": "vggatrousextractor2_conv2_bias", 
      "attrs": {
        "__dtype__": "0", 
        "__init__": "zeros", 
        "__lr_mult__": "1.0", 
        "__shape__": "(128,)", 
        "__storage_type__": "0", 
        "__wd_mult__": "1.0"
      }, 
      "inputs": []
    }, 
    {
      "op": "amp_cast", 
      "name": "vggatrousextractor2_conv2_amp_cast2", 
      "attrs": {"dtype": "float16"}, 
      "inputs": [[22, 0, 0]]
    }, 
    {
      "op": "Convolution", 
      "name": "vggatrousextractor2_conv2_fwd", 
      "attrs": {
        "dilate": "(1, 1)", 
        "kernel": "(3, 3)", 
        "layout": "NCHW", 
        "no_bias": "False", 
        "num_filter": "128", 
        "num_group": "1", 
        "pad": "(1, 1)", 
        "stride": "(1, 1)"
      }, 
      "inputs": [[19, 0, 0], [21, 0, 0], [23, 0, 0]]
    }, 
    {
      "op": "Activation", 
      "name": "vggatrousextractor2_relu2_fwd", 
      "attrs": {"act_type": "relu"}, 
      "inputs": [[24, 0, 0]]
    }, 
    {
      "op": "amp_cast", 
      "name": "vggatrousextractor2_conv3_amp_cast0", 
      "attrs": {"dtype": "float16"}, 
      "inputs": [[25, 0, 0]]
    }, 
    {
      "op": "null", 
      "name": "vggatrousextractor2_conv3_weight", 
      "attrs": {
        "__dtype__": "0", 
        "__init__": "[\"xavier\", {\"rnd_type\": \"gaussian\", \"factor_type\": \"out\", \"magnitude\": 3}]", 
        "__lr_mult__": "1.0", 
        "__shape__": "(128, 128, 3, 3)", 
        "__storage_type__": "0", 
        "__wd_mult__": "1.0"
      }, 
      "inputs": []
    }, 
    {
      "op": "amp_cast", 
      "name": "vggatrousextractor2_conv3_amp_cast1", 
      "attrs": {"dtype": "float16"}, 
      "inputs": [[27, 0, 0]]
    }, 
    {
      "op": "null", 
      "name": "vggatrousextractor2_conv3_bias", 
      "attrs": {
        "__dtype__": "0", 
        "__init__": "zeros", 
        "__lr_mult__": "1.0", 
        "__shape__": "(128,)", 
        "__storage_type__": "0", 
        "__wd_mult__": "1.0"
      }, 
      "inputs": []
    }, 
    {
      "op": "amp_cast", 
      "name": "vggatrousextractor2_conv3_amp_cast2", 
      "attrs": {"dtype": "float16"}, 
      "inputs": [[29, 0, 0]]
    }, 
    {
      "op": "Convolution", 
      "name": "vggatrousextractor2_conv3_fwd", 
      "attrs": {
        "dilate": "(1, 1)", 
        "kernel": "(3, 3)", 
        "layout": "NCHW", 
        "no_bias": "False", 
        "num_filter": "128", 
        "num_group": "1", 
        "pad": "(1, 1)", 
        "stride": "(1, 1)"
      }, 
      "inputs": [[26, 0, 0], [28, 0, 0], [30, 0, 0]]
    }, 
    {
      "op": "Activation", 
      "name": "vggatrousextractor2_relu3_fwd", 
      "attrs": {"act_type": "relu"}, 
      "inputs": [[31, 0, 0]]
    }, 
    {
      "op": "Pooling", 
      "name": "vggatrousextractor2_pooling1", 
      "attrs": {
        "kernel": "(2, 2)", 
        "pool_type": "max", 
        "pooling_convention": "valid", 
        "stride": "(2, 2)"
      }, 
      "inputs": [[32, 0, 0]]
    }, 
    {
      "op": "amp_cast", 
      "name": "vggatrousextractor2_conv4_amp_cast0", 
      "attrs": {"dtype": "float16"}, 
      "inputs": [[33, 0, 0]]
    }, 
    {
      "op": "null", 
      "name": "vggatrousextractor2_conv4_weight", 
      "attrs": {
        "__dtype__": "0", 
        "__init__": "[\"xavier\", {\"rnd_type\": \"gaussian\", \"factor_type\": \"out\", \"magnitude\": 3}]", 
        "__lr_mult__": "1.0", 
        "__shape__": "(256, 128, 3, 3)", 
        "__storage_type__": "0", 
        "__wd_mult__": "1.0"
      }, 
      "inputs": []
    }, 
    {
      "op": "amp_cast", 
      "name": "vggatrousextractor2_conv4_amp_cast1", 
      "attrs": {"dtype": "float16"}, 
      "inputs": [[35, 0, 0]]
    }, 
    {
      "op": "null", 
      "name": "vggatrousextractor2_conv4_bias", 
      "attrs": {
        "__dtype__": "0", 
        "__init__": "zeros", 
        "__lr_mult__": "1.0", 
        "__shape__": "(256,)", 
        "__storage_type__": "0", 
        "__wd_mult__": "1.0"
      }, 
      "inputs": []
    }, 
    {
      "op": "amp_cast", 
      "name": "vggatrousextractor2_conv4_amp_cast2", 
      "attrs": {"dtype": "float16"}, 
      "inputs": [[37, 0, 0]]
    }, 
    {
      "op": "Convolution", 
      "name": "vggatrousextractor2_conv4_fwd", 
      "attrs": {
        "dilate": "(1, 1)", 
        "kernel": "(3, 3)", 
        "layout": "NCHW", 
        "no_bias": "False", 
        "num_filter": "256", 
        "num_group": "1", 
        "pad": "(1, 1)", 
        "stride": "(1, 1)"
      }, 
      "inputs": [[34, 0, 0], [36, 0, 0], [38, 0, 0]]
    }, 
    {
      "op": "Activation", 
      "name": "vggatrousextractor2_relu4_fwd", 
      "attrs": {"act_type": "relu"}, 
      "inputs": [[39, 0, 0]]
    }, 
    {
      "op": "amp_cast", 
      "name": "vggatrousextractor2_conv5_amp_cast0", 
      "attrs": {"dtype": "float16"}, 
      "inputs": [[40, 0, 0]]
    }, 
    {
      "op": "null", 
      "name": "vggatrousextractor2_conv5_weight", 
      "attrs": {
        "__dtype__": "0", 
        "__init__": "[\"xavier\", {\"rnd_type\": \"gaussian\", \"factor_type\": \"out\", \"magnitude\": 3}]", 
        "__lr_mult__": "1.0", 
        "__shape__": "(256, 256, 3, 3)", 
        "__storage_type__": "0", 
        "__wd_mult__": "1.0"
      }, 
      "inputs": []
    }, 
    {
      "op": "amp_cast", 
      "name": "vggatrousextractor2_conv5_amp_cast1", 
      "attrs": {"dtype": "float16"}, 
      "inputs": [[42, 0, 0]]
    }, 
    {
      "op": "null", 
      "name": "vggatrousextractor2_conv5_bias", 
      "attrs": {
        "__dtype__": "0", 
        "__init__": "zeros", 
        "__lr_mult__": "1.0", 
        "__shape__": "(256,)", 
        "__storage_type__": "0", 
        "__wd_mult__": "1.0"
      }, 
      "inputs": []
    }, 
    {
      "op": "amp_cast", 
      "name": "vggatrousextractor2_conv5_amp_cast2", 
      "attrs": {"dtype": "float16"}, 
      "inputs": [[44, 0, 0]]
    }, 
    {
      "op": "Convolution", 
      "name": "vggatrousextractor2_conv5_fwd", 
      "attrs": {
        "dilate": "(1, 1)", 
        "kernel": "(3, 3)", 
        "layout": "NCHW", 
        "no_bias": "False", 
        "num_filter": "256", 
        "num_group": "1", 
        "pad": "(1, 1)", 
        "stride": "(1, 1)"
      }, 
      "inputs": [[41, 0, 0], [43, 0, 0], [45, 0, 0]]
    }, 
    {
      "op": "Activation", 
      "name": "vggatrousextractor2_relu5_fwd", 
      "attrs": {"act_type": "relu"}, 
      "inputs": [[46, 0, 0]]
    }, 
    {
      "op": "amp_cast", 
      "name": "vggatrousextractor2_conv6_amp_cast0", 
      "attrs": {"dtype": "float16"}, 
      "inputs": [[47, 0, 0]]
    }, 
    {
      "op": "null", 
      "name": "vggatrousextractor2_conv6_weight", 
      "attrs": {
        "__dtype__": "0", 
        "__init__": "[\"xavier\", {\"rnd_type\": \"gaussian\", \"factor_type\": \"out\", \"magnitude\": 3}]", 
        "__lr_mult__": "1.0", 
        "__shape__": "(256, 256, 3, 3)", 
        "__storage_type__": "0", 
        "__wd_mult__": "1.0"
      }, 
      "inputs": []
    }, 
    {
      "op": "amp_cast", 
      "name": "vggatrousextractor2_conv6_amp_cast1", 
      "attrs": {"dtype": "float16"}, 
      "inputs": [[49, 0, 0]]
    }, 
    {
      "op": "null", 
      "name": "vggatrousextractor2_conv6_bias", 
      "attrs": {
        "__dtype__": "0", 
        "__init__": "zeros", 
        "__lr_mult__": "1.0", 
        "__shape__": "(256,)", 
        "__storage_type__": "0", 
        "__wd_mult__": "1.0"
      }, 
      "inputs": []
    }, 
    {
      "op": "amp_cast", 
      "name": "vggatrousextractor2_conv6_amp_cast2", 
      "attrs": {"dtype": "float16"}, 
      "inputs": [[51, 0, 0]]
    }, 
    {
      "op": "Convolution", 
      "name": "vggatrousextractor2_conv6_fwd", 
      "attrs": {
        "dilate": "(1, 1)", 
        "kernel": "(3, 3)", 
        "layout": "NCHW", 
        "no_bias": "False", 
        "num_filter": "256", 
        "num_group": "1", 
        "pad": "(1, 1)", 
        "stride": "(1, 1)"
      }, 
      "inputs": [[48, 0, 0], [50, 0, 0], [52, 0, 0]]
    }, 
    {
      "op": "Activation", 
      "name": "vggatrousextractor2_relu6_fwd", 
      "attrs": {"act_type": "relu"}, 
      "inputs": [[53, 0, 0]]
    }, 
    {
      "op": "Pooling", 
      "name": "vggatrousextractor2_pooling2", 
      "attrs": {
        "kernel": "(2, 2)", 
        "pool_type": "max", 
        "pooling_convention": "valid", 
        "stride": "(2, 2)"
      }, 
      "inputs": [[54, 0, 0]]
    }, 
    {
      "op": "amp_cast", 
      "name": "vggatrousextractor2_conv7_amp_cast0", 
      "attrs": {"dtype": "float16"}, 
      "inputs": [[55, 0, 0]]
    }, 
    {
      "op": "null", 
      "name": "vggatrousextractor2_conv7_weight", 
      "attrs": {
        "__dtype__": "0", 
        "__init__": "[\"xavier\", {\"rnd_type\": \"gaussian\", \"factor_type\": \"out\", \"magnitude\": 3}]", 
        "__lr_mult__": "1.0", 
        "__shape__": "(512, 256, 3, 3)", 
        "__storage_type__": "0", 
        "__wd_mult__": "1.0"
      }, 
      "inputs": []
    }, 
    {
      "op": "amp_cast", 
      "name": "vggatrousextractor2_conv7_amp_cast1", 
      "attrs": {"dtype": "float16"}, 
      "inputs": [[57, 0, 0]]
    }, 
    {
      "op": "null", 
      "name": "vggatrousextractor2_conv7_bias", 
      "attrs": {
        "__dtype__": "0", 
        "__init__": "zeros", 
        "__lr_mult__": "1.0", 
        "__shape__": "(512,)", 
        "__storage_type__": "0", 
        "__wd_mult__": "1.0"
      }, 
      "inputs": []
    }, 
    {
      "op": "amp_cast", 
      "name": "vggatrousextractor2_conv7_amp_cast2", 
      "attrs": {"dtype": "float16"}, 
      "inputs": [[59, 0, 0]]
    }, 
    {
      "op": "Convolution", 
      "name": "vggatrousextractor2_conv7_fwd", 
      "attrs": {
        "dilate": "(1, 1)", 
        "kernel": "(3, 3)", 
        "layout": "NCHW", 
        "no_bias": "False", 
        "num_filter": "512", 
        "num_group": "1", 
        "pad": "(1, 1)", 
        "stride": "(1, 1)"
      }, 
      "inputs": [[56, 0, 0], [58, 0, 0], [60, 0, 0]]
    }, 
    {
      "op": "Activation", 
      "name": "vggatrousextractor2_relu7_fwd", 
      "attrs": {"act_type": "relu"}, 
      "inputs": [[61, 0, 0]]
    }, 
    {
      "op": "amp_cast", 
      "name": "vggatrousextractor2_conv8_amp_cast0", 
      "attrs": {"dtype": "float16"}, 
      "inputs": [[62, 0, 0]]
    }, 
    {
      "op": "null", 
      "name": "vggatrousextractor2_conv8_weight", 
      "attrs": {
        "__dtype__": "0", 
        "__init__": "[\"xavier\", {\"rnd_type\": \"gaussian\", \"factor_type\": \"out\", \"magnitude\": 3}]", 
        "__lr_mult__": "1.0", 
        "__shape__": "(512, 512, 3, 3)", 
        "__storage_type__": "0", 
        "__wd_mult__": "1.0"
      }, 
      "inputs": []
    }, 
    {
      "op": "amp_cast", 
      "name": "vggatrousextractor2_conv8_amp_cast1", 
      "attrs": {"dtype": "float16"}, 
      "inputs": [[64, 0, 0]]
    }, 
    {
      "op": "null", 
      "name": "vggatrousextractor2_conv8_bias", 
      "attrs": {
        "__dtype__": "0", 
        "__init__": "zeros", 
        "__lr_mult__": "1.0", 
        "__shape__": "(512,)", 
        "__storage_type__": "0", 
        "__wd_mult__": "1.0"
      }, 
      "inputs": []
    }, 
    {
      "op": "amp_cast", 
      "name": "vggatrousextractor2_conv8_amp_cast2", 
      "attrs": {"dtype": "float16"}, 
      "inputs": [[66, 0, 0]]
    }, 
    {
      "op": "Convolution", 
      "name": "vggatrousextractor2_conv8_fwd", 
      "attrs": {
        "dilate": "(1, 1)", 
        "kernel": "(3, 3)", 
        "layout": "NCHW", 
        "no_bias": "False", 
        "num_filter": "512", 
        "num_group": "1", 
        "pad": "(1, 1)", 
        "stride": "(1, 1)"
      }, 
      "inputs": [[63, 0, 0], [65, 0, 0], [67, 0, 0]]
    }, 
    {
      "op": "Activation", 
      "name": "vggatrousextractor2_relu8_fwd", 
      "attrs": {"act_type": "relu"}, 
      "inputs": [[68, 0, 0]]
    }, 
    {
      "op": "amp_cast", 
      "name": "vggatrousextractor2_conv9_amp_cast0", 
      "attrs": {"dtype": "float16"}, 
      "inputs": [[69, 0, 0]]
    }, 
    {
      "op": "null", 
      "name": "vggatrousextractor2_conv9_weight", 
      "attrs": {
        "__dtype__": "0", 
        "__init__": "[\"xavier\", {\"rnd_type\": \"gaussian\", \"factor_type\": \"out\", \"magnitude\": 3}]", 
        "__lr_mult__": "1.0", 
        "__shape__": "(512, 512, 3, 3)", 
        "__storage_type__": "0", 
        "__wd_mult__": "1.0"
      }, 
      "inputs": []
    }, 
    {
      "op": "amp_cast", 
      "name": "vggatrousextractor2_conv9_amp_cast1", 
      "attrs": {"dtype": "float16"}, 
      "inputs": [[71, 0, 0]]
    }, 
    {
      "op": "null", 
      "name": "vggatrousextractor2_conv9_bias", 
      "attrs": {
        "__dtype__": "0", 
        "__init__": "zeros", 
        "__lr_mult__": "1.0", 
        "__shape__": "(512,)", 
        "__storage_type__": "0", 
        "__wd_mult__": "1.0"
      }, 
      "inputs": []
    }, 
    {
      "op": "amp_cast", 
      "name": "vggatrousextractor2_conv9_amp_cast2", 
      "attrs": {"dtype": "float16"}, 
      "inputs": [[73, 0, 0]]
    }, 
    {
      "op": "Convolution", 
      "name": "vggatrousextractor2_conv9_fwd", 
      "attrs": {
        "dilate": "(1, 1)", 
        "kernel": "(3, 3)", 
        "layout": "NCHW", 
        "no_bias": "False", 
        "num_filter": "512", 
        "num_group": "1", 
        "pad": "(1, 1)", 
        "stride": "(1, 1)"
      }, 
      "inputs": [[70, 0, 0], [72, 0, 0], [74, 0, 0]]
    }, 
    {
      "op": "Activation", 
      "name": "vggatrousextractor2_relu9_fwd", 
      "attrs": {"act_type": "relu"}, 
      "inputs": [[75, 0, 0]]
    }, 
    {
      "op": "amp_cast", 
      "name": "vggatrousextractor2_normalize0_amp_cast0", 
      "attrs": {"dtype": "float32"}, 
      "inputs": [[76, 0, 0]]
    }, 
    {
      "op": "L2Normalization", 
      "name": "vggatrousextractor2_normalize0_l2normalization0", 
      "attrs": {
        "eps": "1e-05", 
        "mode": "channel"
      }, 
      "inputs": [[77, 0, 0]]
    }, 
    {
      "op": "null", 
      "name": "vggatrousextractor2_normalize0_normalize_scale", 
      "attrs": {
        "__dtype__": "0", 
        "__init__": "[\"constant\", {\"value\": 20}]", 
        "__lr_mult__": "1.0", 
        "__shape__": "(1, 512, 1, 1)", 
        "__storage_type__": "0", 
        "__wd_mult__": "1.0"
      }, 
      "inputs": []
    }, 
    {
      "op": "amp_multicast", 
      "name": "vggatrousextractor2_normalize0_amp_multicast0", 
      "attrs": {"num_outputs": "2"}, 
      "inputs": [[78, 0, 0], [79, 0, 0]]
    }, 
    {
      "op": "broadcast_mul", 
      "name": "vggatrousextractor2_normalize0_broadcast_mul0", 
      "inputs": [[80, 0, 0], [80, 1, 0]]
    }, 
    {
      "op": "amp_cast", 
      "name": "ssd_vgg160_convpredictor0_conv0_amp_cast0", 
      "attrs": {"dtype": "float16"}, 
      "inputs": [[81, 0, 0]]
    }, 
    {
      "op": "null", 
      "name": "ssd_vgg160_convpredictor0_conv0_weight", 
      "attrs": {
        "__dtype__": "0", 
        "__init__": "[\"xavier\", {\"rnd_type\": \"uniform\", \"factor_type\": \"avg\", \"magnitude\": 3}]", 
        "__lr_mult__": "1.0", 
        "__shape__": "(24, 0, 3, 3)", 
        "__storage_type__": "0", 
        "__wd_mult__": "1.0"
      }, 
      "inputs": []
    }, 
    {
      "op": "amp_cast", 
      "name": "ssd_vgg160_convpredictor0_conv0_amp_cast1", 
      "attrs": {"dtype": "float16"}, 
      "inputs": [[83, 0, 0]]
    }, 
    {
      "op": "null", 
      "name": "ssd_vgg160_convpredictor0_conv0_bias", 
      "attrs": {
        "__dtype__": "0", 
        "__init__": "zeros", 
        "__lr_mult__": "1.0", 
        "__shape__": "(24,)", 
        "__storage_type__": "0", 
        "__wd_mult__": "1.0"
      }, 
      "inputs": []
    }, 
    {
      "op": "amp_cast", 
      "name": "ssd_vgg160_convpredictor0_conv0_amp_cast2", 
      "attrs": {"dtype": "float16"}, 
      "inputs": [[85, 0, 0]]
    }, 
    {
      "op": "Convolution", 
      "name": "ssd_vgg160_convpredictor0_conv0_fwd", 
      "attrs": {
        "dilate": "(1, 1)", 
        "kernel": "(3, 3)", 
        "layout": "NCHW", 
        "no_bias": "False", 
        "num_filter": "24", 
        "num_group": "1", 
        "pad": "(1, 1)", 
        "stride": "(1, 1)"
      }, 
      "inputs": [[82, 0, 0], [84, 0, 0], [86, 0, 0]]
    }, 
    {
      "op": "transpose", 
      "name": "ssd_vgg160_transpose0", 
      "attrs": {"axes": "(0, 2, 3, 1)"}, 
      "inputs": [[87, 0, 0]]
    }, 
    {
      "op": "Flatten", 
      "name": "ssd_vgg160_flatten0", 
      "inputs": [[88, 0, 0]]
    }, 
    {
      "op": "Pooling", 
      "name": "vggatrousextractor2_pooling3", 
      "attrs": {
        "kernel": "(2, 2)", 
        "pool_type": "max", 
        "pooling_convention": "valid", 
        "stride": "(2, 2)"
      }, 
      "inputs": [[76, 0, 0]]
    }, 
    {
      "op": "amp_cast", 
      "name": "vggatrousextractor2_conv10_amp_cast0", 
      "attrs": {"dtype": "float16"}, 
      "inputs": [[90, 0, 0]]
    }, 
    {
      "op": "null", 
      "name": "vggatrousextractor2_conv10_weight", 
      "attrs": {
        "__dtype__": "0", 
        "__init__": "[\"xavier\", {\"rnd_type\": \"gaussian\", \"factor_type\": \"out\", \"magnitude\": 3}]", 
        "__lr_mult__": "1.0", 
        "__shape__": "(512, 512, 3, 3)", 
        "__storage_type__": "0", 
        "__wd_mult__": "1.0"
      }, 
      "inputs": []
    }, 
    {
      "op": "amp_cast", 
      "name": "vggatrousextractor2_conv10_amp_cast1", 
      "attrs": {"dtype": "float16"}, 
      "inputs": [[92, 0, 0]]
    }, 
    {
      "op": "null", 
      "name": "vggatrousextractor2_conv10_bias", 
      "attrs": {
        "__dtype__": "0", 
        "__init__": "zeros", 
        "__lr_mult__": "1.0", 
        "__shape__": "(512,)", 
        "__storage_type__": "0", 
        "__wd_mult__": "1.0"
      }, 
      "inputs": []
    }, 
    {
      "op": "amp_cast", 
      "name": "vggatrousextractor2_conv10_amp_cast2", 
      "attrs": {"dtype": "float16"}, 
      "inputs": [[94, 0, 0]]
    }, 
    {
      "op": "Convolution", 
      "name": "vggatrousextractor2_conv10_fwd", 
      "attrs": {
        "dilate": "(1, 1)", 
        "kernel": "(3, 3)", 
        "layout": "NCHW", 
        "no_bias": "False", 
        "num_filter": "512", 
        "num_group": "1", 
        "pad": "(1, 1)", 
        "stride": "(1, 1)"
      }, 
      "inputs": [[91, 0, 0], [93, 0, 0], [95, 0, 0]]
    }, 
    {
      "op": "Activation", 
      "name": "vggatrousextractor2_relu10_fwd", 
      "attrs": {"act_type": "relu"}, 
      "inputs": [[96, 0, 0]]
    }, 
    {
      "op": "amp_cast", 
      "name": "vggatrousextractor2_conv11_amp_cast0", 
      "attrs": {"dtype": "float16"}, 
      "inputs": [[97, 0, 0]]
    }, 
    {
      "op": "null", 
      "name": "vggatrousextractor2_conv11_weight", 
      "attrs": {
        "__dtype__": "0", 
        "__init__": "[\"xavier\", {\"rnd_type\": \"gaussian\", \"factor_type\": \"out\", \"magnitude\": 3}]", 
        "__lr_mult__": "1.0", 
        "__shape__": "(512, 512, 3, 3)", 
        "__storage_type__": "0", 
        "__wd_mult__": "1.0"
      }, 
      "inputs": []
    }, 
    {
      "op": "amp_cast", 
      "name": "vggatrousextractor2_conv11_amp_cast1", 
      "attrs": {"dtype": "float16"}, 
      "inputs": [[99, 0, 0]]
    }, 
    {
      "op": "null", 
      "name": "vggatrousextractor2_conv11_bias", 
      "attrs": {
        "__dtype__": "0", 
        "__init__": "zeros", 
        "__lr_mult__": "1.0", 
        "__shape__": "(512,)", 
        "__storage_type__": "0", 
        "__wd_mult__": "1.0"
      }, 
      "inputs": []
    }, 
    {
      "op": "amp_cast", 
      "name": "vggatrousextractor2_conv11_amp_cast2", 
      "attrs": {"dtype": "float16"}, 
      "inputs": [[101, 0, 0]]
    }, 
    {
      "op": "Convolution", 
      "name": "vggatrousextractor2_conv11_fwd", 
      "attrs": {
        "dilate": "(1, 1)", 
        "kernel": "(3, 3)", 
        "layout": "NCHW", 
        "no_bias": "False", 
        "num_filter": "512", 
        "num_group": "1", 
        "pad": "(1, 1)", 
        "stride": "(1, 1)"
      }, 
      "inputs": [[98, 0, 0], [100, 0, 0], [102, 0, 0]]
    }, 
    {
      "op": "Activation", 
      "name": "vggatrousextractor2_relu11_fwd", 
      "attrs": {"act_type": "relu"}, 
      "inputs": [[103, 0, 0]]
    }, 
    {
      "op": "amp_cast", 
      "name": "vggatrousextractor2_conv12_amp_cast0", 
      "attrs": {"dtype": "float16"}, 
      "inputs": [[104, 0, 0]]
    }, 
    {
      "op": "null", 
      "name": "vggatrousextractor2_conv12_weight", 
      "attrs": {
        "__dtype__": "0", 
        "__init__": "[\"xavier\", {\"rnd_type\": \"gaussian\", \"factor_type\": \"out\", \"magnitude\": 3}]", 
        "__lr_mult__": "1.0", 
        "__shape__": "(512, 512, 3, 3)", 
        "__storage_type__": "0", 
        "__wd_mult__": "1.0"
      }, 
      "inputs": []
    }, 
    {
      "op": "amp_cast", 
      "name": "vggatrousextractor2_conv12_amp_cast1", 
      "attrs": {"dtype": "float16"}, 
      "inputs": [[106, 0, 0]]
    }, 
    {
      "op": "null", 
      "name": "vggatrousextractor2_conv12_bias", 
      "attrs": {
        "__dtype__": "0", 
        "__init__": "zeros", 
        "__lr_mult__": "1.0", 
        "__shape__": "(512,)", 
        "__storage_type__": "0", 
        "__wd_mult__": "1.0"
      }, 
      "inputs": []
    }, 
    {
      "op": "amp_cast", 
      "name": "vggatrousextractor2_conv12_amp_cast2", 
      "attrs": {"dtype": "float16"}, 
      "inputs": [[108, 0, 0]]
    }, 
    {
      "op": "Convolution", 
      "name": "vggatrousextractor2_conv12_fwd", 
      "attrs": {
        "dilate": "(1, 1)", 
        "kernel": "(3, 3)", 
        "layout": "NCHW", 
        "no_bias": "False", 
        "num_filter": "512", 
        "num_group": "1", 
        "pad": "(1, 1)", 
        "stride": "(1, 1)"
      }, 
      "inputs": [[105, 0, 0], [107, 0, 0], [109, 0, 0]]
    }, 
    {
      "op": "Activation", 
      "name": "vggatrousextractor2_relu12_fwd", 
      "attrs": {"act_type": "relu"}, 
      "inputs": [[110, 0, 0]]
    }, 
    {
      "op": "Pooling", 
      "name": "vggatrousextractor2_pooling4", 
      "attrs": {
        "kernel": "(3, 3)", 
        "pad": "(1, 1)", 
        "pool_type": "max", 
        "pooling_convention": "valid", 
        "stride": "(1, 1)"
      }, 
      "inputs": [[111, 0, 0]]
    }, 
    {
      "op": "amp_cast", 
      "name": "vggatrousextractor2_dilated_conv0_amp_cast0", 
      "attrs": {"dtype": "float16"}, 
      "inputs": [[112, 0, 0]]
    }, 
    {
      "op": "null", 
      "name": "vggatrousextractor2_dilated_conv0_weight", 
      "attrs": {
        "__dtype__": "0", 
        "__init__": "[\"xavier\", {\"rnd_type\": \"gaussian\", \"factor_type\": \"out\", \"magnitude\": 3}]", 
        "__lr_mult__": "1.0", 
        "__shape__": "(1024, 512, 3, 3)", 
        "__storage_type__": "0", 
        "__wd_mult__": "1.0"
      }, 
      "inputs": []
    }, 
    {
      "op": "amp_cast", 
      "name": "vggatrousextractor2_dilated_conv0_amp_cast1", 
      "attrs": {"dtype": "float16"}, 
      "inputs": [[114, 0, 0]]
    }, 
    {
      "op": "null", 
      "name": "vggatrousextractor2_dilated_conv0_bias", 
      "attrs": {
        "__dtype__": "0", 
        "__init__": "zeros", 
        "__lr_mult__": "1.0", 
        "__shape__": "(1024,)", 
        "__storage_type__": "0", 
        "__wd_mult__": "1.0"
      }, 
      "inputs": []
    }, 
    {
      "op": "amp_cast", 
      "name": "vggatrousextractor2_dilated_conv0_amp_cast2", 
      "attrs": {"dtype": "float16"}, 
      "inputs": [[116, 0, 0]]
    }, 
    {
      "op": "Convolution", 
      "name": "vggatrousextractor2_dilated_conv0_fwd", 
      "attrs": {
        "dilate": "(6, 6)", 
        "kernel": "(3, 3)", 
        "layout": "NCHW", 
        "no_bias": "False", 
        "num_filter": "1024", 
        "num_group": "1", 
        "pad": "(6, 6)", 
        "stride": "(1, 1)"
      }, 
      "inputs": [[113, 0, 0], [115, 0, 0], [117, 0, 0]]
    }, 
    {
      "op": "Activation", 
      "name": "vggatrousextractor2_dilated_relu0_fwd", 
      "attrs": {"act_type": "relu"}, 
      "inputs": [[118, 0, 0]]
    }, 
    {
      "op": "amp_cast", 
      "name": "vggatrousextractor2_dilated_conv1_amp_cast0", 
      "attrs": {"dtype": "float16"}, 
      "inputs": [[119, 0, 0]]
    }, 
    {
      "op": "null", 
      "name": "vggatrousextractor2_dilated_conv1_weight", 
      "attrs": {
        "__dtype__": "0", 
        "__init__": "[\"xavier\", {\"rnd_type\": \"gaussian\", \"factor_type\": \"out\", \"magnitude\": 3}]", 
        "__lr_mult__": "1.0", 
        "__shape__": "(1024, 1024, 1, 1)", 
        "__storage_type__": "0", 
        "__wd_mult__": "1.0"
      }, 
      "inputs": []
    }, 
    {
      "op": "amp_cast", 
      "name": "vggatrousextractor2_dilated_conv1_amp_cast1", 
      "attrs": {"dtype": "float16"}, 
      "inputs": [[121, 0, 0]]
    }, 
    {
      "op": "null", 
      "name": "vggatrousextractor2_dilated_conv1_bias", 
      "attrs": {
        "__dtype__": "0", 
        "__init__": "zeros", 
        "__lr_mult__": "1.0", 
        "__shape__": "(1024,)", 
        "__storage_type__": "0", 
        "__wd_mult__": "1.0"
      }, 
      "inputs": []
    }, 
    {
      "op": "amp_cast", 
      "name": "vggatrousextractor2_dilated_conv1_amp_cast2", 
      "attrs": {"dtype": "float16"}, 
      "inputs": [[123, 0, 0]]
    }, 
    {
      "op": "Convolution", 
      "name": "vggatrousextractor2_dilated_conv1_fwd", 
      "attrs": {
        "dilate": "(1, 1)", 
        "kernel": "(1, 1)", 
        "layout": "NCHW", 
        "no_bias": "False", 
        "num_filter": "1024", 
        "num_group": "1", 
        "pad": "(0, 0)", 
        "stride": "(1, 1)"
      }, 
      "inputs": [[120, 0, 0], [122, 0, 0], [124, 0, 0]]
    }, 
    {
      "op": "Activation", 
      "name": "vggatrousextractor2_dilated_relu1_fwd", 
      "attrs": {"act_type": "relu"}, 
      "inputs": [[125, 0, 0]]
    }, 
    {
      "op": "amp_cast", 
      "name": "ssd_vgg160_convpredictor2_conv0_amp_cast0", 
      "attrs": {"dtype": "float16"}, 
      "inputs": [[126, 0, 0]]
    }, 
    {
      "op": "null", 
      "name": "ssd_vgg160_convpredictor2_conv0_weight", 
      "attrs": {
        "__dtype__": "0", 
        "__init__": "[\"xavier\", {\"rnd_type\": \"uniform\", \"factor_type\": \"avg\", \"magnitude\": 3}]", 
        "__lr_mult__": "1.0", 
        "__shape__": "(36, 0, 3, 3)", 
        "__storage_type__": "0", 
        "__wd_mult__": "1.0"
      }, 
      "inputs": []
    }, 
    {
      "op": "amp_cast", 
      "name": "ssd_vgg160_convpredictor2_conv0_amp_cast1", 
      "attrs": {"dtype": "float16"}, 
      "inputs": [[128, 0, 0]]
    }, 
    {
      "op": "null", 
      "name": "ssd_vgg160_convpredictor2_conv0_bias", 
      "attrs": {
        "__dtype__": "0", 
        "__init__": "zeros", 
        "__lr_mult__": "1.0", 
        "__shape__": "(36,)", 
        "__storage_type__": "0", 
        "__wd_mult__": "1.0"
      }, 
      "inputs": []
    }, 
    {
      "op": "amp_cast", 
      "name": "ssd_vgg160_convpredictor2_conv0_amp_cast2", 
      "attrs": {"dtype": "float16"}, 
      "inputs": [[130, 0, 0]]
    }, 
    {
      "op": "Convolution", 
      "name": "ssd_vgg160_convpredictor2_conv0_fwd", 
      "attrs": {
        "dilate": "(1, 1)", 
        "kernel": "(3, 3)", 
        "layout": "NCHW", 
        "no_bias": "False", 
        "num_filter": "36", 
        "num_group": "1", 
        "pad": "(1, 1)", 
        "stride": "(1, 1)"
      }, 
      "inputs": [[127, 0, 0], [129, 0, 0], [131, 0, 0]]
    }, 
    {
      "op": "transpose", 
      "name": "ssd_vgg160_transpose1", 
      "attrs": {"axes": "(0, 2, 3, 1)"}, 
      "inputs": [[132, 0, 0]]
    }, 
    {
      "op": "Flatten", 
      "name": "ssd_vgg160_flatten1", 
      "inputs": [[133, 0, 0]]
    }, 
    {
      "op": "amp_cast", 
      "name": "vggatrousextractor2_extra0_conv0_amp_cast0", 
      "attrs": {"dtype": "float16"}, 
      "inputs": [[126, 0, 0]]
    }, 
    {
      "op": "null", 
      "name": "vggatrousextractor2_extra0_conv0_weight", 
      "attrs": {
        "__dtype__": "0", 
        "__init__": "[\"xavier\", {\"rnd_type\": \"gaussian\", \"factor_type\": \"out\", \"magnitude\": 3}]", 
        "__lr_mult__": "1.0", 
        "__shape__": "(256, 0, 1, 1)", 
        "__storage_type__": "0", 
        "__wd_mult__": "1.0"
      }, 
      "inputs": []
    }, 
    {
      "op": "amp_cast", 
      "name": "vggatrousextractor2_extra0_conv0_amp_cast1", 
      "attrs": {"dtype": "float16"}, 
      "inputs": [[136, 0, 0]]
    }, 
    {
      "op": "null", 
      "name": "vggatrousextractor2_extra0_conv0_bias", 
      "attrs": {
        "__dtype__": "0", 
        "__init__": "zeros", 
        "__lr_mult__": "1.0", 
        "__shape__": "(256,)", 
        "__storage_type__": "0", 
        "__wd_mult__": "1.0"
      }, 
      "inputs": []
    }, 
    {
      "op": "amp_cast", 
      "name": "vggatrousextractor2_extra0_conv0_amp_cast2", 
      "attrs": {"dtype": "float16"}, 
      "inputs": [[138, 0, 0]]
    }, 
    {
      "op": "Convolution", 
      "name": "vggatrousextractor2_extra0_conv0_fwd", 
      "attrs": {
        "dilate": "(1, 1)", 
        "kernel": "(1, 1)", 
        "layout": "NCHW", 
        "no_bias": "False", 
        "num_filter": "256", 
        "num_group": "1", 
        "pad": "(0, 0)", 
        "stride": "(1, 1)"
      }, 
      "inputs": [[135, 0, 0], [137, 0, 0], [139, 0, 0]]
    }, 
    {
      "op": "Activation", 
      "name": "vggatrousextractor2_extra0_relu0_fwd", 
      "attrs": {"act_type": "relu"}, 
      "inputs": [[140, 0, 0]]
    }, 
    {
      "op": "amp_cast", 
      "name": "vggatrousextractor2_extra0_conv1_amp_cast0", 
      "attrs": {"dtype": "float16"}, 
      "inputs": [[141, 0, 0]]
    }, 
    {
      "op": "null", 
      "name": "vggatrousextractor2_extra0_conv1_weight", 
      "attrs": {
        "__dtype__": "0", 
        "__init__": "[\"xavier\", {\"rnd_type\": \"gaussian\", \"factor_type\": \"out\", \"magnitude\": 3}]", 
        "__lr_mult__": "1.0", 
        "__shape__": "(512, 0, 3, 3)", 
        "__storage_type__": "0", 
        "__wd_mult__": "1.0"
      }, 
      "inputs": []
    }, 
    {
      "op": "amp_cast", 
      "name": "vggatrousextractor2_extra0_conv1_amp_cast1", 
      "attrs": {"dtype": "float16"}, 
      "inputs": [[143, 0, 0]]
    }, 
    {
      "op": "null", 
      "name": "vggatrousextractor2_extra0_conv1_bias", 
      "attrs": {
        "__dtype__": "0", 
        "__init__": "zeros", 
        "__lr_mult__": "1.0", 
        "__shape__": "(512,)", 
        "__storage_type__": "0", 
        "__wd_mult__": "1.0"
      }, 
      "inputs": []
    }, 
    {
      "op": "amp_cast", 
      "name": "vggatrousextractor2_extra0_conv1_amp_cast2", 
      "attrs": {"dtype": "float16"}, 
      "inputs": [[145, 0, 0]]
    }, 
    {
      "op": "Convolution", 
      "name": "vggatrousextractor2_extra0_conv1_fwd", 
      "attrs": {
        "dilate": "(1, 1)", 
        "kernel": "(3, 3)", 
        "layout": "NCHW", 
        "no_bias": "False", 
        "num_filter": "512", 
        "num_group": "1", 
        "pad": "(1, 1)", 
        "stride": "(2, 2)"
      }, 
      "inputs": [[142, 0, 0], [144, 0, 0], [146, 0, 0]]
    }, 
    {
      "op": "Activation", 
      "name": "vggatrousextractor2_extra0_relu1_fwd", 
      "attrs": {"act_type": "relu"}, 
      "inputs": [[147, 0, 0]]
    }, 
    {
      "op": "amp_cast", 
      "name": "ssd_vgg160_convpredictor4_conv0_amp_cast0", 
      "attrs": {"dtype": "float16"}, 
      "inputs": [[148, 0, 0]]
    }, 
    {
      "op": "null", 
      "name": "ssd_vgg160_convpredictor4_conv0_weight", 
      "attrs": {
        "__dtype__": "0", 
        "__init__": "[\"xavier\", {\"rnd_type\": \"uniform\", \"factor_type\": \"avg\", \"magnitude\": 3}]", 
        "__lr_mult__": "1.0", 
        "__shape__": "(36, 0, 3, 3)", 
        "__storage_type__": "0", 
        "__wd_mult__": "1.0"
      }, 
      "inputs": []
    }, 
    {
      "op": "amp_cast", 
      "name": "ssd_vgg160_convpredictor4_conv0_amp_cast1", 
      "attrs": {"dtype": "float16"}, 
      "inputs": [[150, 0, 0]]
    }, 
    {
      "op": "null", 
      "name": "ssd_vgg160_convpredictor4_conv0_bias", 
      "attrs": {
        "__dtype__": "0", 
        "__init__": "zeros", 
        "__lr_mult__": "1.0", 
        "__shape__": "(36,)", 
        "__storage_type__": "0", 
        "__wd_mult__": "1.0"
      }, 
      "inputs": []
    }, 
    {
      "op": "amp_cast", 
      "name": "ssd_vgg160_convpredictor4_conv0_amp_cast2", 
      "attrs": {"dtype": "float16"}, 
      "inputs": [[152, 0, 0]]
    }, 
    {
      "op": "Convolution", 
      "name": "ssd_vgg160_convpredictor4_conv0_fwd", 
      "attrs": {
        "dilate": "(1, 1)", 
        "kernel": "(3, 3)", 
        "layout": "NCHW", 
        "no_bias": "False", 
        "num_filter": "36", 
        "num_group": "1", 
        "pad": "(1, 1)", 
        "stride": "(1, 1)"
      }, 
      "inputs": [[149, 0, 0], [151, 0, 0], [153, 0, 0]]
    }, 
    {
      "op": "transpose", 
      "name": "ssd_vgg160_transpose2", 
      "attrs": {"axes": "(0, 2, 3, 1)"}, 
      "inputs": [[154, 0, 0]]
    }, 
    {
      "op": "Flatten", 
      "name": "ssd_vgg160_flatten2", 
      "inputs": [[155, 0, 0]]
    }, 
    {
      "op": "amp_cast", 
      "name": "vggatrousextractor2_extra1_conv0_amp_cast0", 
      "attrs": {"dtype": "float16"}, 
      "inputs": [[148, 0, 0]]
    }, 
    {
      "op": "null", 
      "name": "vggatrousextractor2_extra1_conv0_weight", 
      "attrs": {
        "__dtype__": "0", 
        "__init__": "[\"xavier\", {\"rnd_type\": \"gaussian\", \"factor_type\": \"out\", \"magnitude\": 3}]", 
        "__lr_mult__": "1.0", 
        "__shape__": "(128, 0, 1, 1)", 
        "__storage_type__": "0", 
        "__wd_mult__": "1.0"
      }, 
      "inputs": []
    }, 
    {
      "op": "amp_cast", 
      "name": "vggatrousextractor2_extra1_conv0_amp_cast1", 
      "attrs": {"dtype": "float16"}, 
      "inputs": [[158, 0, 0]]
    }, 
    {
      "op": "null", 
      "name": "vggatrousextractor2_extra1_conv0_bias", 
      "attrs": {
        "__dtype__": "0", 
        "__init__": "zeros", 
        "__lr_mult__": "1.0", 
        "__shape__": "(128,)", 
        "__storage_type__": "0", 
        "__wd_mult__": "1.0"
      }, 
      "inputs": []
    }, 
    {
      "op": "amp_cast", 
      "name": "vggatrousextractor2_extra1_conv0_amp_cast2", 
      "attrs": {"dtype": "float16"}, 
      "inputs": [[160, 0, 0]]
    }, 
    {
      "op": "Convolution", 
      "name": "vggatrousextractor2_extra1_conv0_fwd", 
      "attrs": {
        "dilate": "(1, 1)", 
        "kernel": "(1, 1)", 
        "layout": "NCHW", 
        "no_bias": "False", 
        "num_filter": "128", 
        "num_group": "1", 
        "pad": "(0, 0)", 
        "stride": "(1, 1)"
      }, 
      "inputs": [[157, 0, 0], [159, 0, 0], [161, 0, 0]]
    }, 
    {
      "op": "Activation", 
      "name": "vggatrousextractor2_extra1_relu0_fwd", 
      "attrs": {"act_type": "relu"}, 
      "inputs": [[162, 0, 0]]
    }, 
    {
      "op": "amp_cast", 
      "name": "vggatrousextractor2_extra1_conv1_amp_cast0", 
      "attrs": {"dtype": "float16"}, 
      "inputs": [[163, 0, 0]]
    }, 
    {
      "op": "null", 
      "name": "vggatrousextractor2_extra1_conv1_weight", 
      "attrs": {
        "__dtype__": "0", 
        "__init__": "[\"xavier\", {\"rnd_type\": \"gaussian\", \"factor_type\": \"out\", \"magnitude\": 3}]", 
        "__lr_mult__": "1.0", 
        "__shape__": "(256, 0, 3, 3)", 
        "__storage_type__": "0", 
        "__wd_mult__": "1.0"
      }, 
      "inputs": []
    }, 
    {
      "op": "amp_cast", 
      "name": "vggatrousextractor2_extra1_conv1_amp_cast1", 
      "attrs": {"dtype": "float16"}, 
      "inputs": [[165, 0, 0]]
    }, 
    {
      "op": "null", 
      "name": "vggatrousextractor2_extra1_conv1_bias", 
      "attrs": {
        "__dtype__": "0", 
        "__init__": "zeros", 
        "__lr_mult__": "1.0", 
        "__shape__": "(256,)", 
        "__storage_type__": "0", 
        "__wd_mult__": "1.0"
      }, 
      "inputs": []
    }, 
    {
      "op": "amp_cast", 
      "name": "vggatrousextractor2_extra1_conv1_amp_cast2", 
      "attrs": {"dtype": "float16"}, 
      "inputs": [[167, 0, 0]]
    }, 
    {
      "op": "Convolution", 
      "name": "vggatrousextractor2_extra1_conv1_fwd", 
      "attrs": {
        "dilate": "(1, 1)", 
        "kernel": "(3, 3)", 
        "layout": "NCHW", 
        "no_bias": "False", 
        "num_filter": "256", 
        "num_group": "1", 
        "pad": "(1, 1)", 
        "stride": "(2, 2)"
      }, 
      "inputs": [[164, 0, 0], [166, 0, 0], [168, 0, 0]]
    }, 
    {
      "op": "Activation", 
      "name": "vggatrousextractor2_extra1_relu1_fwd", 
      "attrs": {"act_type": "relu"}, 
      "inputs": [[169, 0, 0]]
    }, 
    {
      "op": "amp_cast", 
      "name": "ssd_vgg160_convpredictor6_conv0_amp_cast0", 
      "attrs": {"dtype": "float16"}, 
      "inputs": [[170, 0, 0]]
    }, 
    {
      "op": "null", 
      "name": "ssd_vgg160_convpredictor6_conv0_weight", 
      "attrs": {
        "__dtype__": "0", 
        "__init__": "[\"xavier\", {\"rnd_type\": \"uniform\", \"factor_type\": \"avg\", \"magnitude\": 3}]", 
        "__lr_mult__": "1.0", 
        "__shape__": "(36, 0, 3, 3)", 
        "__storage_type__": "0", 
        "__wd_mult__": "1.0"
      }, 
      "inputs": []
    }, 
    {
      "op": "amp_cast", 
      "name": "ssd_vgg160_convpredictor6_conv0_amp_cast1", 
      "attrs": {"dtype": "float16"}, 
      "inputs": [[172, 0, 0]]
    }, 
    {
      "op": "null", 
      "name": "ssd_vgg160_convpredictor6_conv0_bias", 
      "attrs": {
        "__dtype__": "0", 
        "__init__": "zeros", 
        "__lr_mult__": "1.0", 
        "__shape__": "(36,)", 
        "__storage_type__": "0", 
        "__wd_mult__": "1.0"
      }, 
      "inputs": []
    }, 
    {
      "op": "amp_cast", 
      "name": "ssd_vgg160_convpredictor6_conv0_amp_cast2", 
      "attrs": {"dtype": "float16"}, 
      "inputs": [[174, 0, 0]]
    }, 
    {
      "op": "Convolution", 
      "name": "ssd_vgg160_convpredictor6_conv0_fwd", 
      "attrs": {
        "dilate": "(1, 1)", 
        "kernel": "(3, 3)", 
        "layout": "NCHW", 
        "no_bias": "False", 
        "num_filter": "36", 
        "num_group": "1", 
        "pad": "(1, 1)", 
        "stride": "(1, 1)"
      }, 
      "inputs": [[171, 0, 0], [173, 0, 0], [175, 0, 0]]
    }, 
    {
      "op": "transpose", 
      "name": "ssd_vgg160_transpose3", 
      "attrs": {"axes": "(0, 2, 3, 1)"}, 
      "inputs": [[176, 0, 0]]
    }, 
    {
      "op": "Flatten", 
      "name": "ssd_vgg160_flatten3", 
      "inputs": [[177, 0, 0]]
    }, 
    {
      "op": "amp_cast", 
      "name": "vggatrousextractor2_extra2_conv0_amp_cast0", 
      "attrs": {"dtype": "float16"}, 
      "inputs": [[170, 0, 0]]
    }, 
    {
      "op": "null", 
      "name": "vggatrousextractor2_extra2_conv0_weight", 
      "attrs": {
        "__dtype__": "0", 
        "__init__": "[\"xavier\", {\"rnd_type\": \"gaussian\", \"factor_type\": \"out\", \"magnitude\": 3}]", 
        "__lr_mult__": "1.0", 
        "__shape__": "(128, 0, 1, 1)", 
        "__storage_type__": "0", 
        "__wd_mult__": "1.0"
      }, 
      "inputs": []
    }, 
    {
      "op": "amp_cast", 
      "name": "vggatrousextractor2_extra2_conv0_amp_cast1", 
      "attrs": {"dtype": "float16"}, 
      "inputs": [[180, 0, 0]]
    }, 
    {
      "op": "null", 
      "name": "vggatrousextractor2_extra2_conv0_bias", 
      "attrs": {
        "__dtype__": "0", 
        "__init__": "zeros", 
        "__lr_mult__": "1.0", 
        "__shape__": "(128,)", 
        "__storage_type__": "0", 
        "__wd_mult__": "1.0"
      }, 
      "inputs": []
    }, 
    {
      "op": "amp_cast", 
      "name": "vggatrousextractor2_extra2_conv0_amp_cast2", 
      "attrs": {"dtype": "float16"}, 
      "inputs": [[182, 0, 0]]
    }, 
    {
      "op": "Convolution", 
      "name": "vggatrousextractor2_extra2_conv0_fwd", 
      "attrs": {
        "dilate": "(1, 1)", 
        "kernel": "(1, 1)", 
        "layout": "NCHW", 
        "no_bias": "False", 
        "num_filter": "128", 
        "num_group": "1", 
        "pad": "(0, 0)", 
        "stride": "(1, 1)"
      }, 
      "inputs": [[179, 0, 0], [181, 0, 0], [183, 0, 0]]
    }, 
    {
      "op": "Activation", 
      "name": "vggatrousextractor2_extra2_relu0_fwd", 
      "attrs": {"act_type": "relu"}, 
      "inputs": [[184, 0, 0]]
    }, 
    {
      "op": "amp_cast", 
      "name": "vggatrousextractor2_extra2_conv1_amp_cast0", 
      "attrs": {"dtype": "float16"}, 
      "inputs": [[185, 0, 0]]
    }, 
    {
      "op": "null", 
      "name": "vggatrousextractor2_extra2_conv1_weight", 
      "attrs": {
        "__dtype__": "0", 
        "__init__": "[\"xavier\", {\"rnd_type\": \"gaussian\", \"factor_type\": \"out\", \"magnitude\": 3}]", 
        "__lr_mult__": "1.0", 
        "__shape__": "(256, 0, 3, 3)", 
        "__storage_type__": "0", 
        "__wd_mult__": "1.0"
      }, 
      "inputs": []
    }, 
    {
      "op": "amp_cast", 
      "name": "vggatrousextractor2_extra2_conv1_amp_cast1", 
      "attrs": {"dtype": "float16"}, 
      "inputs": [[187, 0, 0]]
    }, 
    {
      "op": "null", 
      "name": "vggatrousextractor2_extra2_conv1_bias", 
      "attrs": {
        "__dtype__": "0", 
        "__init__": "zeros", 
        "__lr_mult__": "1.0", 
        "__shape__": "(256,)", 
        "__storage_type__": "0", 
        "__wd_mult__": "1.0"
      }, 
      "inputs": []
    }, 
    {
      "op": "amp_cast", 
      "name": "vggatrousextractor2_extra2_conv1_amp_cast2", 
      "attrs": {"dtype": "float16"}, 
      "inputs": [[189, 0, 0]]
    }, 
    {
      "op": "Convolution", 
      "name": "vggatrousextractor2_extra2_conv1_fwd", 
      "attrs": {
        "dilate": "(1, 1)", 
        "kernel": "(3, 3)", 
        "layout": "NCHW", 
        "no_bias": "False", 
        "num_filter": "256", 
        "num_group": "1", 
        "pad": "(1, 1)", 
        "stride": "(2, 2)"
      }, 
      "inputs": [[186, 0, 0], [188, 0, 0], [190, 0, 0]]
    }, 
    {
      "op": "Activation", 
      "name": "vggatrousextractor2_extra2_relu1_fwd", 
      "attrs": {"act_type": "relu"}, 
      "inputs": [[191, 0, 0]]
    }, 
    {
      "op": "amp_cast", 
      "name": "ssd_vgg160_convpredictor8_conv0_amp_cast0", 
      "attrs": {"dtype": "float16"}, 
      "inputs": [[192, 0, 0]]
    }, 
    {
      "op": "null", 
      "name": "ssd_vgg160_convpredictor8_conv0_weight", 
      "attrs": {
        "__dtype__": "0", 
        "__init__": "[\"xavier\", {\"rnd_type\": \"uniform\", \"factor_type\": \"avg\", \"magnitude\": 3}]", 
        "__lr_mult__": "1.0", 
        "__shape__": "(36, 0, 3, 3)", 
        "__storage_type__": "0", 
        "__wd_mult__": "1.0"
      }, 
      "inputs": []
    }, 
    {
      "op": "amp_cast", 
      "name": "ssd_vgg160_convpredictor8_conv0_amp_cast1", 
      "attrs": {"dtype": "float16"}, 
      "inputs": [[194, 0, 0]]
    }, 
    {
      "op": "null", 
      "name": "ssd_vgg160_convpredictor8_conv0_bias", 
      "attrs": {
        "__dtype__": "0", 
        "__init__": "zeros", 
        "__lr_mult__": "1.0", 
        "__shape__": "(36,)", 
        "__storage_type__": "0", 
        "__wd_mult__": "1.0"
      }, 
      "inputs": []
    }, 
    {
      "op": "amp_cast", 
      "name": "ssd_vgg160_convpredictor8_conv0_amp_cast2", 
      "attrs": {"dtype": "float16"}, 
      "inputs": [[196, 0, 0]]
    }, 
    {
      "op": "Convolution", 
      "name": "ssd_vgg160_convpredictor8_conv0_fwd", 
      "attrs": {
        "dilate": "(1, 1)", 
        "kernel": "(3, 3)", 
        "layout": "NCHW", 
        "no_bias": "False", 
        "num_filter": "36", 
        "num_group": "1", 
        "pad": "(1, 1)", 
        "stride": "(1, 1)"
      }, 
      "inputs": [[193, 0, 0], [195, 0, 0], [197, 0, 0]]
    }, 
    {
      "op": "transpose", 
      "name": "ssd_vgg160_transpose4", 
      "attrs": {"axes": "(0, 2, 3, 1)"}, 
      "inputs": [[198, 0, 0]]
    }, 
    {
      "op": "Flatten", 
      "name": "ssd_vgg160_flatten4", 
      "inputs": [[199, 0, 0]]
    }, 
    {
      "op": "amp_cast", 
      "name": "vggatrousextractor2_extra3_conv0_amp_cast0", 
      "attrs": {"dtype": "float16"}, 
      "inputs": [[192, 0, 0]]
    }, 
    {
      "op": "null", 
      "name": "vggatrousextractor2_extra3_conv0_weight", 
      "attrs": {
        "__dtype__": "0", 
        "__init__": "[\"xavier\", {\"rnd_type\": \"gaussian\", \"factor_type\": \"out\", \"magnitude\": 3}]", 
        "__lr_mult__": "1.0", 
        "__shape__": "(128, 0, 1, 1)", 
        "__storage_type__": "0", 
        "__wd_mult__": "1.0"
      }, 
      "inputs": []
    }, 
    {
      "op": "amp_cast", 
      "name": "vggatrousextractor2_extra3_conv0_amp_cast1", 
      "attrs": {"dtype": "float16"}, 
      "inputs": [[202, 0, 0]]
    }, 
    {
      "op": "null", 
      "name": "vggatrousextractor2_extra3_conv0_bias", 
      "attrs": {
        "__dtype__": "0", 
        "__init__": "zeros", 
        "__lr_mult__": "1.0", 
        "__shape__": "(128,)", 
        "__storage_type__": "0", 
        "__wd_mult__": "1.0"
      }, 
      "inputs": []
    }, 
    {
      "op": "amp_cast", 
      "name": "vggatrousextractor2_extra3_conv0_amp_cast2", 
      "attrs": {"dtype": "float16"}, 
      "inputs": [[204, 0, 0]]
    }, 
    {
      "op": "Convolution", 
      "name": "vggatrousextractor2_extra3_conv0_fwd", 
      "attrs": {
        "dilate": "(1, 1)", 
        "kernel": "(1, 1)", 
        "layout": "NCHW", 
        "no_bias": "False", 
        "num_filter": "128", 
        "num_group": "1", 
        "pad": "(0, 0)", 
        "stride": "(1, 1)"
      }, 
      "inputs": [[201, 0, 0], [203, 0, 0], [205, 0, 0]]
    }, 
    {
      "op": "Activation", 
      "name": "vggatrousextractor2_extra3_relu0_fwd", 
      "attrs": {"act_type": "relu"}, 
      "inputs": [[206, 0, 0]]
    }, 
    {
      "op": "amp_cast", 
      "name": "vggatrousextractor2_extra3_conv1_amp_cast0", 
      "attrs": {"dtype": "float16"}, 
      "inputs": [[207, 0, 0]]
    }, 
    {
      "op": "null", 
      "name": "vggatrousextractor2_extra3_conv1_weight", 
      "attrs": {
        "__dtype__": "0", 
        "__init__": "[\"xavier\", {\"rnd_type\": \"gaussian\", \"factor_type\": \"out\", \"magnitude\": 3}]", 
        "__lr_mult__": "1.0", 
        "__shape__": "(256, 0, 3, 3)", 
        "__storage_type__": "0", 
        "__wd_mult__": "1.0"
      }, 
      "inputs": []
    }, 
    {
      "op": "amp_cast", 
      "name": "vggatrousextractor2_extra3_conv1_amp_cast1", 
      "attrs": {"dtype": "float16"}, 
      "inputs": [[209, 0, 0]]
    }, 
    {
      "op": "null", 
      "name": "vggatrousextractor2_extra3_conv1_bias", 
      "attrs": {
        "__dtype__": "0", 
        "__init__": "zeros", 
        "__lr_mult__": "1.0", 
        "__shape__": "(256,)", 
        "__storage_type__": "0", 
        "__wd_mult__": "1.0"
      }, 
      "inputs": []
    }, 
    {
      "op": "amp_cast", 
      "name": "vggatrousextractor2_extra3_conv1_amp_cast2", 
      "attrs": {"dtype": "float16"}, 
      "inputs": [[211, 0, 0]]
    }, 
    {
      "op": "Convolution", 
      "name": "vggatrousextractor2_extra3_conv1_fwd", 
      "attrs": {
        "dilate": "(1, 1)", 
        "kernel": "(3, 3)", 
        "layout": "NCHW", 
        "no_bias": "False", 
        "num_filter": "256", 
        "num_group": "1", 
        "pad": "(1, 1)", 
        "stride": "(2, 2)"
      }, 
      "inputs": [[208, 0, 0], [210, 0, 0], [212, 0, 0]]
    }, 
    {
      "op": "Activation", 
      "name": "vggatrousextractor2_extra3_relu1_fwd", 
      "attrs": {"act_type": "relu"}, 
      "inputs": [[213, 0, 0]]
    }, 
    {
      "op": "amp_cast", 
      "name": "ssd_vgg160_convpredictor10_conv0_amp_cast0", 
      "attrs": {"dtype": "float16"}, 
      "inputs": [[214, 0, 0]]
    }, 
    {
      "op": "null", 
      "name": "ssd_vgg160_convpredictor10_conv0_weight", 
      "attrs": {
        "__dtype__": "0", 
        "__init__": "[\"xavier\", {\"rnd_type\": \"uniform\", \"factor_type\": \"avg\", \"magnitude\": 3}]", 
        "__lr_mult__": "1.0", 
        "__shape__": "(24, 0, 3, 3)", 
        "__storage_type__": "0", 
        "__wd_mult__": "1.0"
      }, 
      "inputs": []
    }, 
    {
      "op": "amp_cast", 
      "name": "ssd_vgg160_convpredictor10_conv0_amp_cast1", 
      "attrs": {"dtype": "float16"}, 
      "inputs": [[216, 0, 0]]
    }, 
    {
      "op": "null", 
      "name": "ssd_vgg160_convpredictor10_conv0_bias", 
      "attrs": {
        "__dtype__": "0", 
        "__init__": "zeros", 
        "__lr_mult__": "1.0", 
        "__shape__": "(24,)", 
        "__storage_type__": "0", 
        "__wd_mult__": "1.0"
      }, 
      "inputs": []
    }, 
    {
      "op": "amp_cast", 
      "name": "ssd_vgg160_convpredictor10_conv0_amp_cast2", 
      "attrs": {"dtype": "float16"}, 
      "inputs": [[218, 0, 0]]
    }, 
    {
      "op": "Convolution", 
      "name": "ssd_vgg160_convpredictor10_conv0_fwd", 
      "attrs": {
        "dilate": "(1, 1)", 
        "kernel": "(3, 3)", 
        "layout": "NCHW", 
        "no_bias": "False", 
        "num_filter": "24", 
        "num_group": "1", 
        "pad": "(1, 1)", 
        "stride": "(1, 1)"
      }, 
      "inputs": [[215, 0, 0], [217, 0, 0], [219, 0, 0]]
    }, 
    {
      "op": "transpose", 
      "name": "ssd_vgg160_transpose5", 
      "attrs": {"axes": "(0, 2, 3, 1)"}, 
      "inputs": [[220, 0, 0]]
    }, 
    {
      "op": "Flatten", 
      "name": "ssd_vgg160_flatten5", 
      "inputs": [[221, 0, 0]]
    }, 
    {
      "op": "amp_cast", 
      "name": "vggatrousextractor2_extra4_conv0_amp_cast0", 
      "attrs": {"dtype": "float16"}, 
      "inputs": [[214, 0, 0]]
    }, 
    {
      "op": "null", 
      "name": "vggatrousextractor2_extra4_conv0_weight", 
      "attrs": {
        "__dtype__": "0", 
        "__init__": "[\"xavier\", {\"rnd_type\": \"gaussian\", \"factor_type\": \"out\", \"magnitude\": 3}]", 
        "__lr_mult__": "1.0", 
        "__shape__": "(128, 0, 1, 1)", 
        "__storage_type__": "0", 
        "__wd_mult__": "1.0"
      }, 
      "inputs": []
    }, 
    {
      "op": "amp_cast", 
      "name": "vggatrousextractor2_extra4_conv0_amp_cast1", 
      "attrs": {"dtype": "float16"}, 
      "inputs": [[224, 0, 0]]
    }, 
    {
      "op": "null", 
      "name": "vggatrousextractor2_extra4_conv0_bias", 
      "attrs": {
        "__dtype__": "0", 
        "__init__": "zeros", 
        "__lr_mult__": "1.0", 
        "__shape__": "(128,)", 
        "__storage_type__": "0", 
        "__wd_mult__": "1.0"
      }, 
      "inputs": []
    }, 
    {
      "op": "amp_cast", 
      "name": "vggatrousextractor2_extra4_conv0_amp_cast2", 
      "attrs": {"dtype": "float16"}, 
      "inputs": [[226, 0, 0]]
    }, 
    {
      "op": "Convolution", 
      "name": "vggatrousextractor2_extra4_conv0_fwd", 
      "attrs": {
        "dilate": "(1, 1)", 
        "kernel": "(1, 1)", 
        "layout": "NCHW", 
        "no_bias": "False", 
        "num_filter": "128", 
        "num_group": "1", 
        "pad": "(0, 0)", 
        "stride": "(1, 1)"
      }, 
      "inputs": [[223, 0, 0], [225, 0, 0], [227, 0, 0]]
    }, 
    {
      "op": "Activation", 
      "name": "vggatrousextractor2_extra4_relu0_fwd", 
      "attrs": {"act_type": "relu"}, 
      "inputs": [[228, 0, 0]]
    }, 
    {
      "op": "amp_cast", 
      "name": "vggatrousextractor2_extra4_conv1_amp_cast0", 
      "attrs": {"dtype": "float16"}, 
      "inputs": [[229, 0, 0]]
    }, 
    {
      "op": "null", 
      "name": "vggatrousextractor2_extra4_conv1_weight", 
      "attrs": {
        "__dtype__": "0", 
        "__init__": "[\"xavier\", {\"rnd_type\": \"gaussian\", \"factor_type\": \"out\", \"magnitude\": 3}]", 
        "__lr_mult__": "1.0", 
        "__shape__": "(256, 0, 4, 4)", 
        "__storage_type__": "0", 
        "__wd_mult__": "1.0"
      }, 
      "inputs": []
    }, 
    {
      "op": "amp_cast", 
      "name": "vggatrousextractor2_extra4_conv1_amp_cast1", 
      "attrs": {"dtype": "float16"}, 
      "inputs": [[231, 0, 0]]
    }, 
    {
      "op": "null", 
      "name": "vggatrousextractor2_extra4_conv1_bias", 
      "attrs": {
        "__dtype__": "0", 
        "__init__": "zeros", 
        "__lr_mult__": "1.0", 
        "__shape__": "(256,)", 
        "__storage_type__": "0", 
        "__wd_mult__": "1.0"
      }, 
      "inputs": []
    }, 
    {
      "op": "amp_cast", 
      "name": "vggatrousextractor2_extra4_conv1_amp_cast2", 
      "attrs": {"dtype": "float16"}, 
      "inputs": [[233, 0, 0]]
    }, 
    {
      "op": "Convolution", 
      "name": "vggatrousextractor2_extra4_conv1_fwd", 
      "attrs": {
        "dilate": "(1, 1)", 
        "kernel": "(4, 4)", 
        "layout": "NCHW", 
        "no_bias": "False", 
        "num_filter": "256", 
        "num_group": "1", 
        "pad": "(1, 1)", 
        "stride": "(1, 1)"
      }, 
      "inputs": [[230, 0, 0], [232, 0, 0], [234, 0, 0]]
    }, 
    {
      "op": "Activation", 
      "name": "vggatrousextractor2_extra4_relu1_fwd", 
      "attrs": {"act_type": "relu"}, 
      "inputs": [[235, 0, 0]]
    }, 
    {
      "op": "amp_cast", 
      "name": "ssd_vgg160_convpredictor12_conv0_amp_cast0", 
      "attrs": {"dtype": "float16"}, 
      "inputs": [[236, 0, 0]]
    }, 
    {
      "op": "null", 
      "name": "ssd_vgg160_convpredictor12_conv0_weight", 
      "attrs": {
        "__dtype__": "0", 
        "__init__": "[\"xavier\", {\"rnd_type\": \"uniform\", \"factor_type\": \"avg\", \"magnitude\": 3}]", 
        "__lr_mult__": "1.0", 
        "__shape__": "(24, 0, 3, 3)", 
        "__storage_type__": "0", 
        "__wd_mult__": "1.0"
      }, 
      "inputs": []
    }, 
    {
      "op": "amp_cast", 
      "name": "ssd_vgg160_convpredictor12_conv0_amp_cast1", 
      "attrs": {"dtype": "float16"}, 
      "inputs": [[238, 0, 0]]
    }, 
    {
      "op": "null", 
      "name": "ssd_vgg160_convpredictor12_conv0_bias", 
      "attrs": {
        "__dtype__": "0", 
        "__init__": "zeros", 
        "__lr_mult__": "1.0", 
        "__shape__": "(24,)", 
        "__storage_type__": "0", 
        "__wd_mult__": "1.0"
      }, 
      "inputs": []
    }, 
    {
      "op": "amp_cast", 
      "name": "ssd_vgg160_convpredictor12_conv0_amp_cast2", 
      "attrs": {"dtype": "float16"}, 
      "inputs": [[240, 0, 0]]
    }, 
    {
      "op": "Convolution", 
      "name": "ssd_vgg160_convpredictor12_conv0_fwd", 
      "attrs": {
        "dilate": "(1, 1)", 
        "kernel": "(3, 3)", 
        "layout": "NCHW", 
        "no_bias": "False", 
        "num_filter": "24", 
        "num_group": "1", 
        "pad": "(1, 1)", 
        "stride": "(1, 1)"
      }, 
      "inputs": [[237, 0, 0], [239, 0, 0], [241, 0, 0]]
    }, 
    {
      "op": "transpose", 
      "name": "ssd_vgg160_transpose6", 
      "attrs": {"axes": "(0, 2, 3, 1)"}, 
      "inputs": [[242, 0, 0]]
    }, 
    {
      "op": "Flatten", 
      "name": "ssd_vgg160_flatten6", 
      "inputs": [[243, 0, 0]]
    }, 
    {
      "op": "amp_multicast", 
      "name": "ssd_vgg160_amp_multicast0", 
      "attrs": {"num_outputs": "7"}, 
      "inputs": [[89, 0, 0], [134, 0, 0], [156, 0, 0], [178, 0, 0], [200, 0, 0], [222, 0, 0], [244, 0, 0]]
    }, 
    {
      "op": "Concat", 
      "name": "ssd_vgg160_concat0", 
      "attrs": {
        "dim": "-1", 
        "num_args": "7"
      }, 
      "inputs": [[245, 0, 0], [245, 1, 0], [245, 2, 0], [245, 3, 0], [245, 4, 0], [245, 5, 0], [245, 6, 0]]
    }, 
    {
      "op": "Reshape", 
      "name": "ssd_vgg160_reshape0", 
      "attrs": {"shape": "(0, -1, 6)"}, 
      "inputs": [[246, 0, 0]]
    }, 
    {
      "op": "amp_cast", 
      "name": "ssd_vgg160_convpredictor1_conv0_amp_cast0", 
      "attrs": {"dtype": "float16"}, 
      "inputs": [[81, 0, 0]]
    }, 
    {
      "op": "null", 
      "name": "ssd_vgg160_convpredictor1_conv0_weight", 
      "attrs": {
        "__dtype__": "0", 
        "__init__": "[\"xavier\", {\"rnd_type\": \"uniform\", \"factor_type\": \"avg\", \"magnitude\": 3}]", 
        "__lr_mult__": "1.0", 
        "__shape__": "(16, 0, 3, 3)", 
        "__storage_type__": "0", 
        "__wd_mult__": "1.0"
      }, 
      "inputs": []
    }, 
    {
      "op": "amp_cast", 
      "name": "ssd_vgg160_convpredictor1_conv0_amp_cast1", 
      "attrs": {"dtype": "float16"}, 
      "inputs": [[249, 0, 0]]
    }, 
    {
      "op": "null", 
      "name": "ssd_vgg160_convpredictor1_conv0_bias", 
      "attrs": {
        "__dtype__": "0", 
        "__init__": "zeros", 
        "__lr_mult__": "1.0", 
        "__shape__": "(16,)", 
        "__storage_type__": "0", 
        "__wd_mult__": "1.0"
      }, 
      "inputs": []
    }, 
    {
      "op": "amp_cast", 
      "name": "ssd_vgg160_convpredictor1_conv0_amp_cast2", 
      "attrs": {"dtype": "float16"}, 
      "inputs": [[251, 0, 0]]
    }, 
    {
      "op": "Convolution", 
      "name": "ssd_vgg160_convpredictor1_conv0_fwd", 
      "attrs": {
        "dilate": "(1, 1)", 
        "kernel": "(3, 3)", 
        "layout": "NCHW", 
        "no_bias": "False", 
        "num_filter": "16", 
        "num_group": "1", 
        "pad": "(1, 1)", 
        "stride": "(1, 1)"
      }, 
      "inputs": [[248, 0, 0], [250, 0, 0], [252, 0, 0]]
    }, 
    {
      "op": "transpose", 
      "name": "ssd_vgg160_transpose7", 
      "attrs": {"axes": "(0, 2, 3, 1)"}, 
      "inputs": [[253, 0, 0]]
    }, 
    {
      "op": "Flatten", 
      "name": "ssd_vgg160_flatten7", 
      "inputs": [[254, 0, 0]]
    }, 
    {
      "op": "amp_cast", 
      "name": "ssd_vgg160_convpredictor3_conv0_amp_cast0", 
      "attrs": {"dtype": "float16"}, 
      "inputs": [[126, 0, 0]]
    }, 
    {
      "op": "null", 
      "name": "ssd_vgg160_convpredictor3_conv0_weight", 
      "attrs": {
        "__dtype__": "0", 
        "__init__": "[\"xavier\", {\"rnd_type\": \"uniform\", \"factor_type\": \"avg\", \"magnitude\": 3}]", 
        "__lr_mult__": "1.0", 
        "__shape__": "(24, 0, 3, 3)", 
        "__storage_type__": "0", 
        "__wd_mult__": "1.0"
      }, 
      "inputs": []
    }, 
    {
      "op": "amp_cast", 
      "name": "ssd_vgg160_convpredictor3_conv0_amp_cast1", 
      "attrs": {"dtype": "float16"}, 
      "inputs": [[257, 0, 0]]
    }, 
    {
      "op": "null", 
      "name": "ssd_vgg160_convpredictor3_conv0_bias", 
      "attrs": {
        "__dtype__": "0", 
        "__init__": "zeros", 
        "__lr_mult__": "1.0", 
        "__shape__": "(24,)", 
        "__storage_type__": "0", 
        "__wd_mult__": "1.0"
      }, 
      "inputs": []
    }, 
    {
      "op": "amp_cast", 
      "name": "ssd_vgg160_convpredictor3_conv0_amp_cast2", 
      "attrs": {"dtype": "float16"}, 
      "inputs": [[259, 0, 0]]
    }, 
    {
      "op": "Convolution", 
      "name": "ssd_vgg160_convpredictor3_conv0_fwd", 
      "attrs": {
        "dilate": "(1, 1)", 
        "kernel": "(3, 3)", 
        "layout": "NCHW", 
        "no_bias": "False", 
        "num_filter": "24", 
        "num_group": "1", 
        "pad": "(1, 1)", 
        "stride": "(1, 1)"
      }, 
      "inputs": [[256, 0, 0], [258, 0, 0], [260, 0, 0]]
    }, 
    {
      "op": "transpose", 
      "name": "ssd_vgg160_transpose8", 
      "attrs": {"axes": "(0, 2, 3, 1)"}, 
      "inputs": [[261, 0, 0]]
    }, 
    {
      "op": "Flatten", 
      "name": "ssd_vgg160_flatten8", 
      "inputs": [[262, 0, 0]]
    }, 
    {
      "op": "amp_cast", 
      "name": "ssd_vgg160_convpredictor5_conv0_amp_cast0", 
      "attrs": {"dtype": "float16"}, 
      "inputs": [[148, 0, 0]]
    }, 
    {
      "op": "null", 
      "name": "ssd_vgg160_convpredictor5_conv0_weight", 
      "attrs": {
        "__dtype__": "0", 
        "__init__": "[\"xavier\", {\"rnd_type\": \"uniform\", \"factor_type\": \"avg\", \"magnitude\": 3}]", 
        "__lr_mult__": "1.0", 
        "__shape__": "(24, 0, 3, 3)", 
        "__storage_type__": "0", 
        "__wd_mult__": "1.0"
      }, 
      "inputs": []
    }, 
    {
      "op": "amp_cast", 
      "name": "ssd_vgg160_convpredictor5_conv0_amp_cast1", 
      "attrs": {"dtype": "float16"}, 
      "inputs": [[265, 0, 0]]
    }, 
    {
      "op": "null", 
      "name": "ssd_vgg160_convpredictor5_conv0_bias", 
      "attrs": {
        "__dtype__": "0", 
        "__init__": "zeros", 
        "__lr_mult__": "1.0", 
        "__shape__": "(24,)", 
        "__storage_type__": "0", 
        "__wd_mult__": "1.0"
      }, 
      "inputs": []
    }, 
    {
      "op": "amp_cast", 
      "name": "ssd_vgg160_convpredictor5_conv0_amp_cast2", 
      "attrs": {"dtype": "float16"}, 
      "inputs": [[267, 0, 0]]
    }, 
    {
      "op": "Convolution", 
      "name": "ssd_vgg160_convpredictor5_conv0_fwd", 
      "attrs": {
        "dilate": "(1, 1)", 
        "kernel": "(3, 3)", 
        "layout": "NCHW", 
        "no_bias": "False", 
        "num_filter": "24", 
        "num_group": "1", 
        "pad": "(1, 1)", 
        "stride": "(1, 1)"
      }, 
      "inputs": [[264, 0, 0], [266, 0, 0], [268, 0, 0]]
    }, 
    {
      "op": "transpose", 
      "name": "ssd_vgg160_transpose9", 
      "attrs": {"axes": "(0, 2, 3, 1)"}, 
      "inputs": [[269, 0, 0]]
    }, 
    {
      "op": "Flatten", 
      "name": "ssd_vgg160_flatten9", 
      "inputs": [[270, 0, 0]]
    }, 
    {
      "op": "amp_cast", 
      "name": "ssd_vgg160_convpredictor7_conv0_amp_cast0", 
      "attrs": {"dtype": "float16"}, 
      "inputs": [[170, 0, 0]]
    }, 
    {
      "op": "null", 
      "name": "ssd_vgg160_convpredictor7_conv0_weight", 
      "attrs": {
        "__dtype__": "0", 
        "__init__": "[\"xavier\", {\"rnd_type\": \"uniform\", \"factor_type\": \"avg\", \"magnitude\": 3}]", 
        "__lr_mult__": "1.0", 
        "__shape__": "(24, 0, 3, 3)", 
        "__storage_type__": "0", 
        "__wd_mult__": "1.0"
      }, 
      "inputs": []
    }, 
    {
      "op": "amp_cast", 
      "name": "ssd_vgg160_convpredictor7_conv0_amp_cast1", 
      "attrs": {"dtype": "float16"}, 
      "inputs": [[273, 0, 0]]
    }, 
    {
      "op": "null", 
      "name": "ssd_vgg160_convpredictor7_conv0_bias", 
      "attrs": {
        "__dtype__": "0", 
        "__init__": "zeros", 
        "__lr_mult__": "1.0", 
        "__shape__": "(24,)", 
        "__storage_type__": "0", 
        "__wd_mult__": "1.0"
      }, 
      "inputs": []
    }, 
    {
      "op": "amp_cast", 
      "name": "ssd_vgg160_convpredictor7_conv0_amp_cast2", 
      "attrs": {"dtype": "float16"}, 
      "inputs": [[275, 0, 0]]
    }, 
    {
      "op": "Convolution", 
      "name": "ssd_vgg160_convpredictor7_conv0_fwd", 
      "attrs": {
        "dilate": "(1, 1)", 
        "kernel": "(3, 3)", 
        "layout": "NCHW", 
        "no_bias": "False", 
        "num_filter": "24", 
        "num_group": "1", 
        "pad": "(1, 1)", 
        "stride": "(1, 1)"
      }, 
      "inputs": [[272, 0, 0], [274, 0, 0], [276, 0, 0]]
    }, 
    {
      "op": "transpose", 
      "name": "ssd_vgg160_transpose10", 
      "attrs": {"axes": "(0, 2, 3, 1)"}, 
      "inputs": [[277, 0, 0]]
    }, 
    {
      "op": "Flatten", 
      "name": "ssd_vgg160_flatten10", 
      "inputs": [[278, 0, 0]]
    }, 
    {
      "op": "amp_cast", 
      "name": "ssd_vgg160_convpredictor9_conv0_amp_cast0", 
      "attrs": {"dtype": "float16"}, 
      "inputs": [[192, 0, 0]]
    }, 
    {
      "op": "null", 
      "name": "ssd_vgg160_convpredictor9_conv0_weight", 
      "attrs": {
        "__dtype__": "0", 
        "__init__": "[\"xavier\", {\"rnd_type\": \"uniform\", \"factor_type\": \"avg\", \"magnitude\": 3}]", 
        "__lr_mult__": "1.0", 
        "__shape__": "(24, 0, 3, 3)", 
        "__storage_type__": "0", 
        "__wd_mult__": "1.0"
      }, 
      "inputs": []
    }, 
    {
      "op": "amp_cast", 
      "name": "ssd_vgg160_convpredictor9_conv0_amp_cast1", 
      "attrs": {"dtype": "float16"}, 
      "inputs": [[281, 0, 0]]
    }, 
    {
      "op": "null", 
      "name": "ssd_vgg160_convpredictor9_conv0_bias", 
      "attrs": {
        "__dtype__": "0", 
        "__init__": "zeros", 
        "__lr_mult__": "1.0", 
        "__shape__": "(24,)", 
        "__storage_type__": "0", 
        "__wd_mult__": "1.0"
      }, 
      "inputs": []
    }, 
    {
      "op": "amp_cast", 
      "name": "ssd_vgg160_convpredictor9_conv0_amp_cast2", 
      "attrs": {"dtype": "float16"}, 
      "inputs": [[283, 0, 0]]
    }, 
    {
      "op": "Convolution", 
      "name": "ssd_vgg160_convpredictor9_conv0_fwd", 
      "attrs": {
        "dilate": "(1, 1)", 
        "kernel": "(3, 3)", 
        "layout": "NCHW", 
        "no_bias": "False", 
        "num_filter": "24", 
        "num_group": "1", 
        "pad": "(1, 1)", 
        "stride": "(1, 1)"
      }, 
      "inputs": [[280, 0, 0], [282, 0, 0], [284, 0, 0]]
    }, 
    {
      "op": "transpose", 
      "name": "ssd_vgg160_transpose11", 
      "attrs": {"axes": "(0, 2, 3, 1)"}, 
      "inputs": [[285, 0, 0]]
    }, 
    {
      "op": "Flatten", 
      "name": "ssd_vgg160_flatten11", 
      "inputs": [[286, 0, 0]]
    }, 
    {
      "op": "amp_cast", 
      "name": "ssd_vgg160_convpredictor11_conv0_amp_cast0", 
      "attrs": {"dtype": "float16"}, 
      "inputs": [[214, 0, 0]]
    }, 
    {
      "op": "null", 
      "name": "ssd_vgg160_convpredictor11_conv0_weight", 
      "attrs": {
        "__dtype__": "0", 
        "__init__": "[\"xavier\", {\"rnd_type\": \"uniform\", \"factor_type\": \"avg\", \"magnitude\": 3}]", 
        "__lr_mult__": "1.0", 
        "__shape__": "(16, 0, 3, 3)", 
        "__storage_type__": "0", 
        "__wd_mult__": "1.0"
      }, 
      "inputs": []
    }, 
    {
      "op": "amp_cast", 
      "name": "ssd_vgg160_convpredictor11_conv0_amp_cast1", 
      "attrs": {"dtype": "float16"}, 
      "inputs": [[289, 0, 0]]
    }, 
    {
      "op": "null", 
      "name": "ssd_vgg160_convpredictor11_conv0_bias", 
      "attrs": {
        "__dtype__": "0", 
        "__init__": "zeros", 
        "__lr_mult__": "1.0", 
        "__shape__": "(16,)", 
        "__storage_type__": "0", 
        "__wd_mult__": "1.0"
      }, 
      "inputs": []
    }, 
    {
      "op": "amp_cast", 
      "name": "ssd_vgg160_convpredictor11_conv0_amp_cast2", 
      "attrs": {"dtype": "float16"}, 
      "inputs": [[291, 0, 0]]
    }, 
    {
      "op": "Convolution", 
      "name": "ssd_vgg160_convpredictor11_conv0_fwd", 
      "attrs": {
        "dilate": "(1, 1)", 
        "kernel": "(3, 3)", 
        "layout": "NCHW", 
        "no_bias": "False", 
        "num_filter": "16", 
        "num_group": "1", 
        "pad": "(1, 1)", 
        "stride": "(1, 1)"
      }, 
      "inputs": [[288, 0, 0], [290, 0, 0], [292, 0, 0]]
    }, 
    {
      "op": "transpose", 
      "name": "ssd_vgg160_transpose12", 
      "attrs": {"axes": "(0, 2, 3, 1)"}, 
      "inputs": [[293, 0, 0]]
    }, 
    {
      "op": "Flatten", 
      "name": "ssd_vgg160_flatten12", 
      "inputs": [[294, 0, 0]]
    }, 
    {
      "op": "amp_cast", 
      "name": "ssd_vgg160_convpredictor13_conv0_amp_cast0", 
      "attrs": {"dtype": "float16"}, 
      "inputs": [[236, 0, 0]]
    }, 
    {
      "op": "null", 
      "name": "ssd_vgg160_convpredictor13_conv0_weight", 
      "attrs": {
        "__dtype__": "0", 
        "__init__": "[\"xavier\", {\"rnd_type\": \"uniform\", \"factor_type\": \"avg\", \"magnitude\": 3}]", 
        "__lr_mult__": "1.0", 
        "__shape__": "(16, 0, 3, 3)", 
        "__storage_type__": "0", 
        "__wd_mult__": "1.0"
      }, 
      "inputs": []
    }, 
    {
      "op": "amp_cast", 
      "name": "ssd_vgg160_convpredictor13_conv0_amp_cast1", 
      "attrs": {"dtype": "float16"}, 
      "inputs": [[297, 0, 0]]
    }, 
    {
      "op": "null", 
      "name": "ssd_vgg160_convpredictor13_conv0_bias", 
      "attrs": {
        "__dtype__": "0", 
        "__init__": "zeros", 
        "__lr_mult__": "1.0", 
        "__shape__": "(16,)", 
        "__storage_type__": "0", 
        "__wd_mult__": "1.0"
      }, 
      "inputs": []
    }, 
    {
      "op": "amp_cast", 
      "name": "ssd_vgg160_convpredictor13_conv0_amp_cast2", 
      "attrs": {"dtype": "float16"}, 
      "inputs": [[299, 0, 0]]
    }, 
    {
      "op": "Convolution", 
      "name": "ssd_vgg160_convpredictor13_conv0_fwd", 
      "attrs": {
        "dilate": "(1, 1)", 
        "kernel": "(3, 3)", 
        "layout": "NCHW", 
        "no_bias": "False", 
        "num_filter": "16", 
        "num_group": "1", 
        "pad": "(1, 1)", 
        "stride": "(1, 1)"
      }, 
      "inputs": [[296, 0, 0], [298, 0, 0], [300, 0, 0]]
    }, 
    {
      "op": "transpose", 
      "name": "ssd_vgg160_transpose13", 
      "attrs": {"axes": "(0, 2, 3, 1)"}, 
      "inputs": [[301, 0, 0]]
    }, 
    {
      "op": "Flatten", 
      "name": "ssd_vgg160_flatten13", 
      "inputs": [[302, 0, 0]]
    }, 
    {
      "op": "amp_multicast", 
      "name": "ssd_vgg160_amp_multicast1", 
      "attrs": {"num_outputs": "7"}, 
      "inputs": [[255, 0, 0], [263, 0, 0], [271, 0, 0], [279, 0, 0], [287, 0, 0], [295, 0, 0], [303, 0, 0]]
    }, 
    {
      "op": "Concat", 
      "name": "ssd_vgg160_concat1", 
      "attrs": {
        "dim": "-1", 
        "num_args": "7"
      }, 
      "inputs": [[304, 0, 0], [304, 1, 0], [304, 2, 0], [304, 3, 0], [304, 4, 0], [304, 5, 0], [304, 6, 0]]
    }, 
    {
      "op": "Reshape", 
      "name": "ssd_vgg160_reshape1", 
      "attrs": {"shape": "(0, -1, 4)"}, 
      "inputs": [[305, 0, 0]]
    }, 
    {
      "op": "null", 
      "name": "ssd_vgg160_ssdanchorgenerator0_anchor_0", 
      "attrs": {
        "__dtype__": "0", 
        "__init__": "Constant_ssd_vgg160_ssdanchorgenerator0_anchor_0_140242909825552", 
        "__lr_mult__": "1.0", 
        "__shape__": "(15000, 4)", 
        "__storage_type__": "0", 
        "__wd_mult__": "1.0"
      }, 
      "inputs": []
    }, 
    {
      "op": "null", 
      "name": "ssd_vgg160_ssdanchorgenerator1_anchor_1", 
      "attrs": {
        "__dtype__": "0", 
        "__init__": "Constant_ssd_vgg160_ssdanchorgenerator1_anchor_1_140241085514832", 
        "__lr_mult__": "1.0", 
        "__shape__": "(5550, 4)", 
        "__storage_type__": "0", 
        "__wd_mult__": "1.0"
      }, 
      "inputs": []
    }, 
    {
      "op": "null", 
      "name": "ssd_vgg160_ssdanchorgenerator2_anchor_2", 
      "attrs": {
        "__dtype__": "0", 
        "__init__": "Constant_ssd_vgg160_ssdanchorgenerator2_anchor_2_140241086173968", 
        "__lr_mult__": "1.0", 
        "__shape__": "(1482, 4)", 
        "__storage_type__": "0", 
        "__wd_mult__": "1.0"
      }, 
      "inputs": []
    }, 
    {
      "op": "null", 
      "name": "ssd_vgg160_ssdanchorgenerator3_anchor_3", 
      "attrs": {
        "__dtype__": "0", 
        "__init__": "Constant_ssd_vgg160_ssdanchorgenerator3_anchor_3_140241085525072", 
        "__lr_mult__": "1.0", 
        "__shape__": "(420, 4)", 
        "__storage_type__": "0", 
        "__wd_mult__": "1.0"
      }, 
      "inputs": []
    }, 
    {
      "op": "null", 
      "name": "ssd_vgg160_ssdanchorgenerator4_anchor_4", 
      "attrs": {
        "__dtype__": "0", 
        "__init__": "Constant_ssd_vgg160_ssdanchorgenerator4_anchor_4_140241085933584", 
        "__lr_mult__": "1.0", 
        "__shape__": "(120, 4)", 
        "__storage_type__": "0", 
        "__wd_mult__": "1.0"
      }, 
      "inputs": []
    }, 
    {
      "op": "null", 
      "name": "ssd_vgg160_ssdanchorgenerator5_anchor_5", 
      "attrs": {
        "__dtype__": "0", 
        "__init__": "Constant_ssd_vgg160_ssdanchorgenerator5_anchor_5_140241085932560", 
        "__lr_mult__": "1.0", 
        "__shape__": "(24, 4)", 
        "__storage_type__": "0", 
        "__wd_mult__": "1.0"
      }, 
      "inputs": []
    }, 
    {
      "op": "null", 
      "name": "ssd_vgg160_ssdanchorgenerator6_anchor_6", 
      "attrs": {
        "__dtype__": "0", 
        "__init__": "Constant_ssd_vgg160_ssdanchorgenerator6_anchor_6_140241085493136", 
        "__lr_mult__": "1.0", 
        "__shape__": "(8, 4)", 
        "__storage_type__": "0", 
        "__wd_mult__": "1.0"
      }, 
      "inputs": []
    }, 
    {
      "op": "amp_multicast", 
      "name": "ssd_vgg160_amp_multicast2", 
      "attrs": {"num_outputs": "7"}, 
      "inputs": [[307, 0, 0], [308, 0, 0], [309, 0, 0], [310, 0, 0], [311, 0, 0], [312, 0, 0], [313, 0, 0]]
    }, 
    {
      "op": "Concat", 
      "name": "ssd_vgg160_concat2", 
      "attrs": {
        "dim": "0", 
        "num_args": "7"
      }, 
      "inputs": [[314, 0, 0], [314, 1, 0], [314, 2, 0], [314, 3, 0], [314, 4, 0], [314, 5, 0], [314, 6, 0]]
    }, 
    {
      "op": "Reshape", 
      "name": "ssd_vgg160_reshape2", 
      "attrs": {"shape": "(1, -1, 4)"}, 
      "inputs": [[315, 0, 0]]
    }
  ], 
  "arg_nodes": [
    0, 
    1, 
    5, 
    7, 
    12, 
    14, 
    20, 
    22, 
    27, 
    29, 
    35, 
    37, 
    42, 
    44, 
    49, 
    51, 
    57, 
    59, 
    64, 
    66, 
    71, 
    73, 
    79, 
    83, 
    85, 
    92, 
    94, 
    99, 
    101, 
    106, 
    108, 
    114, 
    116, 
    121, 
    123, 
    128, 
    130, 
    136, 
    138, 
    143, 
    145, 
    150, 
    152, 
    158, 
    160, 
    165, 
    167, 
    172, 
    174, 
    180, 
    182, 
    187, 
    189, 
    194, 
    196, 
    202, 
    204, 
    209, 
    211, 
    216, 
    218, 
    224, 
    226, 
    231, 
    233, 
    238, 
    240, 
    249, 
    251, 
    257, 
    259, 
    265, 
    267, 
    273, 
    275, 
    281, 
    283, 
    289, 
    291, 
    297, 
    299, 
    307, 
    308, 
    309, 
    310, 
    311, 
    312, 
    313
  ], 
  "node_row_ptr": [
    0, 
    1, 
    2, 
    4, 
    5, 
    6, 
    7, 
    8, 
    9, 
    10, 
    11, 
    12, 
    13, 
    14, 
    15, 
    16, 
    17, 
    18, 
    19, 
    20, 
    21, 
    22, 
    23, 
    24, 
    25, 
    26, 
    27, 
    28, 
    29, 
    30, 
    31, 
    32, 
    33, 
    34, 
    35, 
    36, 
    37, 
    38, 
    39, 
    40, 
    41, 
    42, 
    43, 
    44, 
    45, 
    46, 
    47, 
    48, 
    49, 
    50, 
    51, 
    52, 
    53, 
    54, 
    55, 
    56, 
    57, 
    58, 
    59, 
    60, 
    61, 
    62, 
    63, 
    64, 
    65, 
    66, 
    67, 
    68, 
    69, 
    70, 
    71, 
    72, 
    73, 
    74, 
    75, 
    76, 
    77, 
    78, 
    79, 
    81, 
    82, 
    84, 
    85, 
    86, 
    87, 
    88, 
    89, 
    90, 
    91, 
    92, 
    93, 
    94, 
    95, 
    96, 
    97, 
    98, 
    99, 
    100, 
    101, 
    102, 
    103, 
    104, 
    105, 
    106, 
    107, 
    108, 
    109, 
    110, 
    111, 
    112, 
    113, 
    114, 
    115, 
    116, 
    117, 
    118, 
    119, 
    120, 
    121, 
    122, 
    123, 
    124, 
    125, 
    126, 
    127, 
    128, 
    129, 
    130, 
    131, 
    132, 
    133, 
    134, 
    135, 
    136, 
    137, 
    138, 
    139, 
    140, 
    141, 
    142, 
    143, 
    144, 
    145, 
    146, 
    147, 
    148, 
    149, 
    150, 
    151, 
    152, 
    153, 
    154, 
    155, 
    156, 
    157, 
    158, 
    159, 
    160, 
    161, 
    162, 
    163, 
    164, 
    165, 
    166, 
    167, 
    168, 
    169, 
    170, 
    171, 
    172, 
    173, 
    174, 
    175, 
    176, 
    177, 
    178, 
    179, 
    180, 
    181, 
    182, 
    183, 
    184, 
    185, 
    186, 
    187, 
    188, 
    189, 
    190, 
    191, 
    192, 
    193, 
    194, 
    195, 
    196, 
    197, 
    198, 
    199, 
    200, 
    201, 
    202, 
    203, 
    204, 
    205, 
    206, 
    207, 
    208, 
    209, 
    210, 
    211, 
    212, 
    213, 
    214, 
    215, 
    216, 
    217, 
    218, 
    219, 
    220, 
    221, 
    222, 
    223, 
    224, 
    225, 
    226, 
    227, 
    228, 
    229, 
    230, 
    231, 
    232, 
    233, 
    234, 
    235, 
    236, 
    237, 
    238, 
    239, 
    240, 
    241, 
    242, 
    243, 
    244, 
    245, 
    246, 
    247, 
    248, 
    255, 
    256, 
    257, 
    258, 
    259, 
    260, 
    261, 
    262, 
    263, 
    264, 
    265, 
    266, 
    267, 
    268, 
    269, 
    270, 
    271, 
    272, 
    273, 
    274, 
    275, 
    276, 
    277, 
    278, 
    279, 
    280, 
    281, 
    282, 
    283, 
    284, 
    285, 
    286, 
    287, 
    288, 
    289, 
    290, 
    291, 
    292, 
    293, 
    294, 
    295, 
    296, 
    297, 
    298, 
    299, 
    300, 
    301, 
    302, 
    303, 
    304, 
    305, 
    306, 
    307, 
    308, 
    309, 
    310, 
    311, 
    312, 
    313, 
    320, 
    321, 
    322, 
    323, 
    324, 
    325, 
    326, 
    327, 
    328, 
    329, 
    336, 
    337, 
    338
  ], 
  "heads": [[247, 0, 0], [306, 0, 0], [316, 0, 0]], 
  "attrs": {"mxnet_version": ["int", 10501]}
}