{
  "nodes": [
    {
      "op": "null", 
      "name": "data", 
      "inputs": []
    }, 
    {
      "op": "null", 
      "name": "vggatrousextractor2_init_scale", 
      "attrs": {
        "__dtype__": "0", 
        "__init__": "Constant_vggatrousextractor2_init_scale_140241085932752", 
        "__lr_mult__": "1.0", 
        "__shape__": "(1, 3, 1, 1)", 
        "__storage_type__": "0", 
        "__wd_mult__": "1.0"
      }, 
      "inputs": []
    }, 
    {
      "op": "broadcast_mul", 
      "name": "vggatrousextractor2_broadcast_mul0", 
      "inputs": [[0, 0, 0], [1, 0, 0]]
    }, 
    {
      "op": "null", 
      "name": "vggatrousextractor2_conv0_weight", 
      "attrs": {
        "__dtype__": "0", 
        "__init__": "[\"xavier\", {\"rnd_type\": \"gaussian\", \"factor_type\": \"out\", \"magnitude\": 3}]", 
        "__lr_mult__": "1.0", 
        "__shape__": "(64, 3, 3, 3)", 
        "__storage_type__": "0", 
        "__wd_mult__": "1.0"
      }, 
      "inputs": []
    }, 
    {
      "op": "null", 
      "name": "vggatrousextractor2_conv0_bias", 
      "attrs": {
        "__dtype__": "0", 
        "__init__": "zeros", 
        "__lr_mult__": "1.0", 
        "__shape__": "(64,)", 
        "__storage_type__": "0", 
        "__wd_mult__": "1.0"
      }, 
      "inputs": []
    }, 
    {
      "op": "Convolution", 
      "name": "vggatrousextractor2_conv0_fwd", 
      "attrs": {
        "dilate": "(1, 1)", 
        "kernel": "(3, 3)", 
        "layout": "NCHW", 
        "no_bias": "False", 
        "num_filter": "64", 
        "num_group": "1", 
        "pad": "(1, 1)", 
        "stride": "(1, 1)"
      }, 
      "inputs": [[2, 0, 0], [3, 0, 0], [4, 0, 0]]
    }, 
    {
      "op": "Activation", 
      "name": "vggatrousextractor2_relu0_fwd", 
      "attrs": {"act_type": "relu"}, 
      "inputs": [[5, 0, 0]]
    }, 
    {
      "op": "null", 
      "name": "vggatrousextractor2_conv1_weight", 
      "attrs": {
        "__dtype__": "0", 
        "__init__": "[\"xavier\", {\"rnd_type\": \"gaussian\", \"factor_type\": \"out\", \"magnitude\": 3}]", 
        "__lr_mult__": "1.0", 
        "__shape__": "(64, 64, 3, 3)", 
        "__storage_type__": "0", 
        "__wd_mult__": "1.0"
      }, 
      "inputs": []
    }, 
    {
      "op": "null", 
      "name": "vggatrousextractor2_conv1_bias", 
      "attrs": {
        "__dtype__": "0", 
        "__init__": "zeros", 
        "__lr_mult__": "1.0", 
        "__shape__": "(64,)", 
        "__storage_type__": "0", 
        "__wd_mult__": "1.0"
      }, 
      "inputs": []
    }, 
    {
      "op": "Convolution", 
      "name": "vggatrousextractor2_conv1_fwd", 
      "attrs": {
        "dilate": "(1, 1)", 
        "kernel": "(3, 3)", 
        "layout": "NCHW", 
        "no_bias": "False", 
        "num_filter": "64", 
        "num_group": "1", 
        "pad": "(1, 1)", 
        "stride": "(1, 1)"
      }, 
      "inputs": [[6, 0, 0], [7, 0, 0], [8, 0, 0]]
    }, 
    {
      "op": "Activation", 
      "name": "vggatrousextractor2_relu1_fwd", 
      "attrs": {"act_type": "relu"}, 
      "inputs": [[9, 0, 0]]
    }, 
    {
      "op": "Pooling", 
      "name": "vggatrousextractor2_pooling0", 
      "attrs": {
        "kernel": "(2, 2)", 
        "pool_type": "max", 
        "pooling_convention": "valid", 
        "stride": "(2, 2)"
      }, 
      "inputs": [[10, 0, 0]]
    }, 
    {
      "op": "null", 
      "name": "vggatrousextractor2_conv2_weight", 
      "attrs": {
        "__dtype__": "0", 
        "__init__": "[\"xavier\", {\"rnd_type\": \"gaussian\", \"factor_type\": \"out\", \"magnitude\": 3}]", 
        "__lr_mult__": "1.0", 
        "__shape__": "(128, 64, 3, 3)", 
        "__storage_type__": "0", 
        "__wd_mult__": "1.0"
      }, 
      "inputs": []
    }, 
    {
      "op": "null", 
      "name": "vggatrousextractor2_conv2_bias", 
      "attrs": {
        "__dtype__": "0", 
        "__init__": "zeros", 
        "__lr_mult__": "1.0", 
        "__shape__": "(128,)", 
        "__storage_type__": "0", 
        "__wd_mult__": "1.0"
      }, 
      "inputs": []
    }, 
    {
      "op": "Convolution", 
      "name": "vggatrousextractor2_conv2_fwd", 
      "attrs": {
        "dilate": "(1, 1)", 
        "kernel": "(3, 3)", 
        "layout": "NCHW", 
        "no_bias": "False", 
        "num_filter": "128", 
        "num_group": "1", 
        "pad": "(1, 1)", 
        "stride": "(1, 1)"
      }, 
      "inputs": [[11, 0, 0], [12, 0, 0], [13, 0, 0]]
    }, 
    {
      "op": "Activation", 
      "name": "vggatrousextractor2_relu2_fwd", 
      "attrs": {"act_type": "relu"}, 
      "inputs": [[14, 0, 0]]
    }, 
    {
      "op": "null", 
      "name": "vggatrousextractor2_conv3_weight", 
      "attrs": {
        "__dtype__": "0", 
        "__init__": "[\"xavier\", {\"rnd_type\": \"gaussian\", \"factor_type\": \"out\", \"magnitude\": 3}]", 
        "__lr_mult__": "1.0", 
        "__shape__": "(128, 128, 3, 3)", 
        "__storage_type__": "0", 
        "__wd_mult__": "1.0"
      }, 
      "inputs": []
    }, 
    {
      "op": "null", 
      "name": "vggatrousextractor2_conv3_bias", 
      "attrs": {
        "__dtype__": "0", 
        "__init__": "zeros", 
        "__lr_mult__": "1.0", 
        "__shape__": "(128,)", 
        "__storage_type__": "0", 
        "__wd_mult__": "1.0"
      }, 
      "inputs": []
    }, 
    {
      "op": "Convolution", 
      "name": "vggatrousextractor2_conv3_fwd", 
      "attrs": {
        "dilate": "(1, 1)", 
        "kernel": "(3, 3)", 
        "layout": "NCHW", 
        "no_bias": "False", 
        "num_filter": "128", 
        "num_group": "1", 
        "pad": "(1, 1)", 
        "stride": "(1, 1)"
      }, 
      "inputs": [[15, 0, 0], [16, 0, 0], [17, 0, 0]]
    }, 
    {
      "op": "Activation", 
      "name": "vggatrousextractor2_relu3_fwd", 
      "attrs": {"act_type": "relu"}, 
      "inputs": [[18, 0, 0]]
    }, 
    {
      "op": "Pooling", 
      "name": "vggatrousextractor2_pooling1", 
      "attrs": {
        "kernel": "(2, 2)", 
        "pool_type": "max", 
        "pooling_convention": "valid", 
        "stride": "(2, 2)"
      }, 
      "inputs": [[19, 0, 0]]
    }, 
    {
      "op": "null", 
      "name": "vggatrousextractor2_conv4_weight", 
      "attrs": {
        "__dtype__": "0", 
        "__init__": "[\"xavier\", {\"rnd_type\": \"gaussian\", \"factor_type\": \"out\", \"magnitude\": 3}]", 
        "__lr_mult__": "1.0", 
        "__shape__": "(256, 128, 3, 3)", 
        "__storage_type__": "0", 
        "__wd_mult__": "1.0"
      }, 
      "inputs": []
    }, 
    {
      "op": "null", 
      "name": "vggatrousextractor2_conv4_bias", 
      "attrs": {
        "__dtype__": "0", 
        "__init__": "zeros", 
        "__lr_mult__": "1.0", 
        "__shape__": "(256,)", 
        "__storage_type__": "0", 
        "__wd_mult__": "1.0"
      }, 
      "inputs": []
    }, 
    {
      "op": "Convolution", 
      "name": "vggatrousextractor2_conv4_fwd", 
      "attrs": {
        "dilate": "(1, 1)", 
        "kernel": "(3, 3)", 
        "layout": "NCHW", 
        "no_bias": "False", 
        "num_filter": "256", 
        "num_group": "1", 
        "pad": "(1, 1)", 
        "stride": "(1, 1)"
      }, 
      "inputs": [[20, 0, 0], [21, 0, 0], [22, 0, 0]]
    }, 
    {
      "op": "Activation", 
      "name": "vggatrousextractor2_relu4_fwd", 
      "attrs": {"act_type": "relu"}, 
      "inputs": [[23, 0, 0]]
    }, 
    {
      "op": "null", 
      "name": "vggatrousextractor2_conv5_weight", 
      "attrs": {
        "__dtype__": "0", 
        "__init__": "[\"xavier\", {\"rnd_type\": \"gaussian\", \"factor_type\": \"out\", \"magnitude\": 3}]", 
        "__lr_mult__": "1.0", 
        "__shape__": "(256, 256, 3, 3)", 
        "__storage_type__": "0", 
        "__wd_mult__": "1.0"
      }, 
      "inputs": []
    }, 
    {
      "op": "null", 
      "name": "vggatrousextractor2_conv5_bias", 
      "attrs": {
        "__dtype__": "0", 
        "__init__": "zeros", 
        "__lr_mult__": "1.0", 
        "__shape__": "(256,)", 
        "__storage_type__": "0", 
        "__wd_mult__": "1.0"
      }, 
      "inputs": []
    }, 
    {
      "op": "Convolution", 
      "name": "vggatrousextractor2_conv5_fwd", 
      "attrs": {
        "dilate": "(1, 1)", 
        "kernel": "(3, 3)", 
        "layout": "NCHW", 
        "no_bias": "False", 
        "num_filter": "256", 
        "num_group": "1", 
        "pad": "(1, 1)", 
        "stride": "(1, 1)"
      }, 
      "inputs": [[24, 0, 0], [25, 0, 0], [26, 0, 0]]
    }, 
    {
      "op": "Activation", 
      "name": "vggatrousextractor2_relu5_fwd", 
      "attrs": {"act_type": "relu"}, 
      "inputs": [[27, 0, 0]]
    }, 
    {
      "op": "null", 
      "name": "vggatrousextractor2_conv6_weight", 
      "attrs": {
        "__dtype__": "0", 
        "__init__": "[\"xavier\", {\"rnd_type\": \"gaussian\", \"factor_type\": \"out\", \"magnitude\": 3}]", 
        "__lr_mult__": "1.0", 
        "__shape__": "(256, 256, 3, 3)", 
        "__storage_type__": "0", 
        "__wd_mult__": "1.0"
      }, 
      "inputs": []
    }, 
    {
      "op": "null", 
      "name": "vggatrousextractor2_conv6_bias", 
      "attrs": {
        "__dtype__": "0", 
        "__init__": "zeros", 
        "__lr_mult__": "1.0", 
        "__shape__": "(256,)", 
        "__storage_type__": "0", 
        "__wd_mult__": "1.0"
      }, 
      "inputs": []
    }, 
    {
      "op": "Convolution", 
      "name": "vggatrousextractor2_conv6_fwd", 
      "attrs": {
        "dilate": "(1, 1)", 
        "kernel": "(3, 3)", 
        "layout": "NCHW", 
        "no_bias": "False", 
        "num_filter": "256", 
        "num_group": "1", 
        "pad": "(1, 1)", 
        "stride": "(1, 1)"
      }, 
      "inputs": [[28, 0, 0], [29, 0, 0], [30, 0, 0]]
    }, 
    {
      "op": "Activation", 
      "name": "vggatrousextractor2_relu6_fwd", 
      "attrs": {"act_type": "relu"}, 
      "inputs": [[31, 0, 0]]
    }, 
    {
      "op": "Pooling", 
      "name": "vggatrousextractor2_pooling2", 
      "attrs": {
        "kernel": "(2, 2)", 
        "pool_type": "max", 
        "pooling_convention": "valid", 
        "stride": "(2, 2)"
      }, 
      "inputs": [[32, 0, 0]]
    }, 
    {
      "op": "null", 
      "name": "vggatrousextractor2_conv7_weight", 
      "attrs": {
        "__dtype__": "0", 
        "__init__": "[\"xavier\", {\"rnd_type\": \"gaussian\", \"factor_type\": \"out\", \"magnitude\": 3}]", 
        "__lr_mult__": "1.0", 
        "__shape__": "(512, 256, 3, 3)", 
        "__storage_type__": "0", 
        "__wd_mult__": "1.0"
      }, 
      "inputs": []
    }, 
    {
      "op": "null", 
      "name": "vggatrousextractor2_conv7_bias", 
      "attrs": {
        "__dtype__": "0", 
        "__init__": "zeros", 
        "__lr_mult__": "1.0", 
        "__shape__": "(512,)", 
        "__storage_type__": "0", 
        "__wd_mult__": "1.0"
      }, 
      "inputs": []
    }, 
    {
      "op": "Convolution", 
      "name": "vggatrousextractor2_conv7_fwd", 
      "attrs": {
        "dilate": "(1, 1)", 
        "kernel": "(3, 3)", 
        "layout": "NCHW", 
        "no_bias": "False", 
        "num_filter": "512", 
        "num_group": "1", 
        "pad": "(1, 1)", 
        "stride": "(1, 1)"
      }, 
      "inputs": [[33, 0, 0], [34, 0, 0], [35, 0, 0]]
    }, 
    {
      "op": "Activation", 
      "name": "vggatrousextractor2_relu7_fwd", 
      "attrs": {"act_type": "relu"}, 
      "inputs": [[36, 0, 0]]
    }, 
    {
      "op": "null", 
      "name": "vggatrousextractor2_conv8_weight", 
      "attrs": {
        "__dtype__": "0", 
        "__init__": "[\"xavier\", {\"rnd_type\": \"gaussian\", \"factor_type\": \"out\", \"magnitude\": 3}]", 
        "__lr_mult__": "1.0", 
        "__shape__": "(512, 512, 3, 3)", 
        "__storage_type__": "0", 
        "__wd_mult__": "1.0"
      }, 
      "inputs": []
    }, 
    {
      "op": "null", 
      "name": "vggatrousextractor2_conv8_bias", 
      "attrs": {
        "__dtype__": "0", 
        "__init__": "zeros", 
        "__lr_mult__": "1.0", 
        "__shape__": "(512,)", 
        "__storage_type__": "0", 
        "__wd_mult__": "1.0"
      }, 
      "inputs": []
    }, 
    {
      "op": "Convolution", 
      "name": "vggatrousextractor2_conv8_fwd", 
      "attrs": {
        "dilate": "(1, 1)", 
        "kernel": "(3, 3)", 
        "layout": "NCHW", 
        "no_bias": "False", 
        "num_filter": "512", 
        "num_group": "1", 
        "pad": "(1, 1)", 
        "stride": "(1, 1)"
      }, 
      "inputs": [[37, 0, 0], [38, 0, 0], [39, 0, 0]]
    }, 
    {
      "op": "Activation", 
      "name": "vggatrousextractor2_relu8_fwd", 
      "attrs": {"act_type": "relu"}, 
      "inputs": [[40, 0, 0]]
    }, 
    {
      "op": "null", 
      "name": "vggatrousextractor2_conv9_weight", 
      "attrs": {
        "__dtype__": "0", 
        "__init__": "[\"xavier\", {\"rnd_type\": \"gaussian\", \"factor_type\": \"out\", \"magnitude\": 3}]", 
        "__lr_mult__": "1.0", 
        "__shape__": "(512, 512, 3, 3)", 
        "__storage_type__": "0", 
        "__wd_mult__": "1.0"
      }, 
      "inputs": []
    }, 
    {
      "op": "null", 
      "name": "vggatrousextractor2_conv9_bias", 
      "attrs": {
        "__dtype__": "0", 
        "__init__": "zeros", 
        "__lr_mult__": "1.0", 
        "__shape__": "(512,)", 
        "__storage_type__": "0", 
        "__wd_mult__": "1.0"
      }, 
      "inputs": []
    }, 
    {
      "op": "Convolution", 
      "name": "vggatrousextractor2_conv9_fwd", 
      "attrs": {
        "dilate": "(1, 1)", 
        "kernel": "(3, 3)", 
        "layout": "NCHW", 
        "no_bias": "False", 
        "num_filter": "512", 
        "num_group": "1", 
        "pad": "(1, 1)", 
        "stride": "(1, 1)"
      }, 
      "inputs": [[41, 0, 0], [42, 0, 0], [43, 0, 0]]
    }, 
    {
      "op": "Activation", 
      "name": "vggatrousextractor2_relu9_fwd", 
      "attrs": {"act_type": "relu"}, 
      "inputs": [[44, 0, 0]]
    }, 
    {
      "op": "L2Normalization", 
      "name": "vggatrousextractor2_normalize0_l2normalization0", 
      "attrs": {
        "eps": "1e-05", 
        "mode": "channel"
      }, 
      "inputs": [[45, 0, 0]]
    }, 
    {
      "op": "null", 
      "name": "vggatrousextractor2_normalize0_normalize_scale", 
      "attrs": {
        "__dtype__": "0", 
        "__init__": "[\"constant\", {\"value\": 20}]", 
        "__lr_mult__": "1.0", 
        "__shape__": "(1, 512, 1, 1)", 
        "__storage_type__": "0", 
        "__wd_mult__": "1.0"
      }, 
      "inputs": []
    }, 
    {
      "op": "broadcast_mul", 
      "name": "vggatrousextractor2_normalize0_broadcast_mul0", 
      "inputs": [[46, 0, 0], [47, 0, 0]]
    }, 
    {
      "op": "null", 
      "name": "ssd_vgg160_convpredictor0_conv0_weight", 
      "attrs": {
        "__dtype__": "0", 
        "__init__": "[\"xavier\", {\"rnd_type\": \"uniform\", \"factor_type\": \"avg\", \"magnitude\": 3}]", 
        "__lr_mult__": "1.0", 
        "__shape__": "(24, 0, 3, 3)", 
        "__storage_type__": "0", 
        "__wd_mult__": "1.0"
      }, 
      "inputs": []
    }, 
    {
      "op": "null", 
      "name": "ssd_vgg160_convpredictor0_conv0_bias", 
      "attrs": {
        "__dtype__": "0", 
        "__init__": "zeros", 
        "__lr_mult__": "1.0", 
        "__shape__": "(24,)", 
        "__storage_type__": "0", 
        "__wd_mult__": "1.0"
      }, 
      "inputs": []
    }, 
    {
      "op": "Convolution", 
      "name": "ssd_vgg160_convpredictor0_conv0_fwd", 
      "attrs": {
        "dilate": "(1, 1)", 
        "kernel": "(3, 3)", 
        "layout": "NCHW", 
        "no_bias": "False", 
        "num_filter": "24", 
        "num_group": "1", 
        "pad": "(1, 1)", 
        "stride": "(1, 1)"
      }, 
      "inputs": [[48, 0, 0], [49, 0, 0], [50, 0, 0]]
    }, 
    {
      "op": "transpose", 
      "name": "ssd_vgg160_transpose0", 
      "attrs": {"axes": "(0, 2, 3, 1)"}, 
      "inputs": [[51, 0, 0]]
    }, 
    {
      "op": "Flatten", 
      "name": "ssd_vgg160_flatten0", 
      "inputs": [[52, 0, 0]]
    }, 
    {
      "op": "Pooling", 
      "name": "vggatrousextractor2_pooling3", 
      "attrs": {
        "kernel": "(2, 2)", 
        "pool_type": "max", 
        "pooling_convention": "valid", 
        "stride": "(2, 2)"
      }, 
      "inputs": [[45, 0, 0]]
    }, 
    {
      "op": "null", 
      "name": "vggatrousextractor2_conv10_weight", 
      "attrs": {
        "__dtype__": "0", 
        "__init__": "[\"xavier\", {\"rnd_type\": \"gaussian\", \"factor_type\": \"out\", \"magnitude\": 3}]", 
        "__lr_mult__": "1.0", 
        "__shape__": "(512, 512, 3, 3)", 
        "__storage_type__": "0", 
        "__wd_mult__": "1.0"
      }, 
      "inputs": []
    }, 
    {
      "op": "null", 
      "name": "vggatrousextractor2_conv10_bias", 
      "attrs": {
        "__dtype__": "0", 
        "__init__": "zeros", 
        "__lr_mult__": "1.0", 
        "__shape__": "(512,)", 
        "__storage_type__": "0", 
        "__wd_mult__": "1.0"
      }, 
      "inputs": []
    }, 
    {
      "op": "Convolution", 
      "name": "vggatrousextractor2_conv10_fwd", 
      "attrs": {
        "dilate": "(1, 1)", 
        "kernel": "(3, 3)", 
        "layout": "NCHW", 
        "no_bias": "False", 
        "num_filter": "512", 
        "num_group": "1", 
        "pad": "(1, 1)", 
        "stride": "(1, 1)"
      }, 
      "inputs": [[54, 0, 0], [55, 0, 0], [56, 0, 0]]
    }, 
    {
      "op": "Activation", 
      "name": "vggatrousextractor2_relu10_fwd", 
      "attrs": {"act_type": "relu"}, 
      "inputs": [[57, 0, 0]]
    }, 
    {
      "op": "null", 
      "name": "vggatrousextractor2_conv11_weight", 
      "attrs": {
        "__dtype__": "0", 
        "__init__": "[\"xavier\", {\"rnd_type\": \"gaussian\", \"factor_type\": \"out\", \"magnitude\": 3}]", 
        "__lr_mult__": "1.0", 
        "__shape__": "(512, 512, 3, 3)", 
        "__storage_type__": "0", 
        "__wd_mult__": "1.0"
      }, 
      "inputs": []
    }, 
    {
      "op": "null", 
      "name": "vggatrousextractor2_conv11_bias", 
      "attrs": {
        "__dtype__": "0", 
        "__init__": "zeros", 
        "__lr_mult__": "1.0", 
        "__shape__": "(512,)", 
        "__storage_type__": "0", 
        "__wd_mult__": "1.0"
      }, 
      "inputs": []
    }, 
    {
      "op": "Convolution", 
      "name": "vggatrousextractor2_conv11_fwd", 
      "attrs": {
        "dilate": "(1, 1)", 
        "kernel": "(3, 3)", 
        "layout": "NCHW", 
        "no_bias": "False", 
        "num_filter": "512", 
        "num_group": "1", 
        "pad": "(1, 1)", 
        "stride": "(1, 1)"
      }, 
      "inputs": [[58, 0, 0], [59, 0, 0], [60, 0, 0]]
    }, 
    {
      "op": "Activation", 
      "name": "vggatrousextractor2_relu11_fwd", 
      "attrs": {"act_type": "relu"}, 
      "inputs": [[61, 0, 0]]
    }, 
    {
      "op": "null", 
      "name": "vggatrousextractor2_conv12_weight", 
      "attrs": {
        "__dtype__": "0", 
        "__init__": "[\"xavier\", {\"rnd_type\": \"gaussian\", \"factor_type\": \"out\", \"magnitude\": 3}]", 
        "__lr_mult__": "1.0", 
        "__shape__": "(512, 512, 3, 3)", 
        "__storage_type__": "0", 
        "__wd_mult__": "1.0"
      }, 
      "inputs": []
    }, 
    {
      "op": "null", 
      "name": "vggatrousextractor2_conv12_bias", 
      "attrs": {
        "__dtype__": "0", 
        "__init__": "zeros", 
        "__lr_mult__": "1.0", 
        "__shape__": "(512,)", 
        "__storage_type__": "0", 
        "__wd_mult__": "1.0"
      }, 
      "inputs": []
    }, 
    {
      "op": "Convolution", 
      "name": "vggatrousextractor2_conv12_fwd", 
      "attrs": {
        "dilate": "(1, 1)", 
        "kernel": "(3, 3)", 
        "layout": "NCHW", 
        "no_bias": "False", 
        "num_filter": "512", 
        "num_group": "1", 
        "pad": "(1, 1)", 
        "stride": "(1, 1)"
      }, 
      "inputs": [[62, 0, 0], [63, 0, 0], [64, 0, 0]]
    }, 
    {
      "op": "Activation", 
      "name": "vggatrousextractor2_relu12_fwd", 
      "attrs": {"act_type": "relu"}, 
      "inputs": [[65, 0, 0]]
    }, 
    {
      "op": "Pooling", 
      "name": "vggatrousextractor2_pooling4", 
      "attrs": {
        "kernel": "(3, 3)", 
        "pad": "(1, 1)", 
        "pool_type": "max", 
        "pooling_convention": "valid", 
        "stride": "(1, 1)"
      }, 
      "inputs": [[66, 0, 0]]
    }, 
    {
      "op": "null", 
      "name": "vggatrousextractor2_dilated_conv0_weight", 
      "attrs": {
        "__dtype__": "0", 
        "__init__": "[\"xavier\", {\"rnd_type\": \"gaussian\", \"factor_type\": \"out\", \"magnitude\": 3}]", 
        "__lr_mult__": "1.0", 
        "__shape__": "(1024, 512, 3, 3)", 
        "__storage_type__": "0", 
        "__wd_mult__": "1.0"
      }, 
      "inputs": []
    }, 
    {
      "op": "null", 
      "name": "vggatrousextractor2_dilated_conv0_bias", 
      "attrs": {
        "__dtype__": "0", 
        "__init__": "zeros", 
        "__lr_mult__": "1.0", 
        "__shape__": "(1024,)", 
        "__storage_type__": "0", 
        "__wd_mult__": "1.0"
      }, 
      "inputs": []
    }, 
    {
      "op": "Convolution", 
      "name": "vggatrousextractor2_dilated_conv0_fwd", 
      "attrs": {
        "dilate": "(6, 6)", 
        "kernel": "(3, 3)", 
        "layout": "NCHW", 
        "no_bias": "False", 
        "num_filter": "1024", 
        "num_group": "1", 
        "pad": "(6, 6)", 
        "stride": "(1, 1)"
      }, 
      "inputs": [[67, 0, 0], [68, 0, 0], [69, 0, 0]]
    }, 
    {
      "op": "Activation", 
      "name": "vggatrousextractor2_dilated_relu0_fwd", 
      "attrs": {"act_type": "relu"}, 
      "inputs": [[70, 0, 0]]
    }, 
    {
      "op": "null", 
      "name": "vggatrousextractor2_dilated_conv1_weight", 
      "attrs": {
        "__dtype__": "0", 
        "__init__": "[\"xavier\", {\"rnd_type\": \"gaussian\", \"factor_type\": \"out\", \"magnitude\": 3}]", 
        "__lr_mult__": "1.0", 
        "__shape__": "(1024, 1024, 1, 1)", 
        "__storage_type__": "0", 
        "__wd_mult__": "1.0"
      }, 
      "inputs": []
    }, 
    {
      "op": "null", 
      "name": "vggatrousextractor2_dilated_conv1_bias", 
      "attrs": {
        "__dtype__": "0", 
        "__init__": "zeros", 
        "__lr_mult__": "1.0", 
        "__shape__": "(1024,)", 
        "__storage_type__": "0", 
        "__wd_mult__": "1.0"
      }, 
      "inputs": []
    }, 
    {
      "op": "Convolution", 
      "name": "vggatrousextractor2_dilated_conv1_fwd", 
      "attrs": {
        "dilate": "(1, 1)", 
        "kernel": "(1, 1)", 
        "layout": "NCHW", 
        "no_bias": "False", 
        "num_filter": "1024", 
        "num_group": "1", 
        "pad": "(0, 0)", 
        "stride": "(1, 1)"
      }, 
      "inputs": [[71, 0, 0], [72, 0, 0], [73, 0, 0]]
    }, 
    {
      "op": "Activation", 
      "name": "vggatrousextractor2_dilated_relu1_fwd", 
      "attrs": {"act_type": "relu"}, 
      "inputs": [[74, 0, 0]]
    }, 
    {
      "op": "null", 
      "name": "ssd_vgg160_convpredictor2_conv0_weight", 
      "attrs": {
        "__dtype__": "0", 
        "__init__": "[\"xavier\", {\"rnd_type\": \"uniform\", \"factor_type\": \"avg\", \"magnitude\": 3}]", 
        "__lr_mult__": "1.0", 
        "__shape__": "(36, 0, 3, 3)", 
        "__storage_type__": "0", 
        "__wd_mult__": "1.0"
      }, 
      "inputs": []
    }, 
    {
      "op": "null", 
      "name": "ssd_vgg160_convpredictor2_conv0_bias", 
      "attrs": {
        "__dtype__": "0", 
        "__init__": "zeros", 
        "__lr_mult__": "1.0", 
        "__shape__": "(36,)", 
        "__storage_type__": "0", 
        "__wd_mult__": "1.0"
      }, 
      "inputs": []
    }, 
    {
      "op": "Convolution", 
      "name": "ssd_vgg160_convpredictor2_conv0_fwd", 
      "attrs": {
        "dilate": "(1, 1)", 
        "kernel": "(3, 3)", 
        "layout": "NCHW", 
        "no_bias": "False", 
        "num_filter": "36", 
        "num_group": "1", 
        "pad": "(1, 1)", 
        "stride": "(1, 1)"
      }, 
      "inputs": [[75, 0, 0], [76, 0, 0], [77, 0, 0]]
    }, 
    {
      "op": "transpose", 
      "name": "ssd_vgg160_transpose1", 
      "attrs": {"axes": "(0, 2, 3, 1)"}, 
      "inputs": [[78, 0, 0]]
    }, 
    {
      "op": "Flatten", 
      "name": "ssd_vgg160_flatten1", 
      "inputs": [[79, 0, 0]]
    }, 
    {
      "op": "null", 
      "name": "vggatrousextractor2_extra0_conv0_weight", 
      "attrs": {
        "__dtype__": "0", 
        "__init__": "[\"xavier\", {\"rnd_type\": \"gaussian\", \"factor_type\": \"out\", \"magnitude\": 3}]", 
        "__lr_mult__": "1.0", 
        "__shape__": "(256, 0, 1, 1)", 
        "__storage_type__": "0", 
        "__wd_mult__": "1.0"
      }, 
      "inputs": []
    }, 
    {
      "op": "null", 
      "name": "vggatrousextractor2_extra0_conv0_bias", 
      "attrs": {
        "__dtype__": "0", 
        "__init__": "zeros", 
        "__lr_mult__": "1.0", 
        "__shape__": "(256,)", 
        "__storage_type__": "0", 
        "__wd_mult__": "1.0"
      }, 
      "inputs": []
    }, 
    {
      "op": "Convolution", 
      "name": "vggatrousextractor2_extra0_conv0_fwd", 
      "attrs": {
        "dilate": "(1, 1)", 
        "kernel": "(1, 1)", 
        "layout": "NCHW", 
        "no_bias": "False", 
        "num_filter": "256", 
        "num_group": "1", 
        "pad": "(0, 0)", 
        "stride": "(1, 1)"
      }, 
      "inputs": [[75, 0, 0], [81, 0, 0], [82, 0, 0]]
    }, 
    {
      "op": "Activation", 
      "name": "vggatrousextractor2_extra0_relu0_fwd", 
      "attrs": {"act_type": "relu"}, 
      "inputs": [[83, 0, 0]]
    }, 
    {
      "op": "null", 
      "name": "vggatrousextractor2_extra0_conv1_weight", 
      "attrs": {
        "__dtype__": "0", 
        "__init__": "[\"xavier\", {\"rnd_type\": \"gaussian\", \"factor_type\": \"out\", \"magnitude\": 3}]", 
        "__lr_mult__": "1.0", 
        "__shape__": "(512, 0, 3, 3)", 
        "__storage_type__": "0", 
        "__wd_mult__": "1.0"
      }, 
      "inputs": []
    }, 
    {
      "op": "null", 
      "name": "vggatrousextractor2_extra0_conv1_bias", 
      "attrs": {
        "__dtype__": "0", 
        "__init__": "zeros", 
        "__lr_mult__": "1.0", 
        "__shape__": "(512,)", 
        "__storage_type__": "0", 
        "__wd_mult__": "1.0"
      }, 
      "inputs": []
    }, 
    {
      "op": "Convolution", 
      "name": "vggatrousextractor2_extra0_conv1_fwd", 
      "attrs": {
        "dilate": "(1, 1)", 
        "kernel": "(3, 3)", 
        "layout": "NCHW", 
        "no_bias": "False", 
        "num_filter": "512", 
        "num_group": "1", 
        "pad": "(1, 1)", 
        "stride": "(2, 2)"
      }, 
      "inputs": [[84, 0, 0], [85, 0, 0], [86, 0, 0]]
    }, 
    {
      "op": "Activation", 
      "name": "vggatrousextractor2_extra0_relu1_fwd", 
      "attrs": {"act_type": "relu"}, 
      "inputs": [[87, 0, 0]]
    }, 
    {
      "op": "null", 
      "name": "ssd_vgg160_convpredictor4_conv0_weight", 
      "attrs": {
        "__dtype__": "0", 
        "__init__": "[\"xavier\", {\"rnd_type\": \"uniform\", \"factor_type\": \"avg\", \"magnitude\": 3}]", 
        "__lr_mult__": "1.0", 
        "__shape__": "(36, 0, 3, 3)", 
        "__storage_type__": "0", 
        "__wd_mult__": "1.0"
      }, 
      "inputs": []
    }, 
    {
      "op": "null", 
      "name": "ssd_vgg160_convpredictor4_conv0_bias", 
      "attrs": {
        "__dtype__": "0", 
        "__init__": "zeros", 
        "__lr_mult__": "1.0", 
        "__shape__": "(36,)", 
        "__storage_type__": "0", 
        "__wd_mult__": "1.0"
      }, 
      "inputs": []
    }, 
    {
      "op": "Convolution", 
      "name": "ssd_vgg160_convpredictor4_conv0_fwd", 
      "attrs": {
        "dilate": "(1, 1)", 
        "kernel": "(3, 3)", 
        "layout": "NCHW", 
        "no_bias": "False", 
        "num_filter": "36", 
        "num_group": "1", 
        "pad": "(1, 1)", 
        "stride": "(1, 1)"
      }, 
      "inputs": [[88, 0, 0], [89, 0, 0], [90, 0, 0]]
    }, 
    {
      "op": "transpose", 
      "name": "ssd_vgg160_transpose2", 
      "attrs": {"axes": "(0, 2, 3, 1)"}, 
      "inputs": [[91, 0, 0]]
    }, 
    {
      "op": "Flatten", 
      "name": "ssd_vgg160_flatten2", 
      "inputs": [[92, 0, 0]]
    }, 
    {
      "op": "null", 
      "name": "vggatrousextractor2_extra1_conv0_weight", 
      "attrs": {
        "__dtype__": "0", 
        "__init__": "[\"xavier\", {\"rnd_type\": \"gaussian\", \"factor_type\": \"out\", \"magnitude\": 3}]", 
        "__lr_mult__": "1.0", 
        "__shape__": "(128, 0, 1, 1)", 
        "__storage_type__": "0", 
        "__wd_mult__": "1.0"
      }, 
      "inputs": []
    }, 
    {
      "op": "null", 
      "name": "vggatrousextractor2_extra1_conv0_bias", 
      "attrs": {
        "__dtype__": "0", 
        "__init__": "zeros", 
        "__lr_mult__": "1.0", 
        "__shape__": "(128,)", 
        "__storage_type__": "0", 
        "__wd_mult__": "1.0"
      }, 
      "inputs": []
    }, 
    {
      "op": "Convolution", 
      "name": "vggatrousextractor2_extra1_conv0_fwd", 
      "attrs": {
        "dilate": "(1, 1)", 
        "kernel": "(1, 1)", 
        "layout": "NCHW", 
        "no_bias": "False", 
        "num_filter": "128", 
        "num_group": "1", 
        "pad": "(0, 0)", 
        "stride": "(1, 1)"
      }, 
      "inputs": [[88, 0, 0], [94, 0, 0], [95, 0, 0]]
    }, 
    {
      "op": "Activation", 
      "name": "vggatrousextractor2_extra1_relu0_fwd", 
      "attrs": {"act_type": "relu"}, 
      "inputs": [[96, 0, 0]]
    }, 
    {
      "op": "null", 
      "name": "vggatrousextractor2_extra1_conv1_weight", 
      "attrs": {
        "__dtype__": "0", 
        "__init__": "[\"xavier\", {\"rnd_type\": \"gaussian\", \"factor_type\": \"out\", \"magnitude\": 3}]", 
        "__lr_mult__": "1.0", 
        "__shape__": "(256, 0, 3, 3)", 
        "__storage_type__": "0", 
        "__wd_mult__": "1.0"
      }, 
      "inputs": []
    }, 
    {
      "op": "null", 
      "name": "vggatrousextractor2_extra1_conv1_bias", 
      "attrs": {
        "__dtype__": "0", 
        "__init__": "zeros", 
        "__lr_mult__": "1.0", 
        "__shape__": "(256,)", 
        "__storage_type__": "0", 
        "__wd_mult__": "1.0"
      }, 
      "inputs": []
    }, 
    {
      "op": "Convolution", 
      "name": "vggatrousextractor2_extra1_conv1_fwd", 
      "attrs": {
        "dilate": "(1, 1)", 
        "kernel": "(3, 3)", 
        "layout": "NCHW", 
        "no_bias": "False", 
        "num_filter": "256", 
        "num_group": "1", 
        "pad": "(1, 1)", 
        "stride": "(2, 2)"
      }, 
      "inputs": [[97, 0, 0], [98, 0, 0], [99, 0, 0]]
    }, 
    {
      "op": "Activation", 
      "name": "vggatrousextractor2_extra1_relu1_fwd", 
      "attrs": {"act_type": "relu"}, 
      "inputs": [[100, 0, 0]]
    }, 
    {
      "op": "null", 
      "name": "ssd_vgg160_convpredictor6_conv0_weight", 
      "attrs": {
        "__dtype__": "0", 
        "__init__": "[\"xavier\", {\"rnd_type\": \"uniform\", \"factor_type\": \"avg\", \"magnitude\": 3}]", 
        "__lr_mult__": "1.0", 
        "__shape__": "(36, 0, 3, 3)", 
        "__storage_type__": "0", 
        "__wd_mult__": "1.0"
      }, 
      "inputs": []
    }, 
    {
      "op": "null", 
      "name": "ssd_vgg160_convpredictor6_conv0_bias", 
      "attrs": {
        "__dtype__": "0", 
        "__init__": "zeros", 
        "__lr_mult__": "1.0", 
        "__shape__": "(36,)", 
        "__storage_type__": "0", 
        "__wd_mult__": "1.0"
      }, 
      "inputs": []
    }, 
    {
      "op": "Convolution", 
      "name": "ssd_vgg160_convpredictor6_conv0_fwd", 
      "attrs": {
        "dilate": "(1, 1)", 
        "kernel": "(3, 3)", 
        "layout": "NCHW", 
        "no_bias": "False", 
        "num_filter": "36", 
        "num_group": "1", 
        "pad": "(1, 1)", 
        "stride": "(1, 1)"
      }, 
      "inputs": [[101, 0, 0], [102, 0, 0], [103, 0, 0]]
    }, 
    {
      "op": "transpose", 
      "name": "ssd_vgg160_transpose3", 
      "attrs": {"axes": "(0, 2, 3, 1)"}, 
      "inputs": [[104, 0, 0]]
    }, 
    {
      "op": "Flatten", 
      "name": "ssd_vgg160_flatten3", 
      "inputs": [[105, 0, 0]]
    }, 
    {
      "op": "null", 
      "name": "vggatrousextractor2_extra2_conv0_weight", 
      "attrs": {
        "__dtype__": "0", 
        "__init__": "[\"xavier\", {\"rnd_type\": \"gaussian\", \"factor_type\": \"out\", \"magnitude\": 3}]", 
        "__lr_mult__": "1.0", 
        "__shape__": "(128, 0, 1, 1)", 
        "__storage_type__": "0", 
        "__wd_mult__": "1.0"
      }, 
      "inputs": []
    }, 
    {
      "op": "null", 
      "name": "vggatrousextractor2_extra2_conv0_bias", 
      "attrs": {
        "__dtype__": "0", 
        "__init__": "zeros", 
        "__lr_mult__": "1.0", 
        "__shape__": "(128,)", 
        "__storage_type__": "0", 
        "__wd_mult__": "1.0"
      }, 
      "inputs": []
    }, 
    {
      "op": "Convolution", 
      "name": "vggatrousextractor2_extra2_conv0_fwd", 
      "attrs": {
        "dilate": "(1, 1)", 
        "kernel": "(1, 1)", 
        "layout": "NCHW", 
        "no_bias": "False", 
        "num_filter": "128", 
        "num_group": "1", 
        "pad": "(0, 0)", 
        "stride": "(1, 1)"
      }, 
      "inputs": [[101, 0, 0], [107, 0, 0], [108, 0, 0]]
    }, 
    {
      "op": "Activation", 
      "name": "vggatrousextractor2_extra2_relu0_fwd", 
      "attrs": {"act_type": "relu"}, 
      "inputs": [[109, 0, 0]]
    }, 
    {
      "op": "null", 
      "name": "vggatrousextractor2_extra2_conv1_weight", 
      "attrs": {
        "__dtype__": "0", 
        "__init__": "[\"xavier\", {\"rnd_type\": \"gaussian\", \"factor_type\": \"out\", \"magnitude\": 3}]", 
        "__lr_mult__": "1.0", 
        "__shape__": "(256, 0, 3, 3)", 
        "__storage_type__": "0", 
        "__wd_mult__": "1.0"
      }, 
      "inputs": []
    }, 
    {
      "op": "null", 
      "name": "vggatrousextractor2_extra2_conv1_bias", 
      "attrs": {
        "__dtype__": "0", 
        "__init__": "zeros", 
        "__lr_mult__": "1.0", 
        "__shape__": "(256,)", 
        "__storage_type__": "0", 
        "__wd_mult__": "1.0"
      }, 
      "inputs": []
    }, 
    {
      "op": "Convolution", 
      "name": "vggatrousextractor2_extra2_conv1_fwd", 
      "attrs": {
        "dilate": "(1, 1)", 
        "kernel": "(3, 3)", 
        "layout": "NCHW", 
        "no_bias": "False", 
        "num_filter": "256", 
        "num_group": "1", 
        "pad": "(1, 1)", 
        "stride": "(2, 2)"
      }, 
      "inputs": [[110, 0, 0], [111, 0, 0], [112, 0, 0]]
    }, 
    {
      "op": "Activation", 
      "name": "vggatrousextractor2_extra2_relu1_fwd", 
      "attrs": {"act_type": "relu"}, 
      "inputs": [[113, 0, 0]]
    }, 
    {
      "op": "null", 
      "name": "ssd_vgg160_convpredictor8_conv0_weight", 
      "attrs": {
        "__dtype__": "0", 
        "__init__": "[\"xavier\", {\"rnd_type\": \"uniform\", \"factor_type\": \"avg\", \"magnitude\": 3}]", 
        "__lr_mult__": "1.0", 
        "__shape__": "(36, 0, 3, 3)", 
        "__storage_type__": "0", 
        "__wd_mult__": "1.0"
      }, 
      "inputs": []
    }, 
    {
      "op": "null", 
      "name": "ssd_vgg160_convpredictor8_conv0_bias", 
      "attrs": {
        "__dtype__": "0", 
        "__init__": "zeros", 
        "__lr_mult__": "1.0", 
        "__shape__": "(36,)", 
        "__storage_type__": "0", 
        "__wd_mult__": "1.0"
      }, 
      "inputs": []
    }, 
    {
      "op": "Convolution", 
      "name": "ssd_vgg160_convpredictor8_conv0_fwd", 
      "attrs": {
        "dilate": "(1, 1)", 
        "kernel": "(3, 3)", 
        "layout": "NCHW", 
        "no_bias": "False", 
        "num_filter": "36", 
        "num_group": "1", 
        "pad": "(1, 1)", 
        "stride": "(1, 1)"
      }, 
      "inputs": [[114, 0, 0], [115, 0, 0], [116, 0, 0]]
    }, 
    {
      "op": "transpose", 
      "name": "ssd_vgg160_transpose4", 
      "attrs": {"axes": "(0, 2, 3, 1)"}, 
      "inputs": [[117, 0, 0]]
    }, 
    {
      "op": "Flatten", 
      "name": "ssd_vgg160_flatten4", 
      "inputs": [[118, 0, 0]]
    }, 
    {
      "op": "null", 
      "name": "vggatrousextractor2_extra3_conv0_weight", 
      "attrs": {
        "__dtype__": "0", 
        "__init__": "[\"xavier\", {\"rnd_type\": \"gaussian\", \"factor_type\": \"out\", \"magnitude\": 3}]", 
        "__lr_mult__": "1.0", 
        "__shape__": "(128, 0, 1, 1)", 
        "__storage_type__": "0", 
        "__wd_mult__": "1.0"
      }, 
      "inputs": []
    }, 
    {
      "op": "null", 
      "name": "vggatrousextractor2_extra3_conv0_bias", 
      "attrs": {
        "__dtype__": "0", 
        "__init__": "zeros", 
        "__lr_mult__": "1.0", 
        "__shape__": "(128,)", 
        "__storage_type__": "0", 
        "__wd_mult__": "1.0"
      }, 
      "inputs": []
    }, 
    {
      "op": "Convolution", 
      "name": "vggatrousextractor2_extra3_conv0_fwd", 
      "attrs": {
        "dilate": "(1, 1)", 
        "kernel": "(1, 1)", 
        "layout": "NCHW", 
        "no_bias": "False", 
        "num_filter": "128", 
        "num_group": "1", 
        "pad": "(0, 0)", 
        "stride": "(1, 1)"
      }, 
      "inputs": [[114, 0, 0], [120, 0, 0], [121, 0, 0]]
    }, 
    {
      "op": "Activation", 
      "name": "vggatrousextractor2_extra3_relu0_fwd", 
      "attrs": {"act_type": "relu"}, 
      "inputs": [[122, 0, 0]]
    }, 
    {
      "op": "null", 
      "name": "vggatrousextractor2_extra3_conv1_weight", 
      "attrs": {
        "__dtype__": "0", 
        "__init__": "[\"xavier\", {\"rnd_type\": \"gaussian\", \"factor_type\": \"out\", \"magnitude\": 3}]", 
        "__lr_mult__": "1.0", 
        "__shape__": "(256, 0, 3, 3)", 
        "__storage_type__": "0", 
        "__wd_mult__": "1.0"
      }, 
      "inputs": []
    }, 
    {
      "op": "null", 
      "name": "vggatrousextractor2_extra3_conv1_bias", 
      "attrs": {
        "__dtype__": "0", 
        "__init__": "zeros", 
        "__lr_mult__": "1.0", 
        "__shape__": "(256,)", 
        "__storage_type__": "0", 
        "__wd_mult__": "1.0"
      }, 
      "inputs": []
    }, 
    {
      "op": "Convolution", 
      "name": "vggatrousextractor2_extra3_conv1_fwd", 
      "attrs": {
        "dilate": "(1, 1)", 
        "kernel": "(3, 3)", 
        "layout": "NCHW", 
        "no_bias": "False", 
        "num_filter": "256", 
        "num_group": "1", 
        "pad": "(1, 1)", 
        "stride": "(2, 2)"
      }, 
      "inputs": [[123, 0, 0], [124, 0, 0], [125, 0, 0]]
    }, 
    {
      "op": "Activation", 
      "name": "vggatrousextractor2_extra3_relu1_fwd", 
      "attrs": {"act_type": "relu"}, 
      "inputs": [[126, 0, 0]]
    }, 
    {
      "op": "null", 
      "name": "ssd_vgg160_convpredictor10_conv0_weight", 
      "attrs": {
        "__dtype__": "0", 
        "__init__": "[\"xavier\", {\"rnd_type\": \"uniform\", \"factor_type\": \"avg\", \"magnitude\": 3}]", 
        "__lr_mult__": "1.0", 
        "__shape__": "(24, 0, 3, 3)", 
        "__storage_type__": "0", 
        "__wd_mult__": "1.0"
      }, 
      "inputs": []
    }, 
    {
      "op": "null", 
      "name": "ssd_vgg160_convpredictor10_conv0_bias", 
      "attrs": {
        "__dtype__": "0", 
        "__init__": "zeros", 
        "__lr_mult__": "1.0", 
        "__shape__": "(24,)", 
        "__storage_type__": "0", 
        "__wd_mult__": "1.0"
      }, 
      "inputs": []
    }, 
    {
      "op": "Convolution", 
      "name": "ssd_vgg160_convpredictor10_conv0_fwd", 
      "attrs": {
        "dilate": "(1, 1)", 
        "kernel": "(3, 3)", 
        "layout": "NCHW", 
        "no_bias": "False", 
        "num_filter": "24", 
        "num_group": "1", 
        "pad": "(1, 1)", 
        "stride": "(1, 1)"
      }, 
      "inputs": [[127, 0, 0], [128, 0, 0], [129, 0, 0]]
    }, 
    {
      "op": "transpose", 
      "name": "ssd_vgg160_transpose5", 
      "attrs": {"axes": "(0, 2, 3, 1)"}, 
      "inputs": [[130, 0, 0]]
    }, 
    {
      "op": "Flatten", 
      "name": "ssd_vgg160_flatten5", 
      "inputs": [[131, 0, 0]]
    }, 
    {
      "op": "null", 
      "name": "vggatrousextractor2_extra4_conv0_weight", 
      "attrs": {
        "__dtype__": "0", 
        "__init__": "[\"xavier\", {\"rnd_type\": \"gaussian\", \"factor_type\": \"out\", \"magnitude\": 3}]", 
        "__lr_mult__": "1.0", 
        "__shape__": "(128, 0, 1, 1)", 
        "__storage_type__": "0", 
        "__wd_mult__": "1.0"
      }, 
      "inputs": []
    }, 
    {
      "op": "null", 
      "name": "vggatrousextractor2_extra4_conv0_bias", 
      "attrs": {
        "__dtype__": "0", 
        "__init__": "zeros", 
        "__lr_mult__": "1.0", 
        "__shape__": "(128,)", 
        "__storage_type__": "0", 
        "__wd_mult__": "1.0"
      }, 
      "inputs": []
    }, 
    {
      "op": "Convolution", 
      "name": "vggatrousextractor2_extra4_conv0_fwd", 
      "attrs": {
        "dilate": "(1, 1)", 
        "kernel": "(1, 1)", 
        "layout": "NCHW", 
        "no_bias": "False", 
        "num_filter": "128", 
        "num_group": "1", 
        "pad": "(0, 0)", 
        "stride": "(1, 1)"
      }, 
      "inputs": [[127, 0, 0], [133, 0, 0], [134, 0, 0]]
    }, 
    {
      "op": "Activation", 
      "name": "vggatrousextractor2_extra4_relu0_fwd", 
      "attrs": {"act_type": "relu"}, 
      "inputs": [[135, 0, 0]]
    }, 
    {
      "op": "null", 
      "name": "vggatrousextractor2_extra4_conv1_weight", 
      "attrs": {
        "__dtype__": "0", 
        "__init__": "[\"xavier\", {\"rnd_type\": \"gaussian\", \"factor_type\": \"out\", \"magnitude\": 3}]", 
        "__lr_mult__": "1.0", 
        "__shape__": "(256, 0, 4, 4)", 
        "__storage_type__": "0", 
        "__wd_mult__": "1.0"
      }, 
      "inputs": []
    }, 
    {
      "op": "null", 
      "name": "vggatrousextractor2_extra4_conv1_bias", 
      "attrs": {
        "__dtype__": "0", 
        "__init__": "zeros", 
        "__lr_mult__": "1.0", 
        "__shape__": "(256,)", 
        "__storage_type__": "0", 
        "__wd_mult__": "1.0"
      }, 
      "inputs": []
    }, 
    {
      "op": "Convolution", 
      "name": "vggatrousextractor2_extra4_conv1_fwd", 
      "attrs": {
        "dilate": "(1, 1)", 
        "kernel": "(4, 4)", 
        "layout": "NCHW", 
        "no_bias": "False", 
        "num_filter": "256", 
        "num_group": "1", 
        "pad": "(1, 1)", 
        "stride": "(1, 1)"
      }, 
      "inputs": [[136, 0, 0], [137, 0, 0], [138, 0, 0]]
    }, 
    {
      "op": "Activation", 
      "name": "vggatrousextractor2_extra4_relu1_fwd", 
      "attrs": {"act_type": "relu"}, 
      "inputs": [[139, 0, 0]]
    }, 
    {
      "op": "null", 
      "name": "ssd_vgg160_convpredictor12_conv0_weight", 
      "attrs": {
        "__dtype__": "0", 
        "__init__": "[\"xavier\", {\"rnd_type\": \"uniform\", \"factor_type\": \"avg\", \"magnitude\": 3}]", 
        "__lr_mult__": "1.0", 
        "__shape__": "(24, 0, 3, 3)", 
        "__storage_type__": "0", 
        "__wd_mult__": "1.0"
      }, 
      "inputs": []
    }, 
    {
      "op": "null", 
      "name": "ssd_vgg160_convpredictor12_conv0_bias", 
      "attrs": {
        "__dtype__": "0", 
        "__init__": "zeros", 
        "__lr_mult__": "1.0", 
        "__shape__": "(24,)", 
        "__storage_type__": "0", 
        "__wd_mult__": "1.0"
      }, 
      "inputs": []
    }, 
    {
      "op": "Convolution", 
      "name": "ssd_vgg160_convpredictor12_conv0_fwd", 
      "attrs": {
        "dilate": "(1, 1)", 
        "kernel": "(3, 3)", 
        "layout": "NCHW", 
        "no_bias": "False", 
        "num_filter": "24", 
        "num_group": "1", 
        "pad": "(1, 1)", 
        "stride": "(1, 1)"
      }, 
      "inputs": [[140, 0, 0], [141, 0, 0], [142, 0, 0]]
    }, 
    {
      "op": "transpose", 
      "name": "ssd_vgg160_transpose6", 
      "attrs": {"axes": "(0, 2, 3, 1)"}, 
      "inputs": [[143, 0, 0]]
    }, 
    {
      "op": "Flatten", 
      "name": "ssd_vgg160_flatten6", 
      "inputs": [[144, 0, 0]]
    }, 
    {
      "op": "Concat", 
      "name": "ssd_vgg160_concat0", 
      "attrs": {
        "dim": "-1", 
        "num_args": "7"
      }, 
      "inputs": [[53, 0, 0], [80, 0, 0], [93, 0, 0], [106, 0, 0], [119, 0, 0], [132, 0, 0], [145, 0, 0]]
    }, 
    {
      "op": "Reshape", 
      "name": "ssd_vgg160_reshape0", 
      "attrs": {"shape": "(0, -1, 6)"}, 
      "inputs": [[146, 0, 0]]
    }, 
    {
      "op": "null", 
      "name": "ssd_vgg160_convpredictor1_conv0_weight", 
      "attrs": {
        "__dtype__": "0", 
        "__init__": "[\"xavier\", {\"rnd_type\": \"uniform\", \"factor_type\": \"avg\", \"magnitude\": 3}]", 
        "__lr_mult__": "1.0", 
        "__shape__": "(16, 0, 3, 3)", 
        "__storage_type__": "0", 
        "__wd_mult__": "1.0"
      }, 
      "inputs": []
    }, 
    {
      "op": "null", 
      "name": "ssd_vgg160_convpredictor1_conv0_bias", 
      "attrs": {
        "__dtype__": "0", 
        "__init__": "zeros", 
        "__lr_mult__": "1.0", 
        "__shape__": "(16,)", 
        "__storage_type__": "0", 
        "__wd_mult__": "1.0"
      }, 
      "inputs": []
    }, 
    {
      "op": "Convolution", 
      "name": "ssd_vgg160_convpredictor1_conv0_fwd", 
      "attrs": {
        "dilate": "(1, 1)", 
        "kernel": "(3, 3)", 
        "layout": "NCHW", 
        "no_bias": "False", 
        "num_filter": "16", 
        "num_group": "1", 
        "pad": "(1, 1)", 
        "stride": "(1, 1)"
      }, 
      "inputs": [[48, 0, 0], [148, 0, 0], [149, 0, 0]]
    }, 
    {
      "op": "transpose", 
      "name": "ssd_vgg160_transpose7", 
      "attrs": {"axes": "(0, 2, 3, 1)"}, 
      "inputs": [[150, 0, 0]]
    }, 
    {
      "op": "Flatten", 
      "name": "ssd_vgg160_flatten7", 
      "inputs": [[151, 0, 0]]
    }, 
    {
      "op": "null", 
      "name": "ssd_vgg160_convpredictor3_conv0_weight", 
      "attrs": {
        "__dtype__": "0", 
        "__init__": "[\"xavier\", {\"rnd_type\": \"uniform\", \"factor_type\": \"avg\", \"magnitude\": 3}]", 
        "__lr_mult__": "1.0", 
        "__shape__": "(24, 0, 3, 3)", 
        "__storage_type__": "0", 
        "__wd_mult__": "1.0"
      }, 
      "inputs": []
    }, 
    {
      "op": "null", 
      "name": "ssd_vgg160_convpredictor3_conv0_bias", 
      "attrs": {
        "__dtype__": "0", 
        "__init__": "zeros", 
        "__lr_mult__": "1.0", 
        "__shape__": "(24,)", 
        "__storage_type__": "0", 
        "__wd_mult__": "1.0"
      }, 
      "inputs": []
    }, 
    {
      "op": "Convolution", 
      "name": "ssd_vgg160_convpredictor3_conv0_fwd", 
      "attrs": {
        "dilate": "(1, 1)", 
        "kernel": "(3, 3)", 
        "layout": "NCHW", 
        "no_bias": "False", 
        "num_filter": "24", 
        "num_group": "1", 
        "pad": "(1, 1)", 
        "stride": "(1, 1)"
      }, 
      "inputs": [[75, 0, 0], [153, 0, 0], [154, 0, 0]]
    }, 
    {
      "op": "transpose", 
      "name": "ssd_vgg160_transpose8", 
      "attrs": {"axes": "(0, 2, 3, 1)"}, 
      "inputs": [[155, 0, 0]]
    }, 
    {
      "op": "Flatten", 
      "name": "ssd_vgg160_flatten8", 
      "inputs": [[156, 0, 0]]
    }, 
    {
      "op": "null", 
      "name": "ssd_vgg160_convpredictor5_conv0_weight", 
      "attrs": {
        "__dtype__": "0", 
        "__init__": "[\"xavier\", {\"rnd_type\": \"uniform\", \"factor_type\": \"avg\", \"magnitude\": 3}]", 
        "__lr_mult__": "1.0", 
        "__shape__": "(24, 0, 3, 3)", 
        "__storage_type__": "0", 
        "__wd_mult__": "1.0"
      }, 
      "inputs": []
    }, 
    {
      "op": "null", 
      "name": "ssd_vgg160_convpredictor5_conv0_bias", 
      "attrs": {
        "__dtype__": "0", 
        "__init__": "zeros", 
        "__lr_mult__": "1.0", 
        "__shape__": "(24,)", 
        "__storage_type__": "0", 
        "__wd_mult__": "1.0"
      }, 
      "inputs": []
    }, 
    {
      "op": "Convolution", 
      "name": "ssd_vgg160_convpredictor5_conv0_fwd", 
      "attrs": {
        "dilate": "(1, 1)", 
        "kernel": "(3, 3)", 
        "layout": "NCHW", 
        "no_bias": "False", 
        "num_filter": "24", 
        "num_group": "1", 
        "pad": "(1, 1)", 
        "stride": "(1, 1)"
      }, 
      "inputs": [[88, 0, 0], [158, 0, 0], [159, 0, 0]]
    }, 
    {
      "op": "transpose", 
      "name": "ssd_vgg160_transpose9", 
      "attrs": {"axes": "(0, 2, 3, 1)"}, 
      "inputs": [[160, 0, 0]]
    }, 
    {
      "op": "Flatten", 
      "name": "ssd_vgg160_flatten9", 
      "inputs": [[161, 0, 0]]
    }, 
    {
      "op": "null", 
      "name": "ssd_vgg160_convpredictor7_conv0_weight", 
      "attrs": {
        "__dtype__": "0", 
        "__init__": "[\"xavier\", {\"rnd_type\": \"uniform\", \"factor_type\": \"avg\", \"magnitude\": 3}]", 
        "__lr_mult__": "1.0", 
        "__shape__": "(24, 0, 3, 3)", 
        "__storage_type__": "0", 
        "__wd_mult__": "1.0"
      }, 
      "inputs": []
    }, 
    {
      "op": "null", 
      "name": "ssd_vgg160_convpredictor7_conv0_bias", 
      "attrs": {
        "__dtype__": "0", 
        "__init__": "zeros", 
        "__lr_mult__": "1.0", 
        "__shape__": "(24,)", 
        "__storage_type__": "0", 
        "__wd_mult__": "1.0"
      }, 
      "inputs": []
    }, 
    {
      "op": "Convolution", 
      "name": "ssd_vgg160_convpredictor7_conv0_fwd", 
      "attrs": {
        "dilate": "(1, 1)", 
        "kernel": "(3, 3)", 
        "layout": "NCHW", 
        "no_bias": "False", 
        "num_filter": "24", 
        "num_group": "1", 
        "pad": "(1, 1)", 
        "stride": "(1, 1)"
      }, 
      "inputs": [[101, 0, 0], [163, 0, 0], [164, 0, 0]]
    }, 
    {
      "op": "transpose", 
      "name": "ssd_vgg160_transpose10", 
      "attrs": {"axes": "(0, 2, 3, 1)"}, 
      "inputs": [[165, 0, 0]]
    }, 
    {
      "op": "Flatten", 
      "name": "ssd_vgg160_flatten10", 
      "inputs": [[166, 0, 0]]
    }, 
    {
      "op": "null", 
      "name": "ssd_vgg160_convpredictor9_conv0_weight", 
      "attrs": {
        "__dtype__": "0", 
        "__init__": "[\"xavier\", {\"rnd_type\": \"uniform\", \"factor_type\": \"avg\", \"magnitude\": 3}]", 
        "__lr_mult__": "1.0", 
        "__shape__": "(24, 0, 3, 3)", 
        "__storage_type__": "0", 
        "__wd_mult__": "1.0"
      }, 
      "inputs": []
    }, 
    {
      "op": "null", 
      "name": "ssd_vgg160_convpredictor9_conv0_bias", 
      "attrs": {
        "__dtype__": "0", 
        "__init__": "zeros", 
        "__lr_mult__": "1.0", 
        "__shape__": "(24,)", 
        "__storage_type__": "0", 
        "__wd_mult__": "1.0"
      }, 
      "inputs": []
    }, 
    {
      "op": "Convolution", 
      "name": "ssd_vgg160_convpredictor9_conv0_fwd", 
      "attrs": {
        "dilate": "(1, 1)", 
        "kernel": "(3, 3)", 
        "layout": "NCHW", 
        "no_bias": "False", 
        "num_filter": "24", 
        "num_group": "1", 
        "pad": "(1, 1)", 
        "stride": "(1, 1)"
      }, 
      "inputs": [[114, 0, 0], [168, 0, 0], [169, 0, 0]]
    }, 
    {
      "op": "transpose", 
      "name": "ssd_vgg160_transpose11", 
      "attrs": {"axes": "(0, 2, 3, 1)"}, 
      "inputs": [[170, 0, 0]]
    }, 
    {
      "op": "Flatten", 
      "name": "ssd_vgg160_flatten11", 
      "inputs": [[171, 0, 0]]
    }, 
    {
      "op": "null", 
      "name": "ssd_vgg160_convpredictor11_conv0_weight", 
      "attrs": {
        "__dtype__": "0", 
        "__init__": "[\"xavier\", {\"rnd_type\": \"uniform\", \"factor_type\": \"avg\", \"magnitude\": 3}]", 
        "__lr_mult__": "1.0", 
        "__shape__": "(16, 0, 3, 3)", 
        "__storage_type__": "0", 
        "__wd_mult__": "1.0"
      }, 
      "inputs": []
    }, 
    {
      "op": "null", 
      "name": "ssd_vgg160_convpredictor11_conv0_bias", 
      "attrs": {
        "__dtype__": "0", 
        "__init__": "zeros", 
        "__lr_mult__": "1.0", 
        "__shape__": "(16,)", 
        "__storage_type__": "0", 
        "__wd_mult__": "1.0"
      }, 
      "inputs": []
    }, 
    {
      "op": "Convolution", 
      "name": "ssd_vgg160_convpredictor11_conv0_fwd", 
      "attrs": {
        "dilate": "(1, 1)", 
        "kernel": "(3, 3)", 
        "layout": "NCHW", 
        "no_bias": "False", 
        "num_filter": "16", 
        "num_group": "1", 
        "pad": "(1, 1)", 
        "stride": "(1, 1)"
      }, 
      "inputs": [[127, 0, 0], [173, 0, 0], [174, 0, 0]]
    }, 
    {
      "op": "transpose", 
      "name": "ssd_vgg160_transpose12", 
      "attrs": {"axes": "(0, 2, 3, 1)"}, 
      "inputs": [[175, 0, 0]]
    }, 
    {
      "op": "Flatten", 
      "name": "ssd_vgg160_flatten12", 
      "inputs": [[176, 0, 0]]
    }, 
    {
      "op": "null", 
      "name": "ssd_vgg160_convpredictor13_conv0_weight", 
      "attrs": {
        "__dtype__": "0", 
        "__init__": "[\"xavier\", {\"rnd_type\": \"uniform\", \"factor_type\": \"avg\", \"magnitude\": 3}]", 
        "__lr_mult__": "1.0", 
        "__shape__": "(16, 0, 3, 3)", 
        "__storage_type__": "0", 
        "__wd_mult__": "1.0"
      }, 
      "inputs": []
    }, 
    {
      "op": "null", 
      "name": "ssd_vgg160_convpredictor13_conv0_bias", 
      "attrs": {
        "__dtype__": "0", 
        "__init__": "zeros", 
        "__lr_mult__": "1.0", 
        "__shape__": "(16,)", 
        "__storage_type__": "0", 
        "__wd_mult__": "1.0"
      }, 
      "inputs": []
    }, 
    {
      "op": "Convolution", 
      "name": "ssd_vgg160_convpredictor13_conv0_fwd", 
      "attrs": {
        "dilate": "(1, 1)", 
        "kernel": "(3, 3)", 
        "layout": "NCHW", 
        "no_bias": "False", 
        "num_filter": "16", 
        "num_group": "1", 
        "pad": "(1, 1)", 
        "stride": "(1, 1)"
      }, 
      "inputs": [[140, 0, 0], [178, 0, 0], [179, 0, 0]]
    }, 
    {
      "op": "transpose", 
      "name": "ssd_vgg160_transpose13", 
      "attrs": {"axes": "(0, 2, 3, 1)"}, 
      "inputs": [[180, 0, 0]]
    }, 
    {
      "op": "Flatten", 
      "name": "ssd_vgg160_flatten13", 
      "inputs": [[181, 0, 0]]
    }, 
    {
      "op": "Concat", 
      "name": "ssd_vgg160_concat1", 
      "attrs": {
        "dim": "-1", 
        "num_args": "7"
      }, 
      "inputs": [[152, 0, 0], [157, 0, 0], [162, 0, 0], [167, 0, 0], [172, 0, 0], [177, 0, 0], [182, 0, 0]]
    }, 
    {
      "op": "Reshape", 
      "name": "ssd_vgg160_reshape1", 
      "attrs": {"shape": "(0, -1, 4)"}, 
      "inputs": [[183, 0, 0]]
    }, 
    {
      "op": "null", 
      "name": "ssd_vgg160_ssdanchorgenerator0_anchor_0", 
      "attrs": {
        "__dtype__": "0", 
        "__init__": "Constant_ssd_vgg160_ssdanchorgenerator0_anchor_0_140242909825552", 
        "__lr_mult__": "1.0", 
        "__shape__": "(15000, 4)", 
        "__storage_type__": "0", 
        "__wd_mult__": "1.0"
      }, 
      "inputs": []
    }, 
    {
      "op": "null", 
      "name": "ssd_vgg160_ssdanchorgenerator1_anchor_1", 
      "attrs": {
        "__dtype__": "0", 
        "__init__": "Constant_ssd_vgg160_ssdanchorgenerator1_anchor_1_140241085514832", 
        "__lr_mult__": "1.0", 
        "__shape__": "(5550, 4)", 
        "__storage_type__": "0", 
        "__wd_mult__": "1.0"
      }, 
      "inputs": []
    }, 
    {
      "op": "null", 
      "name": "ssd_vgg160_ssdanchorgenerator2_anchor_2", 
      "attrs": {
        "__dtype__": "0", 
        "__init__": "Constant_ssd_vgg160_ssdanchorgenerator2_anchor_2_140241086173968", 
        "__lr_mult__": "1.0", 
        "__shape__": "(1482, 4)", 
        "__storage_type__": "0", 
        "__wd_mult__": "1.0"
      }, 
      "inputs": []
    }, 
    {
      "op": "null", 
      "name": "ssd_vgg160_ssdanchorgenerator3_anchor_3", 
      "attrs": {
        "__dtype__": "0", 
        "__init__": "Constant_ssd_vgg160_ssdanchorgenerator3_anchor_3_140241085525072", 
        "__lr_mult__": "1.0", 
        "__shape__": "(420, 4)", 
        "__storage_type__": "0", 
        "__wd_mult__": "1.0"
      }, 
      "inputs": []
    }, 
    {
      "op": "null", 
      "name": "ssd_vgg160_ssdanchorgenerator4_anchor_4", 
      "attrs": {
        "__dtype__": "0", 
        "__init__": "Constant_ssd_vgg160_ssdanchorgenerator4_anchor_4_140241085933584", 
        "__lr_mult__": "1.0", 
        "__shape__": "(120, 4)", 
        "__storage_type__": "0", 
        "__wd_mult__": "1.0"
      }, 
      "inputs": []
    }, 
    {
      "op": "null", 
      "name": "ssd_vgg160_ssdanchorgenerator5_anchor_5", 
      "attrs": {
        "__dtype__": "0", 
        "__init__": "Constant_ssd_vgg160_ssdanchorgenerator5_anchor_5_140241085932560", 
        "__lr_mult__": "1.0", 
        "__shape__": "(24, 4)", 
        "__storage_type__": "0", 
        "__wd_mult__": "1.0"
      }, 
      "inputs": []
    }, 
    {
      "op": "null", 
      "name": "ssd_vgg160_ssdanchorgenerator6_anchor_6", 
      "attrs": {
        "__dtype__": "0", 
        "__init__": "Constant_ssd_vgg160_ssdanchorgenerator6_anchor_6_140241085493136", 
        "__lr_mult__": "1.0", 
        "__shape__": "(8, 4)", 
        "__storage_type__": "0", 
        "__wd_mult__": "1.0"
      }, 
      "inputs": []
    }, 
    {
      "op": "Concat", 
      "name": "ssd_vgg160_concat2", 
      "attrs": {
        "dim": "0", 
        "num_args": "7"
      }, 
      "inputs": [[185, 0, 0], [186, 0, 0], [187, 0, 0], [188, 0, 0], [189, 0, 0], [190, 0, 0], [191, 0, 0]]
    }, 
    {
      "op": "Reshape", 
      "name": "ssd_vgg160_reshape2", 
      "attrs": {"shape": "(1, -1, 4)"}, 
      "inputs": [[192, 0, 0]]
    }
  ], 
  "arg_nodes": [
    0, 
    1, 
    3, 
    4, 
    7, 
    8, 
    12, 
    13, 
    16, 
    17, 
    21, 
    22, 
    25, 
    26, 
    29, 
    30, 
    34, 
    35, 
    38, 
    39, 
    42, 
    43, 
    47, 
    49, 
    50, 
    55, 
    56, 
    59, 
    60, 
    63, 
    64, 
    68, 
    69, 
    72, 
    73, 
    76, 
    77, 
    81, 
    82, 
    85, 
    86, 
    89, 
    90, 
    94, 
    95, 
    98, 
    99, 
    102, 
    103, 
    107, 
    108, 
    111, 
    112, 
    115, 
    116, 
    120, 
    121, 
    124, 
    125, 
    128, 
    129, 
    133, 
    134, 
    137, 
    138, 
    141, 
    142, 
    148, 
    149, 
    153, 
    154, 
    158, 
    159, 
    163, 
    164, 
    168, 
    169, 
    173, 
    174, 
    178, 
    179, 
    185, 
    186, 
    187, 
    188, 
    189, 
    190, 
    191
  ], 
  "node_row_ptr": [
    0, 
    1, 
    2, 
    3, 
    4, 
    5, 
    6, 
    7, 
    8, 
    9, 
    10, 
    11, 
    12, 
    13, 
    14, 
    15, 
    16, 
    17, 
    18, 
    19, 
    20, 
    21, 
    22, 
    23, 
    24, 
    25, 
    26, 
    27, 
    28, 
    29, 
    30, 
    31, 
    32, 
    33, 
    34, 
    35, 
    36, 
    37, 
    38, 
    39, 
    40, 
    41, 
    42, 
    43, 
    44, 
    45, 
    46, 
    48, 
    49, 
    50, 
    51, 
    52, 
    53, 
    54, 
    55, 
    56, 
    57, 
    58, 
    59, 
    60, 
    61, 
    62, 
    63, 
    64, 
    65, 
    66, 
    67, 
    68, 
    69, 
    70, 
    71, 
    72, 
    73, 
    74, 
    75, 
    76, 
    77, 
    78, 
    79, 
    80, 
    81, 
    82, 
    83, 
    84, 
    85, 
    86, 
    87, 
    88, 
    89, 
    90, 
    91, 
    92, 
    93, 
    94, 
    95, 
    96, 
    97, 
    98, 
    99, 
    100, 
    101, 
    102, 
    103, 
    104, 
    105, 
    106, 
    107, 
    108, 
    109, 
    110, 
    111, 
    112, 
    113, 
    114, 
    115, 
    116, 
    117, 
    118, 
    119, 
    120, 
    121, 
    122, 
    123, 
    124, 
    125, 
    126, 
    127, 
    128, 
    129, 
    130, 
    131, 
    132, 
    133, 
    134, 
    135, 
    136, 
    137, 
    138, 
    139, 
    140, 
    141, 
    142, 
    143, 
    144, 
    145, 
    146, 
    147, 
    148, 
    149, 
    150, 
    151, 
    152, 
    153, 
    154, 
    155, 
    156, 
    157, 
    158, 
    159, 
    160, 
    161, 
    162, 
    163, 
    164, 
    165, 
    166, 
    167, 
    168, 
    169, 
    170, 
    171, 
    172, 
    173, 
    174, 
    175, 
    176, 
    177, 
    178, 
    179, 
    180, 
    181, 
    182, 
    183, 
    184, 
    185, 
    186, 
    187, 
    188, 
    189, 
    190, 
    191, 
    192, 
    193, 
    194, 
    195
  ], 
  "heads": [[147, 0, 0], [184, 0, 0], [193, 0, 0]], 
  "attrs": {"mxnet_version": ["int", 10501]}
}